model/rock/ct2Percent/ct2Percent.pt (torch, 31275 bytes, 16 tensors)

block.0.weight f4 [32, 1]
0	0x3a5ce362	0.00084262167
1	0xbc9be8b8	-0.019031867
2	0xc0291c82	-2.642365
3	0xbfe11185	-1.7583472
4	0xbd063fe2	-0.032775767
5	0xbc2b94a5	-0.010472451
6	0xbcc11089	-0.023567455
7	0xbbb827cd	-0.005619979
8	0xc0148479	-2.3205855
9	0xba9563ff	-0.0011397599
10	0xbc543048	-0.012950964
11	0xc0184408	-2.3791523
12	0xbc0a10cd	-0.008426857
13	0xbbdb0202	-0.006683589
14	0x3b635bcc	0.0034692166
15	0x3b8e8580	0.0043494105
16	0x3c46a9b5	0.012125422
17	0xc048b060	-3.135765
18	0x3c5a312b	0.013317387
19	0xbbb7f2db	-0.0056136674
20	0x4033366a	2.8001962
21	0xc0471d56	-3.1111655
22	0xbcab2b78	-0.020894751
23	0xbcc4a5d9	-0.024004864
24	0x3bfc5a01	0.007701159
25	0x3a016d49	0.0004937244
26	0xbf9478c0	-1.159935
27	0xba56a815	-0.00081884983
28	0x400ef32e	2.2335925
29	0xbcaf8c61	-0.021429243
30	0xbba949ba	-0.0051662596
31	0x3ab1ad63	0.0013555702

block.0.bias f4 [32]
0	0xbb94b2a0	-0.0045378953
1	0xbc383420	-0.011242896
2	0xc01dda1d	-2.4664376
3	0xbfba35d0	-1.4547672
4	0xbd2207a1	-0.039558057
5	0xbc182f2f	-0.009288593
6	0xbce92e9a	-0.028464604
7	0xbbc9e299	-0.0061610457
8	0xbff18ceb	-1.887113
9	0xbc0262dc	-0.00795814
10	0xbc54f7bb	-0.012998517
11	0xc015ff12	-2.3436933
12	0xbbf20f69	-0.007387091
13	0xbcbbb601	-0.022913935
14	0xbb344acd	-0.0027510405
15	0xba786f62	-0.00094770466
16	0x3bb425f2	0.0054976875
17	0xbec1cde0	-0.37852383
18	0xbd0095c7	-0.03139284
19	0xbb8e9bb1	-0.004352056
20	0xbf92d451	-1.1471044
21	0xc036dd50	-2.8572578
22	0xbcc29e7a	-0.023757208
23	0xbce09d95	-0.027418891
24	0x3b89f757	0.0042103934
25	0xbaa3a79a	-0.0012485862
26	0x3ebb986c	0.36639726
27	0xbc61b4d1	-0.01377602
28	0xbf730f90	-0.9494562
29	0xbcabb4c9	-0.020960229
30	0xbbc3b603	-0.005972625
31	0xbbdb3121	-0.006689206

block.2.weight f4 [32, 32]
0	0x3d075b4c	0.03304605
1	0x3e09ef8d	0.13470288
2	0x3e42969f	0.1900277
3	0x3d3c055f	0.04590356
4	0xbc579906	-0.013159042
5	0xbd8cb920	-0.06871247
6	0x3dd39a23	0.103321336
7	0x3d54f550	0.05199176
8	0xbde38a64	-0.1111038
9	0x3d12f914	0.03588207
10	0x3e021ee0	0.1270709
11	0x3e00c773	0.12576084
12	0x3e7c8a42	0.24662116
13	0xbe811272	-0.25209385
14	0xbd0438d2	-0.03228075
15	0xbd232737	-0.03983232
16	0xbdec025b	-0.11523887
17	0xbc728aa4	-0.014803562
18	0xbea69c05	-0.32540908
19	0x3d033df8	0.03204152
20	0xbd63a4ee	-0.05557721
21	0xbee7edd3	-0.45298633
22	0x3d06830d	0.032839824
23	0x3e4c7170	0.19965148
24	0x3d89228c	0.066960424
25	0x3dbe2e25	0.09286145
26	0x3e43f5bf	0.19136713
27	0x3e07685c	0.13223404
28	0xbd3ac2a8	-0.045595795
29	0x3d3f8ca5	0.04676499
30	0x3e25b57f	0.16182517
31	0x3e8e91c4	0.27845585
32	0x3df8dcdf	0.12151503
33	0x3e167b71	0.14695527
34	0x3e36f0c1	0.17865278
35	0xbd1805e8	-0.037115008
36	0xbd13f167	-0.03611889
37	0x3dfbbcf7	0.122919016
38	0x3d292ba7	0.041301396
39	0x3d456546	0.048192285
40	0xbe655e24	-0.22399193
41	0xbda5540c	-0.08072671
42	0x3cbccddd	0.023047382
43	0xbe2d7ba4	-0.16941696
44	0x3e2e2e9a	0.17009965
45	0xbdfe2572	-0.12409486
46	0x3e5a83ee	0.2133939
47	0x3d72423a	0.05914519
48	0x3b776dee	0.0037754732
49	0xbcd52d00	-0.026022434
50	0xbdb72ea5	-0.089444436
51	0xbda525a1	-0.08063818
52	0xbd38afbd	-0.045089472
53	0xbde38e84	-0.11111167
54	0xbe7cac9a	-0.24675217
55	0xbd9b5f6c	-0.0758656
56	0x3d1a35fd	0.037649143
57	0x3e426271	0.18982865
58	0x3e383855	0.17990239
59	0x3e2a2bb4	0.16618234
60	0xbdcae788	-0.09907442
61	0xbe0b33f5	-0.13594039
62	0x3a18f1e9	0.0005834387
63	0x3e6eda00	0.23325348
64	0xbcb89d8a	-0.022536058
65	0xbb1b0813	-0.0023655936
66	0x3d977c6c	0.073967785
67	0xbe01b8ae	-0.12668106
68	0x3d9df498	0.07712668
69	0x3d59c6ba	0.053168036
70	0xbdc2f402	-0.09519197
71	0xbcab4524	-0.020906992
72	0xbdce1733	-0.10063019
73	0x3c33095e	0.010927526
74	0x3e80d52e	0.25162643
75	0xbdb8a116	-0.090151
76	0xbdfea996	-0.1243469
77	0x3eb0ad76	0.3450734
78	0xbe0d22ff	-0.13782881
79	0x3dff52a0	0.12466931
80	0xbc2f603a	-0.010704095
81	0xbd6840cd	-0.056702424
82	0x3e25f3aa	0.16206232
83	0x3deeb7a5	0.11656121
84	0x3c501de3	0.012702438
85	0x3d0456d0	0.032309353
86	0x3b871603	0.004122497
87	0x3d8674a1	0.06565214
88	0x3ced5465	0.028970907
89	0x3a43b02a	0.000746491
90	0x3e2dfd28	0.16991103
91	0xbd2d5183	-0.042314064
92	0xbe42262e	-0.18959877
93	0x3ea65a9d	0.32491007
94	0x3ccc273b	0.02492105
95	0x3db4f328	0.08835441
96	0xbda72bc5	-0.08162645
97	0x3e360776	0.17776284
98	0x3dcc1058	0.09964055
99	0xbc927450	-0.017877728
100	0x3dd56338	0.10419315
101	0x3d95f316	0.073217556
102	0x3e82705c	0.25476348
103	0x3e23be7a	0.1599063
104	0xbd99ef1e	-0.07516311
105	0xbd1e14c5	-0.038594026
106	0x3e1adfe5	0.15124471
107	0xbdc4d6cc	-0.09611282
108	0x3c8cfc85	0.017210254
109	0x3e0af555	0.13570149
110	0x3d314262	0.0432762
111	0x3c33ab2f	0.010966106
112	0x3c5f3842	0.013624253
113	0xbd456ead	-0.04820125
114	0xbd85a609	-0.06525809
115	0x3e1e51e2	0.15460923
116	0xbd90188e	-0.070359334
117	0xbdd90f8e	-0.1059867
118	0xbe6e4899	-0.23269881
119	0x3db52214	0.088443905
120	0xbbd2e054	-0.0064354334
121	0x3e289f26	0.1646696
122	0x3e1b40c7	0.1516143
123	0xbdcdc029	-0.10046417
124	0xbcc9bee0	-0.02462715
125	0xbe49fd70	-0.19725585
126	0x3dd3f7ef	0.10350024
127	0xbc3d1646	-0.011540955
128	0x3e6f4319	0.2336544
129	0x3cf6e3dd	0.03013795
130	0x3e0bee8b	0.13665216
131	0xbdc64bcd	-0.096824266
132	0x3d151ec7	0.036406305
133	0xbdbf20cb	-0.09332427
134	0x3cb9bcd4	0.022673048
135	0x3c952224	0.018204756
136	0xbe7ec149	-0.2487842
137	0x3ce37112	0.027763877
138	0x3e0266e0	0.12734556
139	0xbd928022	-0.07153346
140	0x3d86a841	0.06575061
141	0x3e11a097	0.14221416
142	0x3e8472fe	0.25868982
143	0x3dd37a2c	0.10326037
144	0xbdc5df58	-0.0966174
145	0x3be1a95c	0.0068866443
146	0xbe6f1260	-0.23346853
147	0xbe01dde6	-0.12682304
148	0xbdc10766	-0.09425239
149	0x3d54712d	0.051865745
150	0x3e27cd44	0.16386896
151	0xbd23b65a	-0.039968826
152	0xbe86e921	-0.26349738
153	0xbd0f0284	-0.03491451
154	0x3db0c210	0.086307645
155	0xbdfdc3a6	-0.123908326
156	0xbd574e8d	-0.052565146
157	0xbd69a628	-0.057043225
158	0x3dc97dec	0.09838471
159	0x3dd33221	0.10312296
160	0x3e10d864	0.14145046
161	0xbc3caf6c	-0.011516433
162	0x3dd6c195	0.104861416
163	0x3d9f3481	0.07773686
164	0x3d3253f2	0.043537088
165	0x3df17310	0.117895246
166	0xbdaab8b1	-0.08336008
167	0xbeca9dce	-0.3957352
168	0xbe6568dc	-0.22403282
169	0xba9edab8	-0.0012119627
170	0x3dd4e841	0.103958614
171	0xbe3db893	-0.1852744
172	0x3e9174ac	0.28409326
173	0xbda71abf	-0.08159398
174	0x3e28ab2c	0.16471547
175	0x3e7afff0	0.24511695
176	0x3e594fd6	0.21221861
177	0xbcbf8f8e	-0.023383882
178	0xbd5caa19	-0.053873155
179	0xbe436a85	-0.19083603
180	0xbe299567	-0.16560899
181	0xbda02eab	-0.07821401
182	0x3e658fcf	0.2241814
183	0x3e9d4258	0.3071468
184	0xbcd3eced	-0.025869811
185	0xbb8e95c9	-0.004351352
186	0x3e2e5701	0.17025377
187	0xbcba84e5	-0.022768447
188	0x3d69e652	0.057104416
189	0xbe3c2c16	-0.18376192
190	0x3cdb8ffd	0.026802057
191	0x3d6584a8	0.056034714
192	0x3d62ab97	0.055339422
193	0xbe781964	-0.24228436
194	0x3dd1c531	0.102426894
195	0xbdcd774b	-0.10032519
196	0x3df69ca4	0.120415956
197	0x3db0a18b	0.08624562
198	0xbe056f34	-0.13030702
199	0x3e15d6b6	0.14632687
200	0xbe7283f2	-0.23683146
201	0xbbf4903f	-0.0074634845
202	0x3dc55154	0.09634653
203	0xbe1580b4	-0.14599878
204	0x3e7f7b89	0.24949469
205	0xbe71731f	-0.23579071
206	0x3d297573	0.041371774
207	0x3ed841dd	0.4223775
208	0x3e7e18bd	0.24814124
209	0xbd6c6864	-0.057716742
210	0xbe1950b3	-0.1497219
211	0x3dff4614	0.12464538
212	0xbc2cc222	-0.010544332
213	0xbc6e20c1	-0.014534176
214	0xbe3bcf4a	-0.18340793
215	0xbdab7acf	-0.08373033
216	0x3e8ae270	0.27125883
217	0x3e939d5a	0.28830987
218	0x3e18869e	0.14895102
219	0x3e1935d5	0.14961942
220	0xbd6b8d39	-0.057507727
221	0xbe34d223	-0.17658286
222	0x3d489e5b	0.048979145
223	0xbe51b50d	-0.20479222
224	0xbda56448	-0.08075768
225	0xbd1b36ab	-0.037893932
226	0x3e78b935	0.24289401
227	0x3e974439	0.29544237
228	0x3e232525	0.15932138
229	0x3d2fb471	0.04289669
230	0x3e253e3c	0.16137022
231	0xbd1731a2	-0.036912568
232	0xbe247c96	-0.16063151
233	0xbdc790ac	-0.09744391
234	0x3dbb493d	0.091448285
235	0x3a8bdfd5	0.0010671566
236	0xbe3d0e1c	-0.18462414
237	0x3c14c410	0.009079948
238	0x3d37e45d	0.04489552
239	0xbdc82d95	-0.09774319
240	0xbd83c69c	-0.06434366
241	0xbd7ead49	-0.062176976
242	0xbe067b4a	-0.13132969
243	0xbe03b6c2	-0.12862685
244	0xbced9eca	-0.02900638
245	0xbf61eff8	-0.8825679
246	0x3e138964	0.14407879
247	0x3e03e9b4	0.1288212
248	0xbdcb9a7b	-0.09941574
249	0xbd7b5020	-0.06135571
250	0x3ec5dc04	0.3864442
251	0xbec13dcb	-0.37742457
252	0xbe4e3e93	-0.20141058
253	0x3e5d882a	0.21633974
254	0xbdad27bc	-0.08454844
255	0x3e344a42	0.17606452

block.2.bias f4 [32]
0	0xbe93335b	-0.2875012
1	0xbe903b0c	-0.2817005
2	0xbe520491	-0.20509554
3	0xbe42bd5d	-0.19017549
4	0xbe690971	-0.22757508
5	0xbe9744a3	-0.29544553
6	0xbe7b5f31	-0.24548031
7	0xbf16bcbf	-0.58881754
8	0xbe9d7fea	-0.30761653
9	0xbe9a440e	-0.30130047
10	0xbf61e929	-0.882464
11	0xbe7358c3	-0.23764329
12	0xbf344931	-0.7042418
13	0xbe32cc36	-0.17460713
14	0xbee7cedf	-0.45275018
15	0xbe7fa5a2	-0.24965528
16	0xbdee8c31	-0.11647833
17	0xbd99c24a	-0.07507761
18	0xbf91a060	-1.1377068
19	0xbe119e78	-0.14220607
20	0xbe280065	-0.164064
21	0xbea24766	-0.31695098
22	0x3e400494	0.18751746
23	0xbea8ba45	-0.32954612
24	0xbe41b1e1	-0.18915512
25	0xbe2b131c	-0.16706508
26	0xbe2de09c	-0.16980213
27	0xbe9b1c9c	-0.30295265
28	0xbe3f5466	-0.18684539
29	0x3f24e12e	0.64406097
30	0xbe5f9763	-0.21835093
31	0xbe8619d2	-0.26191574

block.4.weight f4 [32, 32]
0	0xbd518da7	-0.05116048
1	0xbdccdd59	-0.10003156
2	0xbdc337f6	-0.09532158
3	0xbe029192	-0.12750843
4	0x3e3898a1	0.18026973
5	0xbdb87ae0	-0.090078115
6	0x3d0201e5	0.031740088
7	0xbe166479	-0.14686765
8	0x3be8e028	0.0071067996
9	0x3d4ff9aa	0.050775208
10	0xbd273b59	-0.040828083
11	0xbcb4e5b4	-0.022082187
12	0x3e035a72	0.12827471
13	0xbdcc722d	-0.09982715
14	0xbcae1aea	-0.021253068
15	0xbe8b8deb	-0.27256712
16	0x3d0b1eb6	0.033964835
17	0x3dcec866	0.10096817
18	0xbde0a776	-0.10969441
19	0xbd5c4a4a	-0.053781785
20	0x3e43c8b7	0.19119535
21	0x3dbfad2c	0.09359202
22	0x3dc35b13	0.095388554
23	0xbd55518d	-0.052079726
24	0x3e17970e	0.14803717
25	0x3de77e35	0.11303369
26	0xbdb8e66c	-0.090283245
27	0xbcdd7901	-0.027035238
28	0x3d92ae4b	0.0716215
29	0xbc210c4e	-0.009829594
30	0xbd08b54e	-0.03337603
31	0xbd948bc8	-0.07253224
32	0xbdf8a342	-0.12140514
33	0x3dcb83c6	0.09937243
34	0xbdd1a926	-0.10237341
35	0x3bb771f4	0.005598301
36	0xbe7b8aa9	-0.24564613
37	0xbe3af4e5	-0.18257482
38	0x3cfa12a1	0.030526461
39	0x3d765118	0.06013593
40	0x3bb67b71	0.0055689146
41	0xbe0794df	-0.13240384
42	0xbcb00513	-0.021486795
43	0xbd498345	-0.049197454
44	0x3e280a1c	0.16410106
45	0x3e155d1b	0.14586298
46	0x3d1761d9	0.03695855
47	0xbca60e9c	-0.020270638
48	0xbe760c8e	-0.24028227
49	0x3daebf88	0.085326254
50	0x3ad18fd5	0.00159883
51	0x3b3ec9d7	0.0029112005
52	0x3de11bdd	0.109916426
53	0xbd9330bd	-0.071870305
54	0xbd818753	-0.06324639
55	0xbc9aee99	-0.0189126
56	0xbc3cca32	-0.0115228165
57	0xbcc84d14	-0.024450816
58	0x3de220ba	0.11041398
59	0x3d10a7d6	0.03531631
60	0xbdb22326	-0.0869811
61	0xbaa365df	-0.0012466273
62	0x3c4b5468	0.012410261
63	0x3d08e2e3	0.0334195
64	0xbdc80f17	-0.09768503
65	0xbbb05d67	-0.005382228
66	0xbd627828	-0.05529037
67	0xbb8fde02	-0.004390479
68	0x3c0ac063	0.00846872
69	0xbda8deb1	-0.082456
70	0x3d3b06ad	0.045660663
71	0x3c36ee39	0.011165195
72	0x3c3ea800	0.011636734
73	0x3c9b7c35	0.018980125
74	0xbd20d855	-0.03926881
75	0x3df8064e	0.121105775
76	0x3e0fe163	0.14050822
77	0x3df2e73c	0.11860511
78	0x3dc7e599	0.09760589
79	0x3d95bb45	0.073111095
80	0xbe68ec4b	-0.22746389
81	0x3c5c4239	0.013443523
82	0x3aac3f8f	0.00131415
83	0xbdfea540	-0.12433863
84	0xbdfc41a8	-0.123172104
85	0xbca33b31	-0.019925686
86	0x3d83b695	0.06431309
87	0x3dc724b9	0.09723801
88	0xbe1770ee	-0.14789173
89	0x3d1a47a3	0.037665974
90	0xbc41aa62	-0.011820408
91	0xbd72ebfd	-0.059307087
92	0xbd196a14	-0.03745468
93	0xbc229a44	-0.009924475
94	0x3e18152d	0.14851828
95	0x3d60cc40	0.054882288
96	0xbd0b91ac	-0.03407447
97	0xbdf82fbb	-0.12118479
98	0xbe42af5b	-0.19012205
99	0xba3a5f0a	-0.0007109499
100	0xbbf49865	-0.007464456
101	0x3e239e78	0.1597842
102	0xbe1b441f	-0.15162705
103	0xbd045566	-0.032308005
104	0xbb334c5d	-0.0027358748
105	0x3cbe9176	0.02326272
106	0xbca88525	-0.0205713
107	0xbdb3fc9b	-0.08788415
108	0xbdfd0c1a	-0.12355824
109	0x3e365252	0.1780484
110	0xbd1ef71f	-0.03880989
111	0xbdf0053f	-0.117197506
112	0xbe4bf88a	-0.19919029
113	0xbd2bf67e	-0.04198312
114	0xbd137ab8	-0.036005706
115	0x3bec1977	0.007205184
116	0xbe231a1f	-0.15927933
117	0x3e1701f3	0.14746837
118	0x3dceeacf	0.1010338
119	0x3dac86aa	0.08424123
120	0xbb39d2df	-0.0028354449
121	0xbd941fa4	-0.072325975
122	0xbca78e47	-0.020453585
123	0x3e065330	0.13117671
124	0x3c666a89	0.014063486
125	0xba2b566d	-0.0006536011
126	0xbd99cfad	-0.07510314
127	0xbbbf86ff	-0.00584495
128	0x3e1c29ed	0.15250368
129	0xbcf99815	-0.030468026
130	0x3db41cf7	0.08794587
131	0xbd169e32	-0.03677196
132	0x3dcfdb66	0.10149269
133	0xbe451989	-0.19248022
134	0x3da0c452	0.07849945
135	0x3d9af30f	0.07565891
136	0x3a5ba751	0.0008379119
137	0xbd2f80f8	-0.042847604
138	0xbd090640	-0.033453226
139	0x3b4e93a1	0.00315211
140	0xbdeed008	-0.116607726
141	0xbd303200	-0.043016434
142	0x3d553448	0.052051812
143	0x3d1c6ef9	0.03819177
144	0xbdf39fa0	-0.118956804
145	0xbe2333a3	-0.15937667
146	0x3c2b528b	0.0104566915
147	0x3cedad23	0.029013222
148	0x3e221d41	0.15831472
149	0x3d2199c1	0.03945327
150	0x3d9b7fb2	0.07592715
151	0xbc788d64	-0.015170429
152	0xbdeb80ba	-0.11499162
153	0x3d4bbd44	0.049741045
154	0xbe5b98d6	-0.21445021
155	0xbd4f6e8b	-0.05064253
156	0xbeae8d1c	-0.34092033
157	0xbc1affa3	-0.009460363
158	0xbe526ad7	-0.20548569
159	0xbd8fa536	-0.07013933
160	0x3ce3b981	0.027798416
161	0x3cad9a00	0.021191597
162	0x3d0935b2	0.033498473
163	0x3d00707b	0.03135727
164	0x3d8a0ec8	0.067411005
165	0xbc2a2deb	-0.010386924
166	0x3c840671	0.016116353
167	0x3ceeec69	0.029165464
168	0xbc99c59a	-0.018770982
169	0xbcd7e855	-0.026355902
170	0xbce21366	-0.02759714
171	0xbd364e2c	-0.044508144
172	0x3dbdcfee	0.09268175
173	0x3e78b01c	0.2428593
174	0xbd27ae2e	-0.040937595
175	0xbe00f28f	-0.12592529
176	0x3da2a54c	0.07941684
177	0x3d4a97e3	0.049461257
178	0xbd8b9686	-0.068158194
179	0xbd3fadf3	-0.04679675
180	0x3e6a3b50	0.22874188
181	0x3d79b382	0.060962208
182	0x3cd23d3a	0.02566396
183	0xbb23edbc	-0.0025013527
184	0x3e2cbf33	0.16869812
185	0x3b476e40	0.0030430704
186	0x3e17b5fb	0.14815514
187	0xbcb19d26	-0.02168138
188	0x3e09bc95	0.13450845
189	0xbc9323ed	-0.017961467
190	0x3c52b449	0.012860366
191	0x3e2a5fda	0.16638127
192	0xbe043c96	-0.12913737
193	0xbd645b1d	-0.055750955
194	0x3dfb04f7	0.12256806
195	0xbc661d31	-0.014045046
196	0x3dcc91cf	0.09988748
197	0x3d7e5e1c	0.06210147
198	0x3d58efd4	0.052963093
199	0x3d7934b8	0.060841292
200	0x3a2afbee	0.0006522526
201	0x3d04dc33	0.03243656
202	0xbd167241	-0.036730055
203	0xbdf87781	-0.121321686
204	0xbcab2c0b	-0.020895025
205	0xbc884b44	-0.016637452
206	0xbdc0d287	-0.09415155
207	0x3d6edf9e	0.058318727
208	0xbd2fc8e5	-0.042916197
209	0x3b2f5ddc	0.0026758825
210	0x3d5dea2c	0.0541784
211	0xbe11e049	-0.14245714
212	0x3e8b0f03	0.2715989
213	0xbdd57dbe	-0.10424374
214	0x3e0fb3dd	0.14033456
215	0x3cc044ff	0.0234704
216	0x3cddb38d	0.027063156
217	0x3e111da5	0.14171465
218	0x3e222111	0.15832926
219	0x3d189a31	0.037256423
220	0x3e1f963e	0.15584657
221	0xbc335cc2	-0.010947408
222	0x3ded0063	0.115723394
223	0x3e458ad4	0.1929124
224	0xbdb96f25	-0.09054402
225	0xbdf925ba	-0.12165399
226	0xbe446a2e	-0.1918113
227	0x3d7257f9	0.05916593
228	0xbd942778	-0.072340906
229	0x3e0d301a	0.1378788
230	0x3e07f388	0.13276494
231	0xbdac8334	-0.084234625
232	0xbb66e802	-0.0035233502
233	0xbc94f6d0	-0.018184096
234	0xbd9fba5d	-0.07799218
235	0xbe4864a6	-0.19569644
236	0xbe16bf7a	-0.1472148
237	0x3dc202dd	0.094732024
238	0xbc887764	-0.016658492
239	0xbd23973e	-0.039939158
240	0x3c613b74	0.013747085
241	0x3da0a4d6	0.0784394
242	0x3c52cd30	0.012866303
243	0xbe0567ae	-0.13027832
244	0xbe2fd370	-0.17170501
245	0xbd9d2f69	-0.076750584
246	0x3d104420	0.03522122
247	0x3df4870e	0.11939822
248	0xbd9076f9	-0.07053942
249	0x3e256092	0.1615012
250	0x3e4367fa	0.19082633
251	0x3d274b75	0.040843446
252	0x3e0d196a	0.13779226
253	0xbca29046	-0.019844186
254	0x3e87ee0e	0.2654881
255	0x3d94faca	0.07274397

block.4.bias f4 [32]
0	0xbd9583f0	-0.07300556
1	0xbc632193	-0.013862985
2	0xbd1c4008	-0.038147002
3	0xbd459a56	-0.04824289
4	0xbd1267c6	-0.035743497
5	0xbd95ca07	-0.07313924
6	0xbd2f2ddc	-0.042768344
7	0xbd1f1f09	-0.038847957
8	0xbec84107	-0.39112112
9	0xbd99508e	-0.07486068
10	0xbd8d4852	-0.0689856
11	0xbd26a85d	-0.040687907
12	0xbd272b99	-0.040813062
13	0xbc8746e9	-0.016513305
14	0xbc2174eb	-0.009854536
15	0xbcfbedd5	-0.030753056
16	0xbd249bac	-0.040187523
17	0xbcd38695	-0.02582101
18	0xbd4b3dfa	-0.049619652
19	0xbd49c348	-0.0492585
20	0xbd38f68c	-0.045157
21	0xbd775c50	-0.06039077
22	0xbefacf0b	-0.48986086
23	0xbd1247c0	-0.035712957
24	0xbc6339f6	-0.013868799
25	0xbdb4ae0e	-0.08822261
26	0xbd882a2e	-0.0664867
27	0xbf10b7b5	-0.56530315
28	0xbd5434de	-0.05180823
29	0xbd7e1acd	-0.062037278
30	0xbd83ec87	-0.064415984
31	0xbd5ff395	-0.054675657

block.6.weight f4 [32, 32]
0	0x3e26a6d9	0.16274585
1	0xbb57d372	-0.0032932428
2	0x3d6af7c9	0.057365213
3	0x3d83b0fd	0.06430242
4	0x3dbe0b4c	0.092794985
5	0xbc8cb2ca	-0.017175097
6	0x3e046f70	0.12933135
7	0xbd7166bb	-0.058935862
8	0x3dd82920	0.10554719
9	0x3e10d30e	0.14143011
10	0xbd55868f	-0.05213028
11	0x3d72ad2f	0.059247192
12	0xbe928f07	-0.28624746
13	0x3e1758e2	0.1478
14	0x3dcfbc08	0.10143286
15	0x3dee3136	0.1163048
16	0x3d901dfe	0.070369706
17	0x3dca82fb	0.09888264
18	0xbcf3570f	-0.029704599
19	0x3cec6cf9	0.028860556
20	0x3dc9f99a	0.09862061
21	0xbda76a0a	-0.08174522
22	0xbbd20bad	-0.0064100833
23	0x3e972aae	0.2952475
24	0xbddcf7ed	-0.107894756
25	0xbdd08819	-0.101822086
26	0x3dcb2421	0.099190004
27	0xbd9dc3e2	-0.07703377
28	0xbcfde1f7	-0.030991537
29	0xbdbdd583	-0.0926924
30	0xbd6d8db6	-0.057996474
31	0x3d946121	0.07245088
32	0x3a489c8e	0.0007652723
33	0x3a4f3220	0.00079038925
34	0xba7f8b7b	-0.0009748262
35	0x3b4ec507	0.0031550543
36	0xbb1f8be5	-0.0024344858
37	0xbca34958	-0.019932434
38	0xbabb0a2c	-0.0014269999
39	0xbb9f2d57	-0.0048577
40	0x3c474328	0.012162007
41	0xbc9c212e	-0.01905879
42	0xbb1ac55b	-0.0023616168
43	0xbcbc6d19	-0.02300124
44	0xba7dd41a	-0.00096827897
45	0xba79212c	-0.0009503539
46	0x3852708b	5.0172715e-05
47	0xba5cba46	-0.0008420091
48	0xb8806fb6	-6.1243234e-05
49	0xbb354d25	-0.002766439
50	0xbc391407	-0.011296279
51	0x3a6bbe62	0.0008992908
52	0xbbb5c2fd	-0.005546926
53	0xba492add	-0.00076739286
54	0xbf8ea1fa	-1.1143181
55	0xbaf451c5	-0.0018640092
56	0xba8771ee	-0.0010333636
57	0xba509f45	-0.00079583033
58	0xba9a5885	-0.0011775648
59	0xbd70af99	-0.058761213
60	0x3a7af09f	0.00095725985
61	0xbb15bf36	-0.0022849566
62	0x3b523f62	0.0032081236
63	0xbb819a9b	-0.003955198
64	0x3d7faf05	0.06242277
65	0xbd6eded6	-0.05831798
66	0x3d99f90f	0.07518207
67	0xbe103ac7	-0.14084922
68	0xbcd5d96e	-0.026104655
69	0xbcaccde0	-0.021094263
70	0xbd4f03e5	-0.050540823
71	0x3be4cffb	0.006982801
72	0x3e92c356	0.28664654
73	0x3dae8844	0.08522084
74	0xbcecf5be	-0.028925773
75	0x3d606c51	0.0547908
76	0xbcf49a84	-0.029858835
77	0x3ced0991	0.028935226
78	0x3e214ba9	0.15751518
79	0x3cd667be	0.026172515
80	0x3e864ed3	0.26232013
81	0x3bf15e0a	0.0073659467
82	0xbd034d1a	-0.03205595
83	0x3c7ffef2	0.015624749
84	0x3d0b8659	0.03406367
85	0x3dbc9ff3	0.092101954
86	0xbbc2a855	-0.005940477
87	0x3c2cead0	0.010554031
88	0xbd6cd36c	-0.057818815
89	0x3cf1c7a4	0.029514141
90	0x3ddba664	0.10725096
91	0xbd2938dd	-0.041313995
92	0x3d8d8d96	0.06911771
93	0xbd94f85a	-0.07273932
94	0x3d05dc9b	0.03268109
95	0x3da19abd	0.07890842
96	0x3d44865f	0.04797971
97	0x3d93811e	0.072023615
98	0xbd8c2895	-0.06843678
99	0x3d9c1ff6	0.076232836
100	0x3df70bec	0.12062821
101	0xbca48052	-0.02008072
102	0x3e4ea843	0.20181374
103	0xbda825ef	-0.0821036
104	0x3e1ec4c3	0.15504746
105	0xbd56926f	-0.052385744
106	0xbd40d88d	-0.04708152
107	0xbbde2a81	-0.006779969
108	0x3bf8b3bb	0.007589785
109	0xbe2058c2	-0.15658858
110	0x3dccd8df	0.100023024
111	0xbbdf3e45	-0.006812843
112	0xbc92d026	-0.017921519
113	0xbdd0936b	-0.10184368
114	0x3989b209	0.00026263323
115	0x3e0ba9ba	0.13638964
116	0xbd021d14	-0.031766012
117	0xbd3cf8c2	-0.04613567
118	0xbb3ded8e	-0.0028980705
119	0xbdcf412b	-0.10119852
120	0x3ccb4661	0.024813833
121	0xbd3bff91	-0.045898024
122	0xbd4cf18d	-0.05003505
123	0xbcafcd97	-0.021460338
124	0x3d2abdb4	0.04168482
125	0xbd98c2ee	-0.07459055
126	0x3d9b81c8	0.07593113
127	0x3c37c0e7	0.011215425
128	0x3e01a23b	0.12659542
129	0xbcc82306	-0.024430763
130	0xbd5ef0b2	-0.054428764
131	0x3d7abdd6	0.061216198
132	0xbdf774e4	-0.12082842
133	0x3cad1d5c	0.021132164
134	0xbd89b0c2	-0.06723167
135	0xbe481784	-0.1954022
136	0x3df63026	0.12020902
137	0xbd785874	-0.06063123
138	0x3b976713	0.0046204417
139	0xbe0ecbf9	-0.13944997
140	0xbd064814	-0.032783583
141	0xbd592a54	-0.053018883
142	0x3de4bd5b	0.11168929
143	0x3e0ba19d	0.1363587
144	0xbc4677bb	-0.012113507
145	0x3da7faa6	0.08202104
146	0x3d927cfe	0.071527466
147	0xbc9aa0d8	-0.018875524
148	0x3d984340	0.07434702
149	0xbd88bd91	-0.06676782
150	0xbb7d24f9	-0.0038626774
151	0x3d00aaba	0.031412818
152	0x3e10bb81	0.14134027
153	0x3c0d1f81	0.008613468
154	0xbd4f5bf9	-0.05062482
155	0xbd1d5ba0	-0.03841746
156	0xbbc10a95	-0.005891154
157	0xbdcb50a3	-0.099274896
158	0xbb205574	-0.0024464997
159	0xbd1f2b98	-0.038859934
160	0x3cd0c056	0.025482338
161	0x3d267c0d	0.040645648
162	0xbdcda236	-0.10040705
163	0x3e05b88f	0.13058685
164	0x3e0037f7	0.12521349
165	0x3d968f18	0.07351512
166	0xbe394807	-0.18093883
167	0xbe6d48f8	-0.23172367
168	0x3e5f32ad	0.21796675
169	0x3dcd4e9c	0.10024759
170	0xbda32ab9	-0.07967133
171	0xbe152fc6	-0.14569005
172	0x3cd649d4	0.02615825
173	0xbbfa86a4	-0.007645445
174	0xbd3fd53a	-0.046834208
175	0xbe065b86	-0.13120851
176	0x3d128cb8	0.03577873
177	0xba43706d	-0.00074554124
178	0x3d6d6f3b	0.057967406
179	0x3df8c646	0.12147193
180	0xbdc6028e	-0.09668456
181	0x3d40e3f1	0.047092382
182	0xba005dd5	-0.00048967946
183	0x3e3fcd96	0.18730769
184	0x3e0125a0	0.12612009
185	0x3e4d1b52	0.20029953
186	0x3d8671d2	0.06564678
187	0xbc9d2e08	-0.019186988
188	0x3dca8115	0.09887902
189	0xbdeb34dd	-0.11484692
190	0xbe5890ee	-0.21149036
191	0xbd6e06fc	-0.05811213
192	0xbc59016a	-0.013244966
193	0xbe13b8b9	-0.14425935
194	0x3d97b2c8	0.07407147
195	0xbd07e2a8	-0.03317514
196	0x3dfffb5e	0.12499116
197	0xbdc38d9c	-0.09548494
198	0x3d0b1728	0.03395763
199	0x3c6a2030	0.014289901
200	0x3e8436a6	0.25822943
201	0x3cf81b2b	0.030286392
202	0x3d8b63b2	0.06806125
203	0xbe38a1d0	-0.18030477
204	0x3dd65690	0.10465729
205	0xbd1859af	-0.037194904
206	0xbe55884c	-0.20852774
207	0x3dac0031	0.08398474
208	0xbbe3e019	-0.0069542048
209	0xbdb4ecd2	-0.088342324
210	0x3de23416	0.11045091
211	0x3e231bcb	0.15928571
212	0xbd1a0460	-0.03760183
213	0xbc87edb9	-0.016592847
214	0x3ca42c17	0.020040555
215	0x3d81c93c	0.063372105
216	0xbca2ae4d	-0.019858504
217	0x3e209fe7	0.15685998
218	0x3a90025e	0.0010987034
219	0xbc4852e4	-0.012226794
220	0x3d165981	0.03670645
221	0x3e07fa35	0.1327904
222	0xbb88c29a	-0.004173589
223	0x3dfe1d3e	0.12407921
224	0x3d3ab8e5	0.045586485
225	0xbd11c171	-0.03558487
226	0x3cfdedfa	0.030997265
227	0xbe0c999d	-0.13730474
228	0x3d91093c	0.070818394
229	0x3e1924a1	0.14955379
230	0xbd1e5561	-0.038655642
231	0x3d570ada	0.052500583
232	0x3e2fdd42	0.17174247
233	0xbbcf496a	-0.0063258903
234	0x3d887e52	0.06664719
235	0x3d4c272b	0.04984204
236	0xbdf7bfc0	-0.1209712
237	0x3d5cffd5	0.053954918
238	0xbd11e1bf	-0.03561568
239	0x3d82b1d4	0.06381574
240	0xbc9e1701	-0.019298078
241	0x3dc66905	0.09688
242	0x3ce25581	0.027628662
243	0x3d72a2f7	0.059237447
244	0x3cb876f5	0.02251766
245	0x3c86fa6e	0.016476836
246	0x3ae14792	0.0017187467
247	0xbca57a0d	-0.0201998
248	0xbded3c62	-0.11583783
249	0x3d919015	0.071075596
250	0x3da01534	0.07816544
251	0xbd95f3dc	-0.07321903
252	0xbe551348	-0.20808136
253	0xbbccecf7	-0.0062538343
254	0xbdb51d1e	-0.08843444
255	0xbcf80169	-0.03027411

block.6.bias f4 [32]
0	0xbd55bfd3	-0.05218489
1	0x3ea8a727	0.32940027
2	0xbc8e5990	-0.017376691
3	0xbcb42c50	-0.021993786
4	0xbc8b7f3f	-0.01702845
5	0xbc817ec4	-0.015807517
6	0xbc3d9bf0	-0.011572823
7	0xbd02ef8c	-0.03196673
8	0xbd0427fe	-0.032264702
9	0xbc9906dd	-0.01868003
10	0xbd1a507d	-0.037674416
11	0xbc3f3e97	-0.011672637
12	0xbd0623ce	-0.03274899
13	0xbcf843e6	-0.030305814
14	0xbcf7dee4	-0.03025765
15	0xbcbf7bd4	-0.023374476
16	0xbd59632b	-0.05307309
17	0xbc927a5e	-0.017880615
18	0xbc91edbd	-0.017813558
19	0xbcd80c14	-0.026372947
20	0xbc462400	-0.012093544
21	0xbd2a5281	-0.041582588
22	0xbf1f2a9c	-0.6217439
23	0xbc6e656d	-0.014550549
24	0xbcd7caf5	-0.026341895
25	0xbca6cb73	-0.020360684
26	0xbced6f72	-0.028983805
27	0xbc59ba73	-0.013289082
28	0xbcd07b29	-0.025449352
29	0xbe26200b	-0.16223161
30	0xbcd6afeb	-0.026206931
31	0xbbbb87e2	-0.0057229856

block.8.weight f4 [32, 32]
0	0x3dbce381	0.092230804
1	0xbc98d047	-0.018654002
2	0xbc83f27c	-0.016106836
3	0xbc16a31a	-0.00919416
4	0xbc314c39	-0.010821396
5	0xbd58a4d0	-0.052891552
6	0xbad1ba3f	-0.001600094
7	0x3dc329df	0.09529471
8	0x3d078f09	0.033095393
9	0xbda134d8	-0.07871407
10	0xbcadd5ae	-0.021220054
11	0x3e29df8e	0.16589186
12	0x3db289a6	0.087176606
13	0x3e15573e	0.14584062
14	0xbe5dbe5e	-0.2165465
15	0xbdd32527	-0.103098206
16	0x3dcea431	0.10089911
17	0xbce4a019	-0.027908372
18	0xbcd20492	-0.025636945
19	0xbe16620e	-0.14685842
20	0x3cadeaa0	0.021230042
21	0xbde89c2b	-0.11357912
22	0x3ab9de7d	0.0014180687
23	0x3af49b33	0.0018661976
24	0x3e0e68cd	0.13907166
25	0x3d01ec37	0.031719413
26	0x3df19f75	0.11797992
27	0xbc7e8ff0	-0.015537247
28	0x3cfe5ade	0.031049188
29	0xbd7cfede	-0.061766498
30	0xbd09936d	-0.03358786
31	0x3dfd3e8b	0.12365445
32	0x3c3cc7cd	0.011522246
33	0xbfd78a34	-1.6839051
34	0x3c099012	0.008396165
35	0x39e9f2c3	0.00044622095
36	0x3b06fb45	0.0020596546
37	0x3c4d4d15	0.012530585
38	0x3c2ea2ff	0.0106589785
39	0x39b22310	0.0003397693
40	0xbb574703	-0.0032848723
41	0x3b5668a4	0.003271618
42	0x3d0a6742	0.03378988
43	0x3b6fd824	0.0036597336
44	0x3c847448	0.016168728
45	0x3b805585	0.0039164447
46	0xbb4cd655	-0.0031255682
47	0x38c5f19e	9.438697e-05
48	0x3b284758	0.002567729
49	0x3bf7b442	0.00755933
50	0x39977d0e	0.00028894137
51	0x3c6a1702	0.014287712
52	0x3a9573a9	0.0011402267
53	0x3b9da32f	0.0048107128
54	0xbf61266b	-0.87949246
55	0x3b2af113	0.0026083633
56	0x3c66019e	0.0140384715
57	0x3ba239a0	0.004950717
58	0xbbfc233f	-0.0076946313
59	0x3b3d7f00	0.002891481
60	0x3a24c6b4	0.00062857126
61	0xbd4a953f	-0.04945874
62	0x3c2a2754	0.010385353
63	0xbadca381	-0.0016833396
64	0xbd5779ab	-0.052606266
65	0xbc39e761	-0.011346669
66	0xbd897479	-0.067116685
67	0x3e2522d7	0.16126572
68	0x3e306d88	0.17229283
69	0xbd6bbaca	-0.057551183
70	0xbc87acd0	-0.016561896
71	0x3db4faf7	0.0883693
72	0xbd1b69ea	-0.037942804
73	0x3cbe0f32	0.023200605
74	0x3d9c5048	0.076325
75	0x3da7f1b6	0.082003996
76	0x3d81f32b	0.06345209
77	0x3a8ee84f	0.0010902974
78	0x3d1bff18	0.038085073
79	0xbce7c080	-0.028290033
80	0x3c1432f9	0.009045356
81	0xbc58d4e1	-0.013234348
82	0xbe4c6984	-0.19962126
83	0x3e3c0529	0.18361343
84	0x3d04bddb	0.032407623
85	0xbd8deb35	-0.06929628
86	0xbc5d38de	-0.013502328
87	0xbc871914	-0.01649145
88	0x3ca29574	0.019846655
89	0xbd220c9e	-0.039562814
90	0xbc678139	-0.01412993
91	0xbe165aea	-0.14683118
92	0xbe94b0b8	-0.29041076
93	0x3d237054	0.039902046
94	0x3d973358	0.0738284
95	0x3b0d2ae1	0.002154045
96	0xbd4b48de	-0.04963004
97	0xbb7f8fd7	-0.0038995647
98	0x3d8359a0	0.06413579
99	0xbe5568d6	-0.20840773
100	0xbd91a2e3	-0.07111146
101	0x3e02b208	0.12763226
102	0x3cbec983	0.023289448
103	0xbdb48834	-0.08815041
104	0x3dd4b61a	0.103862956
105	0x3d96d0ca	0.07364042
106	0x3dfb0656	0.12257068
107	0xbd3cfb67	-0.046138193
108	0x3e0bb4b2	0.13643149
109	0x3c7c20b5	0.015388657
110	0xbd8365af	-0.06415879
111	0x3da91f1b	0.08257886
112	0x3e1013ea	0.14070097
113	0x3d23310a	0.03984169
114	0xbd69e1c4	-0.057100073
115	0xba02f89c	-0.0004996152
116	0xbd212ce9	-0.03934947
117	0xbdc03345	-0.09384779
118	0xbc5e47b5	-0.013566901
119	0xbe34483f	-0.17605685
120	0x3d0b7a8f	0.034052428
121	0x3c97fc35	0.018552879
122	0xbc7dd433	-0.015492487
123	0x3e0b1799	0.1358322
124	0x3e2d3d91	0.16918017
125	0x3dd3c194	0.103396565
126	0x3e5386c8	0.20656884
127	0xbe219098	-0.15777814
128	0xbdf0fb86	-0.11766724
129	0xbc2286ae	-0.009919805
130	0x3e245711	0.16048838
131	0xbdf3247b	-0.118721925
132	0xbc9fb819	-0.019496964
133	0xbd454352	-0.048159905
134	0xbc8193a1	-0.015817465
135	0x3de1db9e	0.11028217
136	0x3d97e569	0.074168034
137	0x3e0cb58a	0.13741127
138	0xbdc14804	-0.09437564
139	0x3d4459e8	0.047937304
140	0xbd9cd320	-0.076574564
141	0xbe2b88b4	-0.16751367
142	0x3d809a37	0.06279414
143	0x3cc2bfaf	0.023773042
144	0xbdfb2fdf	-0.1226499
145	0xbd76d648	-0.06026295
146	0xbe1ce4ba	-0.15321627
147	0xbd2e885c	-0.04261051
148	0x3de6950d	0.11258898
149	0xbd32cbef	-0.043651517
150	0xbbd11a34	-0.0063812975
151	0x3d8a2018	0.06744403
152	0xbdb978bb	-0.09056231
153	0xbe4cf104	-0.20013815
154	0xbdc43c58	-0.09581822
155	0xbcd3556a	-0.025797565
156	0xbdb01833	-0.08598366
157	0x3b5df4c7	0.0033867822
158	0xbd4e0a94	-0.050303057
159	0xbcd10b24	-0.025518008
160	0xbd245afe	-0.04012584
161	0x3b916425	0.004436987
162	0xbd5e8ba3	-0.054332387
163	0xbd01cbfb	-0.03168867
164	0xbd013750	-0.03154689
165	0x3dc46d5a	0.0959117
166	0xbdd64700	-0.10462761
167	0x3d476271	0.048677865
168	0x3d657b9c	0.056026086
169	0x3d222917	0.039589968
170	0x3dab8969	0.08375818
171	0xbd3df0c1	-0.04637218
172	0x3e377cb3	0.17918663
173	0xbc99b709	-0.018764036
174	0x3da0ec58	0.07857579
175	0xbd72a982	-0.059243686
176	0x3e15ed04	0.14641196
177	0x3dc8cbac	0.09804472
178	0xbcf377a4	-0.029720135
179	0xbd01d738	-0.03169939
180	0xbd76cac7	-0.060251977
181	0xbdf8a510	-0.12140858
182	0xbba0e96b	-0.004910638
183	0xbd86031a	-0.0654356
184	0x3dd75481	0.10514165
185	0x3df3c1aa	0.11902173
186	0x3e1108fd	0.14163585
187	0xbd477cdd	-0.048703063
188	0xbe02d80f	-0.12777732
189	0x3d0a3ebd	0.03375124
190	0x3d24e90d	0.040261317
191	0x3cc7015b	0.024292639
192	0x3d431ba5	0.047633786
193	0xbc2c27ee	-0.010507567
194	0xbe3dddd8	-0.18541658
195	0x3d874e69	0.066067524
196	0x3baf16c9	0.0053432924
197	0xbcd88124	-0.026428767
198	0xbdcb1acc	-0.099172205
199	0xbde5eb9e	-0.11226581
200	0xbc9736ac	-0.018458687
201	0xbd5acdad	-0.053418804
202	0xbd049018	-0.03236398
203	0x3d87d8d8	0.066331565
204	0x3b39c96b	0.0028348814
205	0xbcdc2a34	-0.026875593
206	0x3dbc11b2	0.091830626
207	0xbd6d5f16	-0.05795201
208	0xbccc3a7a	-0.024930228
209	0xbd9d815b	-0.07690688
210	0xbdcd0cf8	-0.10012239
211	0xbd3a7663	-0.04552306
212	0xbe4e9d42	-0.20177177
213	0x3dd29157	0.102816276
214	0xbc6f822e	-0.01461844
215	0xbd71947c	-0.058979496
216	0xbdcd7f51	-0.10034049
217	0x3c905c24	0.017622061
218	0x3ceeddc9	0.02915849
219	0x3dc7165e	0.09721063
220	0x3d6dd452	0.058063813
221	0xbdd15ee4	-0.10223177
222	0x3babd829	0.005244274
223	0xbc83e2df	-0.016099392
224	0x3d42013c	0.04736446
225	0xb90001c2	-0.00012207686
226	0xbe64de38	-0.22350395
227	0x3c9015dc	0.017588548
228	0x3d531488	0.051533252
229	0x3e3f659f	0.18691109
230	0xbd675f5b	-0.056487422
231	0xbd9d9056	-0.076935455
232	0x3d0c1852	0.03420288
233	0x3dbd493a	0.092424825
234	0x3e132dbf	0.1437292
235	0xbe2ab2b9	-0.1666974
236	0x3dbec726	0.09315328
237	0xbe44c309	-0.19215025
238	0xbd4899f5	-0.04897495
239	0x3ce52438	0.027971372
240	0xbd385ad1	-0.045008484
241	0xbe28177b	-0.16415207
242	0xbdb47b7d	-0.08812616
243	0xbc5da8d6	-0.013529023
244	0xbd00bb3c	-0.03142856
245	0xbe16c548	-0.14723694
246	0xbc3b1f5d	-0.011421052
247	0xbe2a4a6b	-0.1662995
248	0xbdc274e6	-0.09494953
249	0xbd625041	-0.055252317
250	0x3ccc9411	0.024972947
251	0xbe1d8d60	-0.15385962
252	0xbc5c7d97	-0.013457677
253	0xbd49c4bc	-0.049259886
254	0x3d5376e3	0.05162705
255	0xbd29bf65	-0.041442294

block.8.bias f4 [32]
0	0xbcacadec	-0.021079026
1	0x3f8a8792	1.0822623
2	0xbc33c739	-0.010972791
3	0xbcb5d495	-0.022196094
4	0xbca78f82	-0.020454172
5	0xbd0634df	-0.032765266
6	0xbb940dcb	-0.004518246
7	0xbcd174b9	-0.025568353
8	0xbc90f29f	-0.017693816
9	0xbd8b328d	-0.06796751
10	0xbc2679f4	-0.010160912
11	0xbdc71f5c	-0.09722778
12	0xbba3f044	-0.005003007
13	0xbcfb51aa	-0.030678589
14	0xbc926924	-0.0178724
15	0xbb451b81	-0.0030076208
16	0xbd2c7f18	-0.042113394
17	0xbcb7da60	-0.022442997
18	0xbc7ea816	-0.0155430045
19	0xbd3e22c7	-0.046419885
20	0xbedc7db7	-0.43064663
21	0xbc6d0911	-0.014467494
22	0xbdb59bab	-0.08867582
23	0xbcdc850c	-0.02691891
24	0xbcda9a9c	-0.026685052
25	0xbc863cd4	-0.016386427
26	0xbbc7619d	-0.0060846345
27	0xbb586ff5	-0.0033025716
28	0xbd4919f7	-0.049097028
29	0xbd65b8aa	-0.056084312
30	0xbcb0e25b	-0.02159231
31	0xbc3e8442	-0.011628212

block.10.weight f4 [32, 32]
0	0xbd17ee57	-0.037092533
1	0x3c410101	0.0117800245
2	0x3ddec645	0.10877661
3	0x3c556fd3	0.013027149
4	0xbdc000c0	-0.09375143
5	0xbd1d7004	-0.038436905
6	0xbc85d1eb	-0.016335448
7	0xbcb346f6	-0.021884423
8	0x3d8c44bd	0.06849048
9	0xbe885651	-0.26628354
10	0xbd7c85ff	-0.061651226
11	0xbccdcd91	-0.025122436
12	0xbd24dd28	-0.040249974
13	0xbd3e55c8	-0.046468526
14	0xbdcbf45c	-0.09958717
15	0xbd91ccb6	-0.07119124
16	0x3ded6304	0.11591151
17	0xbd9dd33a	-0.07706304
18	0xbbc6b079	-0.0060635176
19	0xbdc9da04	-0.09856036
20	0x3c30ba91	0.010786668
21	0xbda3cf41	-0.07998515
22	0x3d5c0b5e	0.053721778
23	0x3da6c41c	0.08142874
24	0xbc209b0d	-0.009802592
25	0x3d77649d	0.060398687
26	0xbdaa56c9	-0.08317334
27	0xbd95f681	-0.073224075
28	0x3e2d9ffd	0.16955562
29	0xbe3f533f	-0.186841
30	0xbd9b4648	-0.075817645
31	0xbcc57264	-0.024102397
32	0x3d352151	0.044221226
33	0x3b14e6d7	0.00227206
34	0x3d128927	0.03577533
35	0x3c96e25a	0.01841848
36	0xbd47f3cd	-0.04881649
37	0x3daa2d01	0.08309365
38	0x3db96e35	0.090542234
39	0x3e5d89d1	0.21634604
40	0x3d3630b5	0.044480044
41	0x3ce34946	0.0277449
42	0x3e845f30	0.25853872
43	0x3d8f0c16	0.06984727
44	0x3c8ff8e4	0.017574735
45	0x3d2425e5	0.0400752
46	0xbcbf9d1b	-0.023390343
47	0x3c10789b	0.008817817
48	0x3d82725b	0.06369468
49	0x3d69d515	0.057087976
50	0x3e3aa317	0.18226276
51	0xbd8a858d	-0.06763754
52	0x3c0a4f32	0.008441733
53	0xbd907a15	-0.07054535
54	0xbdd77e79	-0.105221696
55	0x3cdc1cbb	0.026869169
56	0x3e0e4f16	0.13897356
57	0xbe35f09f	-0.17767571
58	0x3d03a785	0.03214218
59	0xbd0771e0	-0.033067584
60	0x3b9fb2b2	0.004873597
61	0x3c0a6be5	0.008448576
62	0x3e70b3f7	0.23506151
63	0xbc68ded8	-0.014213286
64	0x3cad9d9e	0.021193322
65	0x3c890e05	0.016730318
66	0x3d087e09	0.03332332
67	0xbdad798b	-0.08470448
68	0x3d0b6971	0.034036104
69	0xbd9e507a	-0.077301934
70	0xbe3cd2ce	-0.1843979
71	0xbe16e864	-0.14737087
72	0xbcdcb85b	-0.026943376
73	0xbd098c3f	-0.033581015
74	0xbe00a8c2	-0.12564376
75	0x3df3e739	0.119093366
76	0xbd9b799b	-0.07591554
77	0x3e156aab	0.14591472
78	0x3cb2a250	0.021805912
79	0xbd9b36a1	-0.07578779
80	0xbc00ce9b	-0.007861759
81	0x3d19ee96	0.03758105
82	0xbe68d54f	-0.22737621
83	0x3c2cee4f	0.010554864
84	0x3ccdc2bb	0.025117269
85	0xbbd679e6	-0.006545293
86	0xbd0e037e	-0.0346713
87	0xb9814cd9	-0.00024662053
88	0x3da285d8	0.07935685
89	0xbc92bc3f	-0.017912028
90	0x3d3de9cb	0.04636554
91	0xbe164390	-0.1467421
92	0x3d0870a4	0.033310547
93	0x3cef5400	0.029214859
94	0xbb1149ac	-0.0022169156
95	0xbe0439c4	-0.12912661
96	0x3dbdaa73	0.09261026
97	0x3c2232dd	0.009899822
98	0xbd0003ca	-0.031253614
99	0xbd831cff	-0.06402015
100	0x3dd06009	0.10174567
101	0xbe0795ae	-0.13240692
102	0xbde903d7	-0.113776855
103	0x3e0f751a	0.14009514
104	0x3cc205fc	0.023684494
105	0x3dcf2457	0.10114353
106	0x3c8cc549	0.017183917
107	0x3e67a318	0.22620809
108	0x3d87c2ee	0.06628977
109	0x3be1d431	0.0068917503
110	0x3da4d4b8	0.080483854
111	0xbd5bb754	-0.053641632
112	0x3d7055f1	0.05867571
113	0x3bf5b28b	0.0074980906
114	0xbdd6dca0	-0.104913
115	0x3dc520bf	0.096253864
116	0x3cede5dd	0.029040271
117	0x3d6c34b8	0.057667464
118	0xbe6230db	-0.2208895
119	0x3e2e5454	0.17024356
120	0xbd047b7b	-0.032344323
121	0x3c7d9721	0.0154779265
122	0x3d20b82e	0.039238147
123	0x3e39d28a	0.1814672
124	0x3c192648	0.009347506
125	0x3d0d227a	0.034456708
126	0xbe6027d8	-0.21890199
127	0xbd03e5f3	-0.03220172
128	0x3c0cdc4d	0.008597446
129	0xbc801329	-0.015634136
130	0xbddb2066	-0.10699539
131	0x3e229d78	0.15880382
132	0x3e467d2b	0.19383685
133	0x3c5e20aa	0.013557592
134	0xbd52339e	-0.051318757
135	0x3dc75493	0.09732928
136	0xbd1f3aa6	-0.03887429
137	0x3e00ea66	0.12589416
138	0x3df46c6a	0.11934741
139	0xbd82197f	-0.06352519
140	0x3bde5c6f	0.0067859213
141	0xbe07f265	-0.1327606
142	0x3dd0b2fd	0.10190389
143	0xbdd73b9f	-0.10509419
144	0x3bc08fd9	0.005876523
145	0x3d8dbe0a	0.06921013
146	0x3e3c92bd	0.18415351
147	0x3e6a0ed2	0.22857216
148	0x3c75ddb0	0.015006468
149	0x3dec60e3	0.11541917
150	0xbd6006ef	-0.054694112
151	0xbbd521b3	-0.0065042614
152	0xbd146f9f	-0.036239263
153	0x3d74f9c6	0.059808515
154	0xbc8c119c	-0.01709824
155	0x3e0189af	0.12650178
156	0x3d08ca70	0.033396184
157	0xbd7b3cc0	-0.061337233
158	0xbdb3e874	-0.08784571
159	0x3d77186f	0.060326036
160	0x3d56cfd2	0.052444287
161	0x3c333100	0.0109369755
162	0x3e2b058f	0.16701339
163	0xbe09c950	-0.13455701
164	0x3ddac626	0.10682325
165	0xba2c37dc	-0.0006569603
166	0xbbc36b72	-0.005963736
167	0xbb7ab278	-0.0038253348
168	0xbbc8db72	-0.0061296755
169	0xbde773e6	-0.11301403
170	0x3c720b77	0.014773241
171	0xbd22b7e6	-0.03972616
172	0x3c3b8562	0.011445375
173	0x3d63fa15	0.05565842
174	0xbd8c7e8b	-0.06860074
175	0xbcc27bfa	-0.023740757
176	0x3d928347	0.071539454
177	0x3c3e683c	0.011621531
178	0x3c56c724	0.013109002
179	0x3d7ded82	0.061994083
180	0x3cb94593	0.022616183
181	0x3cc901f9	0.024537073
182	0xbe006f29	-0.12542404
183	0xbc7ecdcc	-0.0155519955
184	0xbc8f81bf	-0.017517922
185	0xbddce052	-0.10784973
186	0x3d488ad0	0.048960507
187	0x3da13dd4	0.07873121
188	0x3cac58eb	0.021038493
189	0xbcb68430	-0.022279829
190	0xbc2f4c5a	-0.010699356
191	0xbd3e2f9f	-0.046432134
192	0xbca65a27	-0.02030666
193	0xbfbb151b	-1.4615816
194	0x3d173541	0.03691602
195	0xbbc3467c	-0.00595933
196	0xbc732a8e	-0.014841689
197	0x3ae4d8ac	0.0017459593
198	0x3b0e67dd	0.0021729388
199	0xbb25a4ba	-0.0025275187
200	0xbb88c6f9	-0.00417411
201	0x3c4e75a0	0.012601286
202	0xbc7bac88	-0.015360959
203	0xbd04b26b	-0.032396715
204	0x3ad22da8	0.0016035335
205	0x3b108c61	0.0022056329
206	0x3bb1513b	0.0054112948
207	0x3b5707b9	0.0032811
208	0x3bf3e9e7	0.007443655
209	0x3adcf8e3	0.0016858842
210	0xbbc218f4	-0.005923385
211	0xbc447079	-0.011989706
212	0x3ef3b551	0.4759927
213	0xbabe36a2	-0.0014512131
214	0x3cd51efe	0.026015755
215	0xbbbe0d14	-0.005799899
216	0xbae43828	-0.0017411755
217	0xbbbc0f5d	-0.005739136
218	0xbb63223d	-0.0034657859
219	0xbb3ec8d7	-0.002911141
220	0x3ae78215	0.0017662669
221	0x3c21c820	0.009874374
222	0x3b06c2c2	0.0020562862
223	0xba129cba	-0.0005592812
224	0xbdc78efa	-0.097440675
225	0xbcc21fb4	-0.023696758
226	0xbd1606b2	-0.03662748
227	0x3d71f9e9	0.059076224
228	0x3ae710d9	0.0017628922
229	0x3db8a07f	0.09014987
230	0xbe089179	-0.13336743
231	0xbd4d5cdd	-0.05013739
232	0x3d51060d	0.05103116
233	0x3e27dd4c	0.16393012
234	0x3dad1469	0.084511586
235	0xbd8b25cb	-0.06794318
236	0xbd1a7350	-0.037707627
237	0xbd444550	-0.047917664
238	0x3d3c896f	0.046029504
239	0xbd94e6d9	-0.07270593
240	0xbd99f9d5	-0.07518355
241	0xbce19a48	-0.027539387
242	0x3dc94735	0.09828035
243	0x3d7bbf91	0.06146199
244	0x3c76927c	0.015049573
245	0x3e0c13bc	0.13679403
246	0x3d3d6677	0.046240296
247	0xba5bd72a	-0.0008386249
248	0xbb301787	-0.0026869492
249	0x3d270e83	0.040785324
250	0xbd67fde7	-0.056638625
251	0x3dbea65b	0.093090735
252	0xbd4c4016	-0.049865805
253	0x3df12394	0.11774364
254	0xbd966a56	-0.07344501
255	0x3e1e9375	0.15485938

block.10.bias f4 [32]
0	0xbcd0e3bb	-0.025499215
1	0xbc7d180e	-0.01544763
2	0xbcf2dcf0	-0.029646367
3	0xbcc6c185	-0.0242622
4	0xbd3db231	-0.046312515
5	0xbcacdb22	-0.021100584
6	0xc00c9d64	-2.1971064
7	0xbd5c0562	-0.05371607
8	0xbd2660d9	-0.040619705
9	0xbd407efb	-0.046996098
10	0xbc9fb6d9	-0.019496368
11	0xbc53c6c7	-0.01292581
12	0x3e51d585	0.20491607
13	0xbd19a030	-0.037506282
14	0xbc76cdec	-0.015063744
15	0xbc97e14c	-0.018540047
16	0xbd9248fe	-0.071428284
17	0xbd058550	-0.03259784
18	0xbcada411	-0.021196397
19	0xbc706348	-0.014672108
20	0xbc1e91ea	-0.009678343
21	0xbd0bc8aa	-0.034126915
22	0xbd17e982	-0.037087925
23	0xbc5e9ec0	-0.013587654
24	0xbcdd17d3	-0.0269889
25	0xbc59578b	-0.013265501
26	0xbd6b3395	-0.05742224
27	0x3f2754ed	0.6536396
28	0xbcc02e14	-0.023459472
29	0xbd43f6f5	-0.04784294
30	0xbc0cee99	-0.008601808
31	0xbd671fe1	-0.056426886

block.12.weight f4 [32, 32]
0	0xbd22161b	-0.039571863
1	0xbd9b4aa4	-0.07582596
2	0xbd6ee674	-0.058325246
3	0xbce56eb3	-0.028006887
4	0xbd9d9ec8	-0.07696301
5	0x3d6593a3	0.056049
6	0x3c873c6b	0.016508302
7	0x3c948629	0.018130379
8	0x3c6646d2	0.014054971
9	0x3dd7bee2	0.10534455
10	0x3dfe17c0	0.12406874
11	0xbe45eb8a	-0.19328132
12	0x3b803d97	0.003913592
13	0xbd80f060	-0.06295848
14	0xbe1f5de9	-0.15563168
15	0xbdc2f6b0	-0.09519708
16	0x3d1b7ca8	0.03796068
17	0x3da9680f	0.08271801
18	0x3c88afca	0.016685385
19	0x3d46b36f	0.048510965
20	0x3d061851	0.032738034
21	0x3d099d8d	0.033597518
22	0xbcaaa40d	-0.020830179
23	0xbe198ffe	-0.14996335
24	0x3d95fc19	0.073234744
25	0x3dab1253	0.083531044
26	0x3c0e161e	0.008672265
27	0x3c8eb662	0.017420951
28	0xbd2e5085	-0.04255726
29	0xbc56a028	-0.013099708
30	0xbd9e33ba	-0.0772471
31	0xbd6fd4c5	-0.058552522
32	0x3d48b7b9	0.049003337
33	0xbc85020d	-0.01623633
34	0x3ca71fe1	0.020400943
35	0x3dd799e2	0.10527398
36	0xbe3341c2	-0.17505553
37	0xbd00d02a	-0.03144852
38	0x3bff4ce7	0.00779115
39	0x3ca3f5cc	0.020014666
40	0xbd5a7fcf	-0.053344544
41	0x3cba99cc	0.022778414
42	0x3dabd499	0.08390159
43	0x3df58839	0.11988873
44	0x3afd870c	0.0019342615
45	0x3c3daf4d	0.0115774395
46	0xbd88e349	-0.06683976
47	0xbd3aa283	-0.04556514
48	0x3d2d282e	0.042274646
49	0xbd764638	-0.06012556
50	0x3ca44c97	0.020056052
51	0x3df8703f	0.12130784
52	0x3dc971d3	0.09836163
53	0x3dd2830e	0.10278903
54	0xbd654747	-0.05597618
55	0xbca9224e	-0.02064624
56	0x3cccd866	0.02500553
57	0xbd359784	-0.04433395
58	0xbdbfb5da	-0.09360857
59	0x3b63848b	0.0034716453
60	0xbd54bb16	-0.05193623
61	0xbbc91252	-0.006136217
62	0xbcfd0818	-0.030887648
63	0xbd7433e0	-0.059619784
64	0x3d050563	0.03247584
65	0x3d960478	0.07325071
66	0xbca46a24	-0.020070143
67	0xbca54815	-0.020175973
68	0x3e05eaab	0.130778
69	0xbd9b2d44	-0.07576993
70	0x3d01d59c	0.031697854
71	0x3ca768c0	0.02043569
72	0x3ddfee04	0.1093407
73	0xbdd7a883	-0.10530188
74	0xbdfb7a54	-0.122791916
75	0x3ddd0646	0.10792212
76	0x3ab363a0	0.0013686307
77	0x3e15df78	0.14636028
78	0x3de00b2c	0.10939631
79	0x3e07a9d8	0.13248384
80	0xb9f42886	-0.000465695
81	0x3cbcdb87	0.023053898
82	0x3c65d667	0.014028168
83	0x3ddf76c6	0.10911326
84	0xbcf51258	-0.029915974
85	0x3e066121	0.13122989
86	0xbd0c94e0	-0.034321666
87	0x3d20de4d	0.039274503
88	0x3d783157	0.06059393
89	0x3b7a7519	0.0038216768
90	0xbdfcd0ef	-0.123445384
91	0x3d1f6bae	0.03892105
92	0x3cdb588d	0.026775623
93	0xbe02ebc4	-0.1278525
94	0x3e05d683	0.13070111
95	0xbd226c47	-0.039654043
96	0x3bd6f2b5	0.0065596947
97	0xbdaed38c	-0.08536443
98	0x3e8eedc2	0.2791577
99	0x3dadb30b	0.08481415
100	0xbd27b8aa	-0.040947594
101	0xbc72bf84	-0.014816169
102	0x3d43c841	0.0477984
103	0x3dd3ac34	0.103355795
104	0xbda13469	-0.078713246
105	0x3db4d7a1	0.088301904
106	0xbbb121ea	-0.005405654
107	0xbdc2ba91	-0.09508241
108	0x3c03f15b	0.008053149
109	0xbd02f013	-0.031967234
110	0x3c95660f	0.018237142
111	0xbd8d6be4	-0.06905344
112	0xbc44b2ca	-0.012005517
113	0xbc465dff	-0.012107371
114	0xbd8974f7	-0.067117624
115	0xbd5f1e79	-0.05447242
116	0xbd95ee5a	-0.073208526
117	0xbd457467	-0.048206713
118	0xbdab694f	-0.083696954
119	0xbd8242b5	-0.063603796
120	0x3d35f23c	0.044420466
121	0x3da54635	0.080700316
122	0xbd86456e	-0.065562114
123	0x3c9e3cd9	0.019316124
124	0xbe0232f8	-0.12714756
125	0x3ce591f0	0.02802369
126	0xbd40b2ff	-0.047045704
127	0x3dc94b71	0.098288424
128	0x3c55591b	0.013021733
129	0x3dbfd352	0.09366478
130	0x3d8dfb5f	0.06932711
131	0x3d176858	0.036964744
132	0xbddd0b87	-0.10793214
133	0x3de26bfe	0.11055754
134	0x3c8d4889	0.017246502
135	0xbdb68056	-0.08911197
136	0xbdcb441a	-0.09925099
137	0xbd89a1ef	-0.067203395
138	0xbdeb9e7a	-0.115048364
139	0x3c81de0b	0.015852949
140	0xbc054b71	-0.008135662
141	0x3d802f17	0.06258982
142	0x3c54436a	0.012955526
143	0x3e1b6e1a	0.15178719
144	0xbdcd1b0f	-0.10014927
145	0xbe3b9f4a	-0.18322483
146	0xbd097d4e	-0.033566765
147	0xbd1ef906	-0.038811706
148	0x3d88b91c	0.06675932
149	0xbb1482ef	-0.002266105
150	0x3d20a6cf	0.03922158
151	0xbd712df8	-0.05888173
152	0x3ddc903a	0.107696965
153	0x3c0cb0a1	0.0085870335
154	0xbc5c8e02	-0.013461592
155	0xba0c0cfa	-0.000534251
156	0xbd7c3640	-0.061575174
157	0xbe4012cd	-0.18757172
158	0xbb934e5a	-0.004495424
159	0xbd8a1ac5	-0.06743387
160	0xbdb9ddd1	-0.09075511
161	0xbc7429c1	-0.014902533
162	0x3e1165cd	0.1419899
163	0xbd08744e	-0.03331404
164	0xbb449ba9	-0.0030000007
165	0x3c23b806	0.009992605
166	0xbbf2f93a	-0.007414964
167	0x3ac162a6	0.0014754131
168	0xbdccb2b5	-0.09995023
169	0x3d208d70	0.039197385
170	0xbd23baf3	-0.03997321
171	0x3dbfec76	0.09371273
172	0x3af62f3e	0.001878239
173	0xbc7943c5	-0.015213911
174	0x3d661051	0.056167904
175	0xbb6259e3	-0.003453844
176	0xbd93e8b0	-0.07222116
177	0x3d558074	0.052124456
178	0xbdd53e59	-0.104122825
179	0x3bb0680e	0.005383498
180	0xbd309bcd	-0.043117333
181	0x3d80e781	0.06294156
182	0x3d827fa3	0.06372001
183	0xbe62dcc7	-0.22154532
184	0x3d315265	0.04329147
185	0x3d6a20fc	0.057160363
186	0x3d862ada	0.06551142
187	0x3c119e05	0.008887772
188	0xbd32733f	-0.04356694
189	0x3cb3cd58	0.021948501
190	0x3c9205ce	0.017825034
191	0xbcef823d	-0.029236907
192	0xbd8fd3e0	-0.07022834
193	0xbccd5e2f	-0.025069324
194	0x3d2a07f0	0.041511476
195	0xbbd4050e	-0.006470329
196	0xbcd5d2df	-0.026101528
197	0xbbf68167	-0.00752275
198	0xbd0dcb5b	-0.034617763
199	0xbe1fb63e	-0.15596864
200	0xbdd20153	-0.10254159
201	0xbd75758f	-0.059926566
202	0x3df96b5a	0.12178679
203	0xbe269291	-0.16266848
204	0xbbf6cc01	-0.0075316434
205	0xbe0c64ee	-0.13710377
206	0x3d82d57f	0.063883774
207	0xbd96bd6a	-0.073603466
208	0x3d1c2cdb	0.038128715
209	0x3d2222fb	0.03958414
210	0x3d9475ea	0.07249053
211	0xbe8751d0	-0.26429605
212	0x3c989a3d	0.018628234
213	0x3a14dd43	0.00056787225
214	0xbcb905d4	-0.022585787
215	0xbdcd17aa	-0.10014279
216	0xbd9c5880	-0.076340675
217	0x3ce54b33	0.02798996
218	0xbdf1b259	-0.11801595
219	0xbca04306	-0.01956321
220	0xbd09885f	-0.03357732
221	0x3d3b94b4	0.04579611
222	0xbc531514	-0.012883443
223	0x3c74617e	0.014915822
224	0xbc391af5	-0.011297931
225	0x3cccf0ea	0.02501722
226	0xbe094fbe	-0.13409325
227	0x3d984dcb	0.07436713
228	0xbe84d33d	-0.25942412
229	0xbdcb10bb	-0.099153005
230	0x3d229709	0.03969482
231	0xbdbea46c	-0.09308705
232	0xbcaaf091	-0.020866664
233	0xbd4ba0dd	-0.049713958
234	0xbc90a263	-0.017655557
235	0x3ddfa241	0.10919619
236	0xba29641a	-0.00064617547
237	0x3dfab470	0.12241447
238	0xbd14193e	-0.036156885
239	0x3e247981	0.16061975
240	0xbd731a04	-0.059350982
241	0x3c128e52	0.008945065
242	0xbc96782b	-0.018367847
243	0xbd25715c	-0.04039131
244	0x3b7f9585	0.0038999033
245	0x3d84232d	0.06452022
246	0xbca449a7	-0.020054651
247	0x3d868be5	0.065696515
248	0x3cfcc648	0.030856267
249	0x3dc3361a	0.095318034
250	0x3c5d4caf	0.013507052
251	0x3cc66d77	0.024222119
252	0xbc26cf57	-0.01018127
253	0xbe9e55f1	-0.30924943
254	0xbde10e44	-0.10989049
255	0x3d0c4153	0.034241986

block.12.bias f4 [32]
0	0xbc977d31	-0.018492313
1	0xbbd5826c	-0.0065157916
2	0xbd1c2a6e	-0.0381264
3	0xbc00fd05	-0.007872825
4	0xbbf9d07c	-0.00762373
5	0xbcd9426d	-0.026520932
6	0xbc3f065f	-0.011659234
7	0xbcd5be2b	-0.026091656
8	0xbc841ab0	-0.016126007
9	0xbbe7d53d	-0.0070749805
10	0xbd83c6d3	-0.06434407
11	0xbb796fb1	-0.0038060958
12	0xbb9c9705	-0.004778745
13	0xbd242698	-0.04007587
14	0xbcff8f70	-0.031196326
15	0xbbdefdf0	-0.006805174
16	0xbd63d2c2	-0.055620916
17	0xbc2dd456	-0.010609707
18	0x3f116134	0.56788945
19	0xbc3c2d81	-0.011485458
20	0xbcdb6b96	-0.0267847
21	0x3b9200a2	0.004455642
22	0xbb6cc6ac	-0.003612916
23	0xbc59f8b9	-0.013303929
24	0xbe34060a	-0.17580429
25	0xbce869d4	-0.028370775
26	0xbca6a0e4	-0.02034039
27	0xbb9d9096	-0.0048084958
28	0xbd499545	-0.04921462
29	0xbbe6957a	-0.007036862
30	0xbcc7e46e	-0.024400916
31	0xbc07b8d6	-0.008283814
