model/rock/ct2Percent.pt (torch, 8811 bytes, 12 tensors)

block.0.weight f4 [16, 1]
000000 07 6b e5 39 cc 1b e8 3b cc 81 2f bb a7 52 02 bc
       0.00043758025 0.007083392 -0.0026780246 -0.007954276
000010 34 b5 9e 3b a6 70 d3 3b 75 91 d2 3f 6f c2 00 3b
       0.0048433784 0.0064526377 1.645064 0.0019647141
000020 9a 84 a4 bf 5f cc d3 3f 7c b7 29 bb 70 42 01 c0
       -1.2852967 1.6546744 -0.0025896719 -2.01968
000030 2c aa af bf d5 81 1b 3b c1 98 a9 3b 53 28 db bf
       -1.3723807 0.002372851 0.0051756804 -1.7121681

block.0.bias f4 [16]
000000 8d 5f bd ba c4 04 11 bc 1c 0e 14 bb ef 67 b9 bc
       -0.0014448032 -0.008851234 -0.0022591418 -0.022632567
000010 86 78 10 bc 45 67 9e 3b d5 c3 04 bf 4a f2 50 bc
       -0.0088177975 0.004834088 -0.51861316 -0.012753079
000020 47 c6 8f bf 51 b1 2f bf 46 b1 af bb 6d f8 30 bf
       -1.1232384 -0.6862994 -0.005361709 -0.6912907
000030 92 eb 88 bf cc ce 33 bb 07 b7 f1 ba 1d 9c 62 bd
       -1.069689 -0.0027436493 -0.0018441387 -0.055324662

block.2.weight f4 [16, 16]
000000 96 be 64 be cf 9a cd 3d 38 96 13 3e ce a6 4d be
       -0.22338328 0.10039293 0.14412773 -0.20083162
000010 eb f9 64 3e bc b9 39 3e 89 78 29 3e 22 cb 43 bd
       0.22360961 0.18137258 0.16549887 -0.047801144
000020 29 e1 89 3a 0a dc 62 be a0 a8 f9 3d 08 b5 88 bd
       0.0010519373 -0.2215425 0.12190366 -0.06675154
000030 58 77 b6 bd 65 76 53 bd 06 c4 5b 3c fc 10 60 3d
       -0.08909482 -0.05162658 0.013413435 0.054703698
000040 a2 c5 82 3d 25 b7 c3 3d 70 2b 35 3e 3e 53 90 3d
       0.06385352 0.095564164 0.17692351 0.07047127
000050 12 6c 63 3d 7d 3b 38 3e ee 35 19 3f a6 74 4e 3d
       0.055522986 0.17991443 0.59847915 0.050404213
000060 c5 b2 c4 bd 8e a9 23 bf 73 d0 82 3d 89 fa 11 be
       -0.0960441 -0.63930595 0.06387415 -0.14255728
000070 c2 dc 09 bf 33 8e 37 bd 87 bf 8a bd 90 16 95 3e
       -0.53852475 -0.044813346 -0.06774812 0.29118776
000080 f7 5b c9 3d f6 8c b4 be 79 0e f3 3d b2 3b 62 3e
       0.09831994 -0.35263795 0.11867995 0.22093084
000090 4b c7 3f 3d 32 40 69 be db 57 37 3d a7 bf 66 3e
       0.04682092 -0.22778395 0.04476152 0.22534047
0000a0 89 ff 42 be 68 95 71 bd bf 0d dc 3c 36 b4 a2 bd
       -0.19042791 -0.058980376 0.026862023 -0.07944529
0000b0 38 79 fe 3d ed 7b 5b bd 8d d0 a2 bd 3a 65 91 3d
       0.124254644 -0.05358498 -0.07949934 0.070993856
0000c0 6c 9f e2 3c 4d ba 7b 3d 2f 3f aa 3d 9d b3 93 3e
       0.027663909 0.061456967 0.083128326 0.28847972
0000d0 8d 1f 2f 3e f6 af bc 3d ca e4 47 3e e1 14 23 be
       0.1710188 0.092132494 0.1952087 -0.15925933
0000e0 e8 6c f6 bb cd 90 66 be 42 4b e7 bd 64 45 ab bd
       -0.007520307 -0.22516175 -0.11293651 -0.083628446
0000f0 4b 86 db bd 11 58 70 be 74 e8 a2 3e 17 25 9f 3d
       -0.10718974 -0.23471095 0.31817973 0.07770746
000100 88 fb 69 bb 47 98 a6 bc ba 24 a2 bb 27 10 42 3d
       -0.0035702903 -0.020336283 -0.004948226 0.047378685
000110 fd c3 75 bc ad fe 03 bd 06 ec 69 bf ac 26 0d 3c
       -0.0150003405 -0.0322253 -0.9137577 0.008615177
000120 94 76 90 bf 37 0a 2f bf 98 55 28 3c db d6 27 c0
       -1.1286187 -0.6837496 0.010274313 -2.6224887
000130 e4 ca dd bf e6 0a b2 3b cd ca 0a bd 82 78 86 bf
       -1.7327542 0.005433428 -0.033884812 -1.0505526
000140 bb 16 b3 bd d6 6e 78 bd 25 41 ba 3d 51 69 14 3d
       -0.0874457 -0.060652576 0.090944566 0.03623325
000150 81 e6 1d be 9d a8 b8 3d 4e 23 be 3d 14 01 99 3d
       -0.15419962 0.090165354 0.092840776 0.07470909
000160 11 b6 d4 3e 0a d9 d5 bd fd 0a 04 3e 09 40 43 bd
       0.41545156 -0.104417875 0.12894817 -0.04766849
000170 6c b8 b9 bd 76 49 87 be 8e 1e 8b 3d 91 ae 99 bc
       -0.09068379 -0.26423234 0.06792937 -0.018759998
000180 8e 35 62 bb 10 29 48 bc 50 9a 42 3b 9e 26 21 3d
       -0.0034516784 -0.012216821 0.0029694028 0.03934347
000190 08 15 88 3c 6e c6 93 bc 82 b5 76 bf 5c 5d 2a bc
       0.016611591 -0.018038955 -0.9637071 -0.010398235
0001a0 12 ed 59 3e 84 64 33 bf 87 08 2e 3d d4 72 85 3e
       0.21281841 -0.7007525 0.0424886 0.2606417
0001b0 a7 cf 7e 3f e2 17 5c 3c 09 0a fc bc 8b 8a 90 3e
       0.995356 0.0134334285 -0.030766504 0.282307
0001c0 f4 5c 21 3d 23 51 97 bd f3 73 50 bc af ed 96 bd
       0.039395288 -0.073885225 -0.012722957 -0.07369553
0001d0 04 1f 16 be 35 36 8c 3e 43 0c 08 3b 47 33 4f 3e
       -0.14660269 0.27385107 0.0020759262 0.20234405
0001e0 88 ce 09 3f 61 a9 d7 3c 05 7e f6 bd 4d 52 fe ba
       0.53830767 0.026325883 -0.12035755 -0.001940319
0001f0 a5 02 cd be a5 00 f5 3d 88 c1 b3 3c f5 31 1b ba
       -0.4004108 0.119630136 0.021942869 -0.0005920225
000200 db 92 f4 ba 87 ec 0d bd 3e c8 6e bb 6f a6 0e 3e
       -0.0018659489 -0.0346494 -0.0036435272 0.13930677
000210 c2 40 60 3c d3 19 ae bd ed 32 c6 3f f3 34 8c 3c
       0.013687314 -0.08501019 1.5484291 0.017115092
000220 fb 6a a7 bd 63 47 f6 3f 23 93 16 3b 3f df fe 3d
       -0.08174702 1.9240535 0.0022975884 0.124449246
000230 8f 61 ec 3c 30 fc 09 bc 43 f4 e5 bd 33 64 9c 3f
       0.028855113 -0.008421943 -0.1122823 1.2218078
000240 78 45 83 3a 92 b4 ac bc 93 10 53 3c 9c 82 06 3c
       0.001001521 -0.021082196 0.01288237 0.008209851
000250 a3 24 0e bb 7f d0 20 3c d7 84 73 be 0d ee 0b bc
       -0.0021689318 0.009815334 -0.23781143 -0.008540642
000260 44 1f e5 3f f5 61 15 3d c5 12 97 3b 67 b2 8d 3f
       1.7900167 0.036470372 0.004610392 1.1070069
000270 08 89 35 40 64 e7 09 3c 80 e0 87 3b d1 fe 89 bc
       2.8364887 0.008416984 0.0041466355 -0.016845139
000280 4c 44 8c bb d3 c9 64 3e 82 f4 f9 bd 98 42 9d bc
       -0.0042806026 0.22342615 -0.12204839 -0.019196793
000290 67 0c bd bc 69 74 9d 3e d5 b2 90 3d 70 fa 30 bd
       -0.023077203 0.30752876 0.070653595 -0.043207586
0002a0 bf ec e8 3d 7e 1a 02 be 8c 37 01 3e c7 7e 43 bd
       0.11373281 -0.12705418 0.12618846 -0.047728326
0002b0 94 4d 03 be 24 62 19 3e 1d 47 8d 3e 51 31 98 3c
       -0.12822562 0.14978844 0.27593318 0.018578203
0002c0 43 f8 59 3c a6 a1 47 3d 21 35 a0 bd 86 fd 8e bd
       0.013303819 0.048738144 -0.078226335 -0.069819495
0002d0 6c 2b 83 3c 70 12 8f 3d 70 9b 49 3d 8b bd ce 3b
       0.016011916 0.069859385 0.049220502 0.0063092164
0002e0 32 ff 1a be a1 6f 16 be fb de 1e bd 6d 71 c1 bc
       -0.15136412 -0.1469102 -0.03878687 -0.023613656
0002f0 66 d1 aa bb ef f9 87 3a b1 bf 97 3c 1d 6f 00 3d
       -0.0052129505 0.0010374169 0.018524023 0.031355966
000300 04 d8 54 3d f6 57 22 be a6 d5 de bd 6d 97 07 3e
       0.05196382 -0.15853867 -0.10880594 0.13241358
000310 27 31 d3 3b 86 17 36 be 19 92 1d bd a8 43 29 3e
       0.0064450684 -0.17782411 -0.038469408 0.16529715
000320 18 7b d7 3e f1 b0 5d bb 37 79 eb 3d 69 2b cf 3c
       0.420861 -0.003382739 0.11497729 0.025289254
000330 c1 32 f9 be d0 c5 d2 3d ad 15 0d 3e 15 04 87 ba
       -0.48671535 0.10291636 0.137778 -0.0010300899
000340 a9 a4 ef ba 50 76 86 3c aa 9a e4 3b 9f 98 63 3d
       -0.0018283325 0.016413838 0.006976445 0.055565473
000350 ac 05 88 3d ab c8 8b 3c 2c b0 c6 bf 3f 57 7d bd
       0.06641707 0.01706346 -1.5522513 -0.061850782
000360 00 bd 9f 3e 6f 75 98 be 3f de d1 bb a9 e5 9c 3f
       0.31198883 -0.29777095 -0.0064046676 1.2257587
000370 77 67 8f bd 88 a9 b0 bc c2 8e 6a bc cf 50 e7 bf
       -0.07002156 -0.021565214 -0.014316263 -1.8071536
000380 d4 71 eb bd c4 33 37 3c 1b 90 29 3e 4a fe 95 3c
       -0.1149632 0.0111817755 0.16558878 0.018309731
000390 25 aa ab 3d 28 c4 10 3e e2 87 37 3d 7d 67 ec bd
       0.08382062 0.14137328 0.044807322 -0.11543176
0003a0 31 7c fc bc 38 24 d2 bd 32 38 4d 3c e1 8a 6a bd
       -0.030820938 -0.102608144 0.012525605 -0.05726135
0003b0 4f be 89 ba 99 f5 25 3d ec fc 8d 3e 39 81 1c 3d
       -0.0010508987 0.040517423 0.27732027 0.038209174
0003c0 8b 47 63 3d dd a8 66 3d fe fc ae 3d 7c 74 1e 3e
       0.05548815 0.056313384 0.08544348 0.15474123
0003d0 d1 2b 3e be d6 40 a1 be 6b 35 4d 3d 27 60 e9 bc
       -0.18571402 -0.31494778 0.05009977 -0.028488232
0003e0 08 95 2c 3d d9 bb c4 bd 9d cb 4d 3e 62 8b 1c bd
       0.042134315 -0.096061416 0.20097204 -0.038218863
0003f0 f3 5b 79 bd 6b 0b cb bd 0c 0f d4 3c 64 03 f2 3c
       -0.060878705 -0.09914287 0.025886081 0.029542632

block.2.bias f4 [16]
000000 72 4f 86 bd 62 3a 94 be 02 36 3c bd df d6 b1 bd
       -0.06558122 -0.28950793 -0.045949943 -0.086835615
000010 69 1a fc 3e 29 2e 3e 3d 4a c1 87 3e d4 f7 93 3c
       0.492389 0.04643074 0.26514655 0.01806251
000020 3e 36 39 bf 5a cb 4b bf eb aa 04 bd 73 7b 86 bd
       -0.7234839 -0.79607165 -0.032389563 -0.06566515
000030 a4 8d ac bc 20 75 c5 3e 87 7c 2e bd 0f 1c 2b bd
       -0.021063633 0.38565922 -0.042599227 -0.041774806

block.4.weight f4 [16, 16]
000000 3a 78 d8 bc c2 f2 8a be eb 82 82 3d 24 c7 50 be
       -0.026424516 -0.27138335 0.06372627 -0.20388466
000010 bc 65 9b 3c e7 c2 80 3d 57 8a 8f 3d f7 fc ab bd
       0.01896941 0.06287175 0.07008808 -0.083978586
000020 43 4d 05 bc 07 f9 5c bd aa 68 2a 3e 0e ee 29 3e
       -0.008136096 -0.05394843 0.16641489 0.16594717
000030 e8 ab e9 3d cf 27 aa bd 40 55 5c 3d cb 4b 17 bd
       0.11409742 -0.08308374 0.05379224 -0.036937516
000040 38 6e d0 bb 8b e7 cd 3b be cd 24 bd ee be 16 bd
       -0.0063607953 0.0062837056 -0.040235274 -0.03680318
000050 51 c2 50 3e a4 71 93 3d 3f ed 4f 3e 2a 1d 4d 3d
       0.20386626 0.071994096 0.20305346 0.05007664
000060 9e a0 34 3f 13 4a a5 3d 96 4d 93 3d 39 eb 9e 3b
       0.7055758 0.08070769 0.07192533 0.004849818
000070 9b 33 86 3c fb 92 32 3e 76 3c 98 3d 19 ab 15 3d
       0.01638203 0.17438881 0.07433407 0.036540125
000080 15 8a 1d bd ab 2e 64 be 22 d5 13 bd 95 25 65 bb
       -0.038461763 -0.22283427 -0.03609193 -0.0034965028
000090 87 a8 95 3c 45 84 ca 3d 74 dd 2d 3d 86 8d d7 3d
       0.018268837 0.0988851 0.042447522 0.1052504
0000a0 d7 02 a7 bc 9a cd 04 bd 05 5a ae 3d cf d6 6d bd
       -0.020387096 -0.03242264 0.085132636 -0.058066186
0000b0 b3 d8 47 be 6c 74 82 bd 74 d9 a7 3d 48 78 75 3b
       -0.19516258 -0.06369862 0.08195773 0.0037455726
0000c0 da b8 9b ba a7 8e 15 bb c9 8d e5 3b d5 23 d9 3a
       -0.0011880652 -0.0022820623 0.0070054275 0.0016566465
0000d0 e2 c8 ad bf 08 36 8a bc c2 a5 0a 3f 2e dc 36 bb
       -1.357693 -0.016871467 0.54159176 -0.0027902233
0000e0 49 ca d3 3d 22 b1 0e 3f 8a 0f 98 bc 4c 53 25 39
       0.10341317 0.55739033 -0.018562097 0.00015766657
0000f0 25 5f 7c 3b 73 b9 0b bd e8 c4 6a bc ab a6 39 bb
       0.003850886 -0.034112405 -0.014329173 -0.0028328102
000100 d8 d8 7e 3e e8 5d db bd 9d c3 56 3e 45 b3 9b bd
       0.24887407 -0.107112706 0.20973058 -0.07602552
000110 96 9a ab 3c 21 5e 48 3e d9 0c b9 3d 56 08 7e be
       0.020947736 0.19567157 0.090356536 -0.24807867
000120 a4 f5 dc 3c af 57 9b bd b9 f6 61 3e 45 8a df 3d
       0.0269726 -0.07585084 0.22066773 0.10915045
000130 61 de af bc a9 56 94 3d 4f d4 21 bd d3 fb 4f bd
       -0.021468343 0.072430916 -0.039509114 -0.050777268
000140 4e b5 3c 3c aa 12 9e 3d 32 21 07 3d f5 4e 18 3d
       0.011517836 0.07718404 0.032990642 0.037184674
000150 f4 57 9e 3e c5 b9 a2 bd c9 55 29 bf 7a 9d 3d 3d
       0.30926478 -0.07945589 -0.6614652 0.04629276
000160 a9 0b 90 bf 5b d1 90 3e 48 c4 47 bc 73 8a be 3c
       -1.1253558 0.28284726 -0.012192793 0.023259377
000170 da 47 46 bc 16 ba 9f bf db fc 67 bc 31 b9 1b 3d
       -0.012102092 -1.2478664 -0.014159407 0.03801841
000180 af 43 5c 3e f4 c5 41 be c8 c9 a6 bd e2 84 8c 3d
       0.21510194 -0.1892317 -0.081439555 0.06861283
000190 f2 14 89 3c 6f 9d 7b 3e 0c 45 0c 3e 7d f0 6f bc
       0.01673362 0.24571775 0.13698214 -0.014644739
0001a0 31 7c b1 3d 8b 9c f3 bd c0 42 93 3d 4f c2 c1 bd
       0.08666266 -0.118950926 0.07190466 -0.094608895
0001b0 11 b0 83 3d 7b be f3 3d 98 8f 3f 3d 51 98 15 3e
       0.064300664 0.11901566 0.0467678 0.14608885
0001c0 e5 4a 46 be 4d bd 7a be 5f a8 86 3e 06 5e 69 3d
       -0.19364507 -0.24486275 0.26300332 0.056974433
0001d0 4c eb 17 be b1 65 89 3e 77 6b 77 be 16 4c c6 3d
       -0.14835852 0.26835397 -0.24162088 0.09682481
0001e0 29 4d af 3c 23 eb 8f 3d 48 e5 1c 3d 38 37 fd 3d
       0.021399098 0.07027271 0.038304597 0.12364048
0001f0 5a ee 2d be 65 36 b8 3e 80 51 14 3e 2c 1a 48 bd
       -0.16985455 0.35979 0.14484215 -0.048853084
000200 9b 9d 21 bc 97 a5 ec bc fd 3b 6c bb c8 6b c2 3c
       -0.009864236 -0.028887553 -0.0036046498 0.023733035
000210 8c 0e 86 3f 26 a5 5a 3c 73 25 44 bf a2 5e a1 bc
       1.0473189 0.0133450385 -0.7661964 -0.019698445
000220 ba 5a e1 be 80 c6 3a be 22 78 ca bb b7 38 38 bc
       -0.4401453 -0.18239784 -0.0061788717 -0.011243991
000230 d9 f6 5f bc b2 ce 22 3e 7e 85 71 38 01 ca 0e bc
       -0.013669693 0.1589916 5.7583202e-05 -0.008715154
000240 1d 6b cb 3c eb 85 70 be c1 ac 44 3e b0 0a ea 3d
       0.024831349 -0.23488586 0.19206525 0.1142782
000250 7e 6f 5f 3c ab cd 0d 3e c4 f6 96 3c 98 01 44 3e
       0.013637422 0.13847987 0.018428214 0.19141233
000260 f5 35 4a bc d8 67 b1 bc fe 9e ed bc 03 eb c8 bd
       -0.012341966 -0.021655962 -0.029006477 -0.0981045
000270 5d 2b 09 3d 3c 0c 79 bd cf 4f b9 bb 78 af 1e 3e
       0.03348862 -0.060802683 -0.005655266 0.15496624
000280 a5 49 32 3e 6a 67 5f be 11 2d bf 3d b3 37 f8 bd
       0.17410906 -0.21816793 0.093347676 -0.12119999
000290 ee 9d 80 3c 46 1c ca bc 3b b3 ad 3d 58 73 e1 bd
       0.015700307 -0.024671685 0.08481451 -0.11008328
0002a0 cd b2 0e 3d 01 57 b9 bd df 86 26 3e cf 95 ae 3d
       0.034838486 -0.09049798 0.16262387 0.085246675
0002b0 0e 5d dc bc 71 bb f2 3d 8a 97 a7 bc 3b 3c 5d 3d
       -0.02689984 0.11852158 -0.020458002 0.05401252
0002c0 54 a0 25 be 1a 94 a3 bd 9c f8 6a bd ac 79 9b be
       -0.16174442 -0.079872325 -0.057366 -0.30366266
0002d0 49 76 af 3b 3f ac 72 bc 8d cf 14 3d b5 87 d6 3d
       0.005354677 -0.0148115745 0.03633075 0.10475103
0002e0 33 75 84 3c 85 33 01 bd c3 3b 27 bd c2 ed 21 3d
       0.016169166 -0.031543273 -0.040828478 0.039533384
0002f0 87 12 ab 3d 30 6e e3 bc 41 98 21 3d fc 91 e4 3d
       0.08353143 -0.027762502 0.03945184 0.11160657
000300 d3 c1 99 3d 7f e2 49 be 67 ea 27 3e 77 3a c7 bd
       0.07507672 -0.19715308 0.16398011 -0.09727948
000310 c0 66 2b 3d 45 77 87 3d 2e de ab 3d 31 eb ee 3d
       0.041846037 0.06614546 0.08391987 0.11665953
000320 76 d6 c0 bc 3f 12 27 bd 95 43 0b bd 35 f3 7a 3d
       -0.023539763 -0.040788885 -0.033999998 0.061267097
000330 a7 bf 26 be c5 0d 1b be 67 35 10 bd c0 24 c6 3d
       -0.16284047 -0.15141971 -0.03520718 0.09674978
000340 c1 21 62 3d dc 34 1a be f3 7f e8 3d 07 4b 2a bd
       0.05520797 -0.15059227 0.113525294 -0.041575458
000350 7b fb 0c bd 9c d3 11 3e 67 5f a6 3d c2 ad 83 bd
       -0.034419518 0.14240879 0.08123665 -0.06429626
000360 b1 ef 89 3d b5 a4 77 bd 67 75 3b 3d e8 0b 57 3e
       0.06735171 -0.06045981 0.04576626 0.21000636
000370 95 89 5c 3d 6b 5c 01 be d6 3a b8 3d b1 1a 3b 3e
       0.053842146 -0.12632911 0.08995597 0.182719
000380 e6 d3 e5 3d df 49 1a be cd c0 b0 3d 77 b8 91 3d
       0.11222057 -0.15067242 0.08630524 0.07115262
000390 f2 0b d5 3c 7a 13 9c bc ad 3b ee 3c 5a 25 81 bd
       0.026006673 -0.019052256 0.02908119 -0.06305952
0003a0 98 c5 19 bd 44 19 1d ba 55 4d 5d 3e c3 83 52 be
       -0.037541956 -0.00059928396 0.21611531 -0.20558076
0003b0 76 a5 7a 3d bb 7b 85 bd 60 77 0d 3e 46 fd 87 bd
       0.061192952 -0.0651774 0.13815069 -0.06640105
0003c0 f4 23 c9 bb 97 b5 a4 bc 44 ba 6d 3c 39 41 88 3d
       -0.006138319 -0.02010612 0.014509741 0.06653065
0003d0 42 b2 73 3f cb c1 17 3b a3 0e 12 be 2f b3 96 3c
       0.95193875 0.002315628 -0.14263396 0.018395988
0003e0 5f ce b0 3e 1a 22 be 3f 91 3d 56 3c 7d a2 2d 3c
       0.3453245 1.4854157 0.013076202 0.010597822
0003f0 e8 0a 03 3b 95 eb 15 be f0 fe 7d 3c ed 3a bc ba
       0.0019995514 -0.14640649 0.015502676 -0.0014360823

block.4.bias f4 [16]
000000 a3 7d b6 bd 7a 70 d3 be 6d 1c 65 bd f9 c1 18 3e
       -0.08910682 -0.4129675 -0.055935312 0.14917745
000010 4a 6c cf bd dc c6 48 3c 01 90 16 be d0 94 70 3e
       -0.101280764 0.012254443 -0.1470337 0.23494267
000020 43 8b b3 3c 25 64 74 bd 3f 50 b5 bd aa 81 3a bd
       0.021916991 -0.059665818 -0.08853196 -0.045533814
000030 7c 65 e4 bd e6 be d1 bd 29 6e 72 bd 85 21 ad bf
       -0.11152169 -0.10241489 -0.05918709 -1.3525854

block.6.weight f4 [16, 16]
000000 b9 0b 34 bb a4 d7 dc bd d2 8f b6 3b 9d a1 a3 bf
       -0.0027472808 -0.10783318 0.005571344 -1.2783695
000010 ed f6 a3 3b fd 90 10 be 3d ff 05 bd b7 84 da 3b
       0.005003801 -0.14117809 -0.032714117 0.006668653
000020 3a 63 3f bf 7f 12 8b 3c 7f 81 50 3b bd 53 ae 3a
       -0.7476078 0.016976593 0.0031815467 0.0013300102
000030 31 2a 81 3b 1a d4 ba bc 2e 8e cc bb 0c 56 90 bd
       0.003941797 -0.022806216 -0.006242535 -0.07047662
000040 1d 2d 53 3c 23 9f b3 be d9 4c 1e bd 76 7e 07 bf
       0.012889174 -0.3508235 -0.038647506 -0.5292734
000050 82 8e 9e 3b 0c ea 08 be c0 3c 38 3b cf e3 30 bc
       0.0048387656 -0.13370532 0.0028112382 -0.010796501
000060 ce 49 ea be 26 db af ba 8f f7 09 3c c5 00 8b 3b
       -0.45759434 -0.0013416752 0.008420839 0.004242035
000070 90 3d 05 3b 2e 8d cb b9 1f 0a 06 3d 8c 07 35 bf
       0.0020330884 -0.00038824364 0.032724496 -0.7071464
000080 24 ba 26 3d 1c 38 13 3d 7e a9 62 bd 6e 2c ea 3b
       0.04070486 0.035942182 -0.05533742 0.0071464097
000090 33 48 27 be 0c 1d 16 3b d9 6d 64 3d 7f d9 7d be
       -0.16336136 0.0022905497 0.05576882 -0.2479
0000a0 e0 8e 8c 3c b0 74 46 3e 96 ef d8 bd 00 b5 3f bc
       0.017157972 0.1938045 -0.105925724 -0.011700869
0000b0 e9 64 a0 bc 95 11 4a bd 7f 52 e1 3c c0 c2 0e be
       -0.019579368 -0.049333174 0.027505158 -0.13941479
0000c0 b2 ac 5c bd fd e1 d3 3d 0d a1 3f 3d 2c 9b fb 3c
       -0.053875633 0.10345838 0.04678445 0.03071364
0000d0 f3 ff b3 3c fa e2 df 3e 40 e2 a4 3c 5a 2c 89 3b
       0.021972632 0.43727857 0.020127416 0.0041861953
0000e0 92 a9 ad 3c 81 d6 86 bd bf cd 22 3d c8 54 ff 3a
       0.021199021 -0.06583882 0.039746996 0.0019480223
0000f0 ac 7b e4 3b 8b 59 42 bc ca 52 98 bc d5 a2 ef 3f
       0.0069727506 -0.011862169 -0.018594164 1.8721567
000100 7e 53 e3 bd 35 7b 35 3c 45 4a 64 3d 54 77 99 3c
       -0.11099909 0.011076738 0.05573489 0.018733658
000110 cd 6f 09 bd b2 d3 74 3d b2 53 36 bd 02 c3 4f 3e
       -0.033553887 0.0597722 -0.04451341 0.20289233
000120 37 2e 57 bb 25 37 3f bd 44 8b 31 be 26 bb 6e 3d
       -0.0032833943 -0.04668345 -0.17338282 0.058283947
000130 b4 e5 e0 bd 1d c4 e1 bd d7 cc 3a be 04 28 ee bd
       -0.109813124 -0.11023734 -0.18242203 -0.11628726
000140 b1 34 b4 bb 44 fd 36 3d ce a5 ef bd 67 fb 91 3c
       -0.0054994454 0.044675127 -0.117015466 0.017820073
000150 d1 3d ce bd bd 66 b2 3d 8a 73 05 be dc d6 4b 3d
       -0.10070384 0.08711002 -0.13032356 0.049765453
000160 2c e0 4f ba e4 82 e3 3d 12 16 69 3d fd aa 85 3a
       -0.00079298276 0.1110895 0.056905814 0.0010198053
000170 7e ba cf bd d7 70 95 3d 7f 77 bd 3c 8b b9 02 be
       -0.101429924 0.07296913 0.02312827 -0.12766092
000180 3f 0c 11 3e 57 18 c1 3d a3 21 8d 3d d0 92 8d 3c
       0.14164828 0.094284706 0.06891181 0.01728192
000190 5b 14 94 bc 6c da ca 3d d3 76 34 bd c1 9d c7 3c
       -0.018076112 0.09904942 -0.044058632 0.024367215
0001a0 3c bf e7 39 6a 89 97 3c ce ad e2 3a a0 26 43 3d
       0.00044202234 0.018498141 0.001729423 0.047644258
0001b0 72 f6 56 bc 23 55 33 be 15 76 b0 3b df 59 6d be
       -0.013120281 -0.17512946 0.00538517 -0.23178814
0001c0 c9 9a 96 39 18 98 e3 3d b0 37 bc bb 59 69 c5 be
       0.00028725553 0.11112994 -0.005743943 -0.38556936
0001d0 a9 8c 84 bb b0 e9 05 3e 9a 0d 42 3c 63 af 01 bd
       -0.0040450883 0.13077426 0.011844063 -0.031661402
0001e0 4d f1 2f 3f 77 8c 18 bc 50 60 52 bc 42 f5 2e 3b
       0.6872757 -0.009310833 -0.0128403455 0.0026696478
0001f0 2b 72 e0 ba 11 2d 6e bb 9c 38 8f bb 10 0b 8e 3e
       -0.0017123868 -0.003634278 -0.004370762 0.27742815
000200 5d 9e 03 3c 2e f5 f1 3e 6d 97 40 bc c4 a4 1a 3f
       0.008033362 0.4725737 -0.011754853 0.6040766
000210 95 be eb 3b d8 63 3f bf 02 7f 45 bc bf fe 50 3c
       0.00719435 -0.74761724 -0.012054207 0.012756049
000220 82 bc 1a 3f cf 1e 04 bd 5c 5f 45 bc d8 aa b3 ba
       0.6044389 -0.032255944 -0.012046661 -0.0013707532
000230 08 0d 21 ba 93 4b 10 3d 43 f6 c7 bb 8d fc 28 3f
       -0.00061436044 0.035228323 -0.0061023547 0.6601036
000240 6e e6 a3 3d a6 3c fc 3d 52 24 48 3d 10 ac 82 3c
       0.08002935 0.12316255 0.048862763 0.015951186
000250 c6 cf 4c be 6c eb 40 3e ab ae bf bd 69 2a b0 3e
       -0.20001134 0.18839806 -0.09359487 0.34407356
000260 45 53 7b bc c4 3d 79 3c c8 fa dc bd a0 03 18 bd
       -0.015339677 0.01521248 -0.1079002 -0.037112832
000270 94 03 fc bd e5 c0 78 be d1 e7 2c 3c d2 91 6c be
       -0.1230537 -0.24292333 0.010553316 -0.23102501
000280 d2 49 ad ba 2f 1c 59 bc 06 6f 1d bd 81 7c 07 3c
       -0.0013220853 -0.013251348 -0.03843596 0.00826943
000290 96 70 06 3c be 18 34 3d ab 25 a1 be aa 04 5f 3e
       0.0082055535 0.04396891 -0.3147405 0.21779123
0002a0 ac 05 a9 ba a2 34 9a 3d c3 d4 b4 bc 34 ef 15 bd
       -0.0012895367 0.0752957 -0.022074109 -0.036605075
0002b0 c6 29 06 bd 03 66 09 3d d1 31 ba bc 11 eb e6 bd
       -0.032754682 0.03354455 -0.022728832 -0.11275304
0002c0 09 e4 17 3e d7 e3 1b 3e f7 ef 0c be a6 53 88 ba
       0.14833082 0.15223633 -0.13763414 -0.0010400906
0002d0 a8 21 14 bd 12 d2 51 3e 2c e8 02 3e 25 9b a1 bc
       -0.03616491 0.20490292 0.12783879 -0.019727299
0002e0 5c 53 2b bd 54 fc 97 3e ce d3 23 be 2d 13 86 3c
       -0.041827545 0.296847 -0.15998766 0.016366566
0002f0 77 6d 96 3c 40 ee c0 bd 35 85 0e 3e 93 f9 3a be
       0.018362744 -0.094204426 0.13918002 -0.18259268
000300 80 64 13 3d 0c 9b 63 3d 71 eb 18 3e fe 05 36 3c
       0.035984516 0.055567786 0.14933564 0.011109827
000310 c1 c3 4b bd 5a 2c cf 3d 8a 6a a2 bd 5d 0c 3d 3d
       -0.049747232 0.10115881 -0.07930477 0.04615437
000320 97 52 61 bc e3 6f a9 3d 2c 54 56 bd e3 38 28 bd
       -0.013752601 0.08273294 -0.052326366 -0.041069876
000330 05 fb b3 bc 7e 55 38 3c 94 e8 2c bd a2 0d 16 be
       -0.021970281 0.011250852 -0.04221399 -0.14653638
000340 3f d9 a7 bb 93 ba 91 bc 14 37 16 3e 66 fc be bb
       -0.0051223333 -0.01778916 0.14669448 -0.005828428
000350 64 ae 3d be d7 b5 17 bb e7 94 22 be 83 a0 96 be
       -0.18523556 -0.0023149156 -0.15877114 -0.29419336
000360 08 0f 5f bb 2d 37 47 be 5c dc 77 bd a7 bf bf 3d
       -0.003403606 -0.19454642 -0.060512885 0.09362727
000370 80 71 03 be c0 ad cc 3d 7d ec 68 bd 44 bd 1e 3d
       -0.12836266 0.09994078 -0.056866158 0.038754717
000380 33 a2 6b bc d2 aa 81 3d 9a e7 4f 3d 3a f2 84 3b
       -0.014381933 0.063314095 0.05075798 0.004057196
000390 29 ed 31 3d 9f 6a 0a 3e 05 44 9d 3c 92 65 4d bc
       0.043439064 0.13517235 0.019197473 -0.012536423
0003a0 3b d4 d0 bc 63 a1 dd bc 68 87 5c 3d 42 4d 33 be
       -0.025491824 -0.027054494 0.05384007 -0.1750994
0003b0 22 4e 2d 3c a3 60 61 3e 15 ef 31 be e6 85 28 be
       0.01057771 0.2200952 -0.17376359 -0.16457328
0003c0 7a 2b 43 bd 26 73 af 3d 92 6d 4b 3b ed 10 31 3c
       -0.047648884 0.08566885 0.003104065 0.010807258
0003d0 94 30 04 3e 99 52 29 3e c6 b1 96 bd f4 c4 37 3e
       0.12909156 0.16535415 -0.07358126 0.17946225
0003e0 60 52 14 bd 1a 21 53 3d bd 2f 14 3e 72 dc e5 bc
       -0.03621137 0.05154524 0.14471336 -0.028059218
0003f0 9f 30 2c be 58 e1 c0 bd 42 c7 0d be 10 9a be bd
       -0.16815422 -0.09417981 -0.13845542 -0.09306729

block.6.bias f4 [16]
000000 55 22 29 3f cf c3 22 3f b2 72 8d bd b7 07 3e be
       0.6606801 0.6358003 -0.06906642 -0.1855763
000010 83 24 a6 bd 39 28 69 bd 8e b2 a8 bd c6 db 0f 3e
       -0.08112433 -0.056923125 -0.082371816 0.1404868
000020 d2 60 5a bf 7b 3c 91 bd 7a f4 43 bd 55 d3 6c bd
       -0.85303986 -0.07091614 -0.047840573 -0.05781873
000030 db 06 74 bd e6 13 72 bc 8b f7 5b bd e3 c9 f7 bc
       -0.05957685 -0.014775252 -0.053702872 -0.030247634

block.8.weight f4 [16, 16]
000000 00 23 15 be a2 ad 1b 3e 58 a1 0e 3e da 00 0d be
       -0.14564133 0.15202954 0.13928735 -0.13769856
000010 34 f6 7a 3c 5d 0f f2 3d e2 e6 82 bc 81 f0 18 3d
       0.015317488 0.118193366 -0.015979234 0.037338737
000020 7f ff 32 3d c0 6d 45 bd 41 16 b6 3d 4f 4f 86 bd
       0.04370069 -0.04820037 0.08890963 -0.06558096
000030 da 1b 68 3c 2c 23 b7 3d 5b 7f 0b bd 30 da 81 3d
       0.014166797 0.089422554 -0.034057003 0.06340444
000040 51 53 03 be 03 53 31 3e f3 71 4d be ae 21 f5 bd
       -0.12824751 0.17316823 -0.20063 -0.119693145
000050 af 6c 22 bc 08 14 01 be 87 cc 82 3c 46 ce 16 3d
       -0.0099136075 -0.12605298 0.015966667 0.03681781
000060 a1 9a 79 3d 4a ca 94 bd 5e 72 c2 bd 98 fd b6 3c
       0.06093848 -0.07265146 -0.0949447 0.02233772
000070 44 7e f3 3c 30 2d c2 bc 69 8e 9d 3d a1 52 08 bb
       0.029723294 -0.023703188 0.07693178 -0.0020801204
000080 4a 3c c8 bd 96 58 07 3e f6 16 56 3b f7 c3 f9 bd
       -0.09777124 0.13217387 0.0032667494 -0.121955805
000090 b8 51 51 3d c6 bf 55 bd c4 60 b5 bd f5 87 29 3d
       0.051103324 -0.052184843 -0.08856347 0.041389424
0000a0 38 f6 7d 3d 89 51 97 3d b5 0c df 3d 7a fd aa bc
       0.06200239 0.073885985 0.108910955 -0.02087282
0000b0 66 2f b8 3d 51 89 76 bd 09 06 98 3d e0 16 92 bd
       0.089934155 -0.06018955 0.07423026 -0.07133269
0000c0 21 2f bc bd 10 b2 4a 3e f9 96 40 bd b2 ad eb be
       -0.091886766 0.19794488 -0.04701898 -0.46030957
0000d0 c4 c1 1b bc 43 95 06 3d 40 c7 c6 3c bf 9b 89 be
       -0.009506647 0.03285719 0.024264932 -0.26876637
0000e0 e9 ec 19 bf 4b a3 da 3c 64 67 b4 3c 64 e7 58 bd
       -0.6012712 0.026689192 0.022021957 -0.052955046
0000f0 ab 40 25 bb d8 b3 88 bc 4b c3 e9 3c 19 7e fd 3b
       -0.0025215547 -0.016687319 0.028535506 0.0077359793
000100 2d 18 da bd 78 17 2e 3e 5d 56 53 3d da 40 df bd
       -0.106491424 0.1700114 0.051596034 -0.10901041
000110 04 a1 64 3c cc 1a af bc 10 39 fa bc f5 0c 34 3d
       0.013954405 -0.021375082 -0.030544788 0.04395767
000120 52 81 7f 3d 5e ea 95 3d 4b 72 0c 3d d8 e0 3d 3d
       0.06237919 0.073200926 0.034288686 0.046357006
000130 05 73 07 be b7 1a a6 bd 4f 9f 82 3d f3 1d bb 3d
       -0.1322747 -0.08110564 0.06378042 0.09136572
000140 46 e8 21 be f6 b4 4f 3e 5b fb 73 3d e5 0b 97 bd
       -0.15811262 0.20283875 0.059565883 -0.073753156
000150 9f 15 2a bc 2d ed 77 bd 90 08 9a 3b 35 74 43 3d
       -0.010381131 -0.060528923 0.0047007278 0.047718246
000160 46 d8 8b 3d 6a ff 4c bc eb f6 4b bd b3 ed 47 bd
       0.0682836 -0.012512067 -0.049796026 -0.048810672
000170 13 a2 0a 3e 67 3b 2c 3e 06 dc 13 3d 53 d2 13 bd
       0.13538389 0.16819535 0.036098503 -0.036089253
000180 f8 1b 81 3f 89 11 79 3e 86 bd 1b 3d 7a be d3 3e
       1.008666 0.24323095 0.03802254 0.4135626
000190 87 0c 25 3c 3f 5f 4b bc 47 6e 10 bc 88 34 98 bc
       0.0100737875 -0.012412845 -0.008815355 -0.018579736
0001a0 d2 7f 6c bf e3 ca d7 bb b8 c7 74 bc 7e d1 f4 3c
       -0.9238254 -0.0065854653 -0.014940195 0.02988505
0001b0 66 e2 8e 3c 51 f8 c0 3c 55 7a 8b bc f7 65 cb bb
       0.01744194 0.023555906 -0.017026106 -0.0062072235
0001c0 56 fe f4 bd 3a a6 43 3e c9 23 fa bd 9c 5b a5 bd
       -0.11962573 0.19106379 -0.12213857 -0.08074114
0001d0 4b 1f 17 be 26 70 7f bd be a5 74 3d 6c 57 24 3d
       -0.14758031 -0.062362812 0.059728377 0.040122434
0001e0 31 d9 8c 3d 95 fb 5c be bc 65 a9 be b9 68 ef bd
       0.068773635 -0.21580346 -0.3308543 -0.11689896
0001f0 83 92 5b bd 13 c4 3e 3c a7 f2 25 bd e4 52 e6 bd
       -0.05360652 0.011643427 -0.040514614 -0.11246279
000200 d2 58 4a 3e 24 92 c4 be c2 ec f2 b9 b0 d2 c5 bc
       0.19760445 -0.38392746 -0.00046334235 -0.024148315
000210 b2 3b a1 bc 64 33 18 bc a5 22 2a bc e6 c4 ff 3e
       -0.019681785 -0.009289596 -0.010384236 0.4995491
000220 b4 1d 54 be 1b 63 0a bc 2c 99 50 bc 32 94 2c bb
       -0.20714456 -0.00844648 -0.0127318315 -0.0026333448
000230 04 d4 90 bc 3d 01 31 bb 08 8c d2 bb 1d 4d 2e bc
       -0.017679222 -0.0027008795 -0.0064253844 -0.010638502
000240 42 d1 52 be ce af 6d 3e 2b 36 64 bd b1 f9 a7 bd
       -0.20587638 0.23211595 -0.05571572 -0.08201922
000250 5c 2e 09 be e7 2b 03 3e 79 2e a5 3d b2 c8 53 3d
       -0.13396591 0.12809716 0.080655046 0.05170507
000260 ea d5 35 3d 89 ef a7 3d f3 77 ed bd 2f 24 0c 3d
       0.044393457 0.081999846 -0.11595144 0.034214195
000270 8f 98 10 bd 9a a8 21 3e f3 1d a2 bc 4b 2c ef 3c
       -0.03530174 0.15786973 -0.019789672 0.029195925
000280 4b c6 0d be 60 d8 33 3e 5d 3f 2a 3d 34 98 8d bd
       -0.13845174 0.1756301 0.041564334 -0.06913796
000290 dd 17 7d bd c7 63 22 be c9 1c 23 3d 43 b0 24 3d
       -0.061790336 -0.15858375 0.039822374 0.04020716
0002a0 a1 88 52 3d 61 fd b3 bd 4e eb 2b be 4d 41 46 bc
       0.05139983 -0.087885626 -0.1678898 -0.01210053
0002b0 d5 b0 37 3d 98 1e 61 bd 7b be 53 bd f9 49 5c bd
       0.044846375 -0.054960817 -0.05169533 -0.053781483
0002c0 36 2d fc bd d6 c1 03 3e e6 67 05 3d 70 c5 95 bd
       -0.12313311 0.12866911 0.03256979 -0.07313049
0002d0 22 86 10 3c f3 fe ae bd 84 4d ee bc db c8 0b 3d
       0.008821042 -0.085447215 -0.029089697 0.034127098
0002e0 2e b1 e1 3c 2c d0 c5 3c 1b ae ea 3d 2a d5 2a 3c
       0.027550306 0.024147116 0.11458989 0.010426799
0002f0 b5 f6 b7 3d c3 2f 0e 3d c5 be 0e bd 88 49 10 be
       0.089826025 0.034713518 -0.0348499 -0.1409055
000300 d0 5f b1 bd 12 77 0a 3e 62 0d b9 3d 22 aa 62 bd
       -0.08660853 0.13521984 0.09035756 -0.055338033
000310 a7 9b 2c bd 27 08 24 bd e5 c7 da bd 5c 58 2c 3d
       -0.04214063 -0.040046837 -0.10682658 0.042076454
000320 c5 24 5f 3d 82 91 89 be 7e 51 22 be 00 d9 b0 bd
       0.054478426 -0.26868826 -0.158514 -0.086351395
000330 46 0d 0b be 1f 1f cb 3d 1d ad 97 bd eb 09 c1 bd
       -0.13579282 0.09918045 -0.074060656 -0.0942572
000340 ff 6f c6 bd ff d6 1e 3e cf 40 20 3c 0a bc ac bd
       -0.0968933 0.15511702 0.009781077 -0.08434303
000350 01 9d e0 bd 37 c7 5a 3d 6e 39 e8 bc 23 26 1c 3d
       -0.10967446 0.053412642 -0.028347697 0.038122308
000360 ff 0c 87 3d 73 83 70 be a0 73 05 be 39 30 52 3d
       0.06594276 -0.23487644 -0.13032389 0.05131552
000370 bc 4d 60 bd e9 47 d5 3d 2a ea 2e be d1 17 c5 bd
       -0.054761633 0.104141064 -0.17081514 -0.09623683
000380 c6 2a f2 bd 68 4d ef 3d 1c aa 44 bd 7a f9 ea bd
       -0.11824565 0.11684686 -0.04801379 -0.11473365
000390 42 97 78 bd 76 32 1c 3e 74 c7 03 be f9 57 05 3d
       -0.060691126 0.15253624 -0.12869054 0.0325546
0003a0 3f 78 0b 3d d1 aa 06 3e ff ee c1 3c 0b e2 d2 3c
       0.034050222 0.13151099 0.023673533 0.025742551
0003b0 09 94 87 3c 17 7b 1a 3d f1 a1 d0 bc cb 65 97 bd
       0.01655008 0.037715044 -0.025467845 -0.07392462
0003c0 2a 08 15 be a6 81 7a bf 8b 57 7c bc 77 f3 74 be
       -0.14553896 -0.9785408 -0.015401731 -0.23921
0003d0 8a c8 e3 ba 11 56 43 3c d8 c3 82 3c 98 d7 36 bf
       -0.0017378491 0.011922375 0.015962526 -0.7142272
0003e0 e8 65 09 bf 72 1b d0 3a ee f1 81 3c 78 3e f1 3a
       -0.5367112 0.001587732 0.015862431 0.0018405458
0003f0 66 0f b3 bb 03 13 14 bb d6 1c a2 3c 00 2e 6c 3b
       -0.005464482 -0.002259434 0.01978914 0.003603816

block.8.bias f4 [16]
000000 2b 99 e9 bd 81 a5 f7 bd bb d2 c6 bd b8 13 89 3e
       -0.114061676 -0.12092114 -0.097081624 0.26772857
000010 68 6b ce bd 85 47 07 be a5 41 b4 bd 01 ad e1 bd
       -0.1007908 -0.13210876 -0.08801583 -0.11019326
000020 ab 5a 4b 3e 58 0c 17 be 23 07 db bd 6c d2 b4 bd
       0.19858806 -0.14750803 -0.106947206 -0.08829197
000030 6d 86 ba bd a5 b0 d3 bd e8 90 c9 bd a4 8a 88 3e
       -0.09107671 -0.10336427 -0.09842092 0.26668274

block.10.weight f4 [3, 16]
000000 ad 28 8b 3b fe c7 4c bb 7b d0 33 bc 69 8c f8 3d
       0.0042467923 -0.0031247134 -0.010974999 0.12136156
000010 fd 52 5f 3c 75 dd 1e ba b0 dd 50 bd 11 03 8f 3c
       0.013630626 -0.00060602213 -0.050992668 0.017457517
000020 b2 84 da 3e c2 ab 4d bc 0b fa 39 bb bb 2d 28 bc
       0.42679363 -0.012553157 -0.0028377797 -0.010264809
000030 71 d4 6e 3c ff c6 2f 3c 96 72 5c 3a 18 49 1a be
       0.014577017 0.010728597 0.00084094086 -0.15066946
000040 3e 13 35 bc 52 88 a3 3b 44 f3 25 bc fe 73 fd 3d
       -0.011051951 0.004990616 -0.0101288 0.123756394
000050 71 75 1c 3c 43 66 b1 bb 03 7f c3 3e 35 7b 38 3c
       0.009549485 -0.005413802 0.3818284 0.011259844
000060 71 89 13 be 3f 65 93 bb 4b 28 ed ba 7f ff c6 ba
       -0.14407898 -0.0044981535 -0.0018093673 -0.0015182345
000070 37 8f e0 3b 24 a6 c9 3b 17 4a 79 bc 7e a9 09 bd
       0.00685301 0.0061538387 -0.015215418 -0.033608906
000080 ee 86 4b 3b 8f 54 c4 bb 4d 00 ad bb df d4 78 be
       0.0031055766 -0.0059915255 -0.005279577 -0.24299954
000090 25 0d cd 3b 24 40 ef 3b cb 1d a8 be 60 10 29 3c
       0.0062576705 0.0073013473 -0.3283523 0.0103188455
0000a0 18 2c 90 be 2e d3 c1 ba 76 a1 3b bb fd 0c df 39
       -0.2815864 -0.0014787668 -0.0028630174 0.00042543552
0000b0 33 b0 71 3b fc b8 30 3c 29 14 d9 3b c3 8b 3f 3e
       0.0036878705 0.010786291 0.0066247177 0.18705659

block.10.bias f4 [3]
000000 50 ca 79 3d e4 02 4d 3e 04 9d 3c 3f
       0.060983956 0.20020634 0.73677087
