model/rock/discriminator_percent.pt (torch, 707655 bytes, 6 tensors)

model.0.weight f4 [8, 1, 4, 4]
-0.0308404 -0.06756295 -0.1580879 -0.23011696 0.017488265 0.21169893 0.003826361 -0.2889983
0.06552464 0.35372066 0.21332249 -0.1470213 -0.04146365 0.13108833 0.07512947 -0.12458092
0.047873236 0.14362891 -0.17705455 -0.046171952 0.24310213 0.1538439 -0.3174591 -0.049421776
0.29189122 0.039051797 -0.28385276 -0.043461446 0.06920638 -0.018523753 -0.09836626 0.008077796
-0.07349657 -0.13685745 -0.0601324 -0.07592122 -0.051958825 -0.28066248 -0.1982802 -0.10817643
-0.14239258 -0.18991664 -0.12789828 -0.005630178 -0.03354504 -0.06236884 -0.034421735 -0.09988602
0.088823915 0.09499724 0.12660486 0.0095581785 0.1230632 -0.099271126 -0.2055139 -0.11912268
-0.08533377 -0.31890556 -0.12850824 0.048904184 0.01853143 0.07275125 0.2117695 0.15748975
-0.111037865 -0.07884719 -0.1250666 -0.058250085 -0.09949009 -0.07079344 -0.23550217 -0.15682487
-0.005544254 -0.07624853 -0.20562255 -0.091869056 -0.107916534 -0.15036067 -0.10822974 -0.030658294
-0.31229055 -0.14117299 0.07798035 0.17665817 0.039691355 0.04056151 -0.25642478 -0.29972395
0.1260816 0.14997087 0.15987778 0.0887302 0.07311013 0.00569459 0.01793651 0.043024898
0.0066140587 -0.11326385 0.124093086 0.06467104 0.05093426 -0.25576845 -0.05074827 0.12631641
0.10664179 -0.08892094 -0.34715107 0.015783189 0.08378344 0.24138199 -0.05732349 0.03777902
-0.16149166 0.07152479 0.22720723 -0.06343487 -0.030558273 0.3972534 0.2201224 -0.18880667
0.14339103 0.40968114 0.035340585 -0.21646044 0.08335289 0.06806571 -0.08501907 -0.084472544
00000000: 02a5 fcbc 725e 8abd cbe1 21be c8a3 6bbe
00000010: 8d43 8f3c 9bc7 583e afc3 7a3b 96f7 93be
00000020: c831 863d e01a b53e 3671 5a3e c08c 16be
00000030: cad5 29bd 053c 063e 7bdd 993d 4824 ffbd
00000040: ba16 443d 7513 133e ca4d 35be cd1e 3dbd
00000050: c4ef 783e 4189 1d3e 008a a2be 7d6e 4abd
00000060: c472 953e c7f4 1f3d 2655 91be a104 32bd
00000070: 13bc 8d3d 20bf 97bc 4074 c9bd bb58 043c
00000080: 5f85 96bd 5c24 0cbe 644d 76bd 967c 9bbd
00000090: c7d2 54bd feb2 8fbe f709 4bbe 9b8b ddbd
000000a0: 5ccf 11be 8279 42be c4f7 02be 5b7d b8bb
000000b0: 8666 09bd 7876 7fbd cefd 0cbd 0b91 ccbd
000000c0: 50e9 b53d ea8d c23d b4a4 013e e899 1c3c
000000d0: 8f08 fc3d a94e cbbd 3c72 52be 97f6 f3bd
000000e0: 79c3 aebd 9747 a3be aa97 03be c14f 483d
000000f0: 3acf 973c 9bfe 943d 1bda 583e fe44 213e
00000100: d267 e3bd a37a a1bd 7511 00be a497 6ebd
00000110: 76c1 cbbd 27fc 90bd 7b27 71be b396 20be
00000120: 93ac b5bb 3028 9cbd b88e 52be d825 bcbd
00000130: 5803 ddbd 26f8 19be 8ea7 ddbd 1a27 fbbc
00000140: 8ce4 9fbe a78f 10be 29b4 9f3d e1e5 343e
00000150: 6793 223d d323 263d 1c4a 83be 6b75 99be
00000160: 891b 013e f791 193e 00b7 233e 2eb8 b53d
00000170: c4ba 953d af99 ba3b 96ef 923c e03a 303d
00000180: bfba d83b e1f6 e7bd 8424 fe3d 4072 843d
00000190: 71a0 503d 15f4 82be 6bdd 4fbd 1759 013e
000001a0: 0367 da3d 2f1c b6bd c9bd b1be bf4b 813c
000001b0: a796 ab3d d72c 773e 09cc 6abd 2cbe 1a3d
000001c0: 125e 25be 977b 923d 03a9 683e 24ea 81bd
000001d0: 5855 fabc cc64 cb3e c467 613e 8956 41be
000001e0: 19d5 123e bac1 d13e 4ac1 103d cea7 5dbe
000001f0: ecb4 aa3d 0966 8b3d 7a1e aebd f1ff acbd

model.2.weight f4 [16, 8, 4, 4]
-0.009099415 0.018107932 0.08575222 -0.035345197 0.0042212247 0.1103838 0.1645974 0.08493124
-0.03232213 0.18626615 0.16227168 0.09606838 0.06782493 0.10655819 0.11504585 0.00493424
0.016079983 -0.028557578 0.17015578 0.15995811 -0.077936426 0.0107931895 0.16829525 0.15206963
-0.1428925 -0.040427502 0.11946909 0.010202194 -0.046310596 -0.04746875 0.106108025 0.012453038
0.012016621 0.055199154 0.039861854 -0.05155366 0.065339 0.00631934 -0.021032758 -0.115517035
0.030165892 -0.0442599 -0.041989338 -0.052116133 0.008525695 9.612649e-05 -0.009063665 0.07571194
-0.05733361 -0.102835625 0.028810686 0.144019 -0.08966345 0.0143654235 0.116444774 0.1340634
-0.014295619 0.13218105 0.20904809 0.06852002 -0.042452093 0.016942894 0.010596808 -0.02244422
0.007845401 0.09725055 0.074310996 -0.10138988 -0.008467074 0.02827262 0.03400589 -0.12246576
0.04740874 0.03950666 0.10302664 0.008097337 -0.0026870715 0.048646558 0.024094231 -0.0009722934
0.024100285 -0.038415752 -0.13648736 -0.039639715 0.0933288 0.049111404 0.04096881 0.060052875
0.11463775 0.2243331 0.16289493 0.037178062 0.05368106 0.12621053 0.07190701 0.056422662
-0.0041314512 0.03142961 0.10290691 0.06138175 0.038614355 0.16920803 0.18052584 0.045810185
0.029405903 0.16700825 0.055265844 0.061922688 -0.041185264 0.03777113 0.069566935 -0.01440847
-0.043601032 -0.15743184 0.061889037 0.002204088 -0.11354132 -0.063237734 0.085898824 0.0077104145
-0.076633036 0.19336572 0.10164204 -0.024582155 -0.053169746 0.053678162 -0.014223617 0.064661294
0.056934796 0.07522101 -0.04699379 -0.024206221 0.16699018 0.12722388 0.03576278 0.04363721
0.07018483 0.1864106 0.23817527 0.075410284 -0.0046551824 0.11413313 0.14416026 0.072162405
0.03343534 0.014648816 -0.06875497 -0.08195499 0.1191261 0.06583942 -0.014540275 -0.05431468
0.080578655 0.15066849 0.10046197 0.072774336 0.010899214 0.10293018 0.08531595 0.03762783
0.056792673 0.16754189 0.07812053 0.07565541 -0.03513658 0.019410066 -0.0135527905 0.07572405
-0.009608911 -0.051676683 -0.081908844 0.0024265212 0.0152024515 0.0053802063 -0.016803203 0.0005330179
-0.014250797 -0.05404463 -0.006939905 -0.026095172 0.009460825 0.019302731 0.011111097 -0.059445538
-0.050075367 0.081313215 0.0027735552 -0.06654872 -0.015000351 0.115224965 0.06115158 -0.07006194
-0.04860102 -0.011330701 0.110693574 0.10049376 -0.08833507 0.033016164 0.08477602 0.112476885
-0.13855141 -0.1406413 -0.101408586 -0.0031587032 -0.0006377768 -0.07436587 -0.088095605 0.012726156
0.07531958 0.030605938 0.045217775 0.052575056 0.062396195 0.082476646 0.0018665625 -0.013170405
0.0054253615 -0.0045761443 0.03204387 0.021902183 -1.0067199e-05 -0.046591733 -0.07209359 -0.038193494
0.029251806 0.065524705 0.03489803 0.015635915 0.15344743 0.122480296 0.064900495 0.03286037
0.090307236 0.06201488 0.06294393 -0.007068621 0.029377814 0.03151623 0.0011976762 -0.028725892
0.016971314 -0.06816233 -0.09404368 -0.07645003 0.01609848 -0.081296675 -0.051007934 -0.050127007
0.08477655 0.12052634 -0.029167313 -0.06418262 0.0593017 0.09434215 -0.017438754 -0.01069066
00000000: b615 15bc 1657 943c dc9e af3d 20c6 10bd
00000010: 3352 8a3b e710 e23d 398c 283e 6ef0 ad3d
00000020: 3664 04bd 8ebc 3e3e 8c2a 263e 80bf c43d
00000030: cce7 8a3d 2e3b da3d 299d eb3d 68af a13b
00000040: 2bba 833c 95f1 e9bc 513d 2e3e 0fcc 233e
00000050: 229d 9fbd ebd5 303c 9755 2c3e 24b8 1b3e
00000060: 6952 12be 4f97 25bd 36ac f43d 1a27 273c
00000070: 2eb0 3dbd 986e 42bd 2a4f d93d d407 4c3c
00000080: 5de1 443c 8218 623d 2f46 233d ee29 53bd
00000090: 74d0 853d 7712 cf3b e44c acbc 3294 ecbd
000000a0: 761e f73c de49 35bd 03fd 2bbd ba77 55bd
000000b0: 5baf 0b3c 8497 c938 c47f 14bc dd0e 9b3d
000000c0: a6d6 6abd 7c9b d2bd 6304 ec3c b779 133e
000000d0: 79a1 b7bd f45c 6b3c 997a ee3d ea47 093e
000000e0: 2c38 6abc 785a 073e b410 563e 3954 8c3d
000000f0: 3fe2 2dbd d3cb 8a3c 3c9e 2d3c f1dc b7bc
00000100: ff89 003c 4c2b c73d 5d30 983d 7fa5 cfbd
00000110: 7bb9 0abc fb9b e73c c349 0b3d 54cf fabd
00000120: ab2f 423d bcd1 213d a2ff d23d b1aa 043c
00000130: 9419 30bb 9d41 473d 4461 c53c 81e1 7eba
00000140: f66d c53c d659 1dbd 58c3 0bbe 415d 22bd
00000150: 2b23 bf3d 0a29 493d e9ce 273d 01fa 753d
00000160: 32c7 ea3d 93b7 653e eecd 263e 0648 183d
00000170: ace0 5b3d 553d 013e fc43 933d 731b 673d
00000180: 2061 87bb 56bc 003d dcc0 d23d 6e6b 7b3d
00000190: 162a 1e3d df44 2d3e c4db 383e 76a3 3b3d
000001a0: a6e4 f03c 3604 2b3e 705e 623d a5a2 7d3d
000001b0: e1b1 28bd e7b5 1a3d 1c79 8e3d 8111 6cbc
000001c0: ff96 32bd d035 21be 5c7f 7d3d 7672 103b
000001d0: 5a88 e8bd c982 81bd b9eb af3d a5a7 fc3b
000001e0: c8f1 9cbd aa01 463e b429 d03d 8460 c9bc
000001f0: 85c8 59bd a2dd 5b3d 2c0a 69bc 246d 843d
00000200: 7634 693d 790d 9a3d 8f7c 40bd 204c c6bc
00000210: 79ff 2a3e fa46 023e fe7b 123d eebc 323d
00000220: 10bd 8f3d 6ce2 3e3e 38e4 733e b570 9a3d
00000230: 808a 98bb a1be e93d bf9e 133e e2c9 933d
00000240: 7ff3 083d 9601 703c 68cf 8cbd 05d8 a7bd
00000250: 62f8 f33d d1d6 863d 553a 6ebc 1279 5ebd
00000260: 6c06 a53d d748 1a3e 01bf cd3d b60a 953d
00000270: 9e92 323c 0fcd d23d 21ba ae3d a41f 1a3d
00000280: 6f9f 683d 1a90 2b3e a8fd 9f3d 39f1 9a3d
00000290: 60eb 0fbd dc01 9f3c 860c 5ebc 3615 9b3d
000002a0: b26e 1dbc eeaa 53bd d3bf a7bd 4506 1f3b
000002b0: b413 793c 714c b03b dfa6 89bc 3aba 0b3a
000002c0: 2d7c 69bc e75d 5dbd 2568 e3bb 8bc5 d5bc
000002d0: 9301 1b3c c320 9e3c 520b 363c 2a7d 73bd
000002e0: d41b 4dbd 8b87 a63d 89c4 353b b24a 88bd
000002f0: 08c4 75bc 11fb eb3d 147a 7a3d a27c 8fbd
00000300: dd11 47bd 68a4 39bc 50b3 e23d accf cd3d
00000310: 04e9 b4bd f53b 073d 0d9f ad3d 485a e63d
00000320: 6ce0 0dbe 4604 10be 4eaf cfbd 3f02 4fbb
00000330: 7a30 27ba 224d 98bd 786b b4bd 5e81 503c
00000340: 2741 9a3d 4eb9 fa3c 4636 393d f158 573d
00000350: 2793 7f3d 84e9 a83d 72a7 f43a afc8 57bc
00000360: 3bc7 b13b 7bf3 95bb 6f40 033d 356c b33c
00000370: 4ae6 28b7 f9d6 3ebd cea5 93bd c870 1cbd
00000380: 7ca1 ef3c d131 863d 3df1 0e3d e416 803c
00000390: 5321 1d3e f3d6 fa3d 8dea 843d 9898 063d
000003a0: 00f3 b83d 5103 7e3d bfe8 803d e49f e7bb
000003b0: bea9 f03c 2a17 013d 58fb 9c3a 9052 ebbc
000003c0: 6d07 8b3c b198 8bbd f999 c0bd d591 9cbd
000003d0: f6e0 833c df7e a6bd b2ed 50bd fa51 4dbd
000003e0: 549f ad3d 84d6 f63d 4af0 eebc 2d72 83bd
000003f0: 57e6 723d 7536 c13d b8db 8ebc e127 2fbc

model.4.weight f4 [32, 16, 4, 4]
-0.082435474 0.005657767 -0.074174926 -0.070720896 0.003894225 -0.0034206195 0.0043859123 -0.05207897
-0.07363114 0.00057219004 -0.019553322 0.012925377 0.017217178 -0.03122816 0.056737646 -0.045143582
-0.035727862 -0.08840754 -0.10124661 -0.16355142 -0.11989908 -0.14035779 -0.019255532 -0.12929633
-0.086241916 0.05819922 0.011262268 -0.018884802 -0.06512435 0.08463333 0.030340303 -0.053834397
-0.013240877 0.03195619 0.056736887 0.023188837 0.08226189 -0.005099012 0.011258786 -0.12822431
-0.040235635 0.04075867 -0.017434044 -0.050779033 -0.017388286 0.05633567 0.04468404 0.10208445
-0.008629663 -0.060165066 -0.06468362 0.050537683 0.040179122 0.06718213 0.019869177 -0.08136297
-0.012513981 0.10021524 0.10739184 0.06391598 0.03415961 0.017711643 0.17358488 0.046525154
0.13579918 0.10639159 0.08497763 0.11945586 0.0699137 0.06906763 0.05038649 0.153821
0.020943476 -0.02188519 -0.03381667 0.10254887 0.09481925 0.061247807 0.032835748 0.03163205
0.013029359 0.0293487 0.049874518 0.091142036 0.017832182 0.0086290445 -0.035860777 0.10430005
-0.053919435 -0.039480202 0.11451781 0.17262818 -0.01161981 0.016600324 0.025005199 0.09126746
0.047108036 0.004959804 0.04103324 0.017489946 0.005270351 0.01226312 -0.06526957 -0.021656916
-0.04341618 -0.022398299 -0.07185729 -0.0407939 0.05456951 -0.053353656 -0.07170082 -0.11206015
-0.062962405 -0.058694184 -0.030728351 -0.031073902 -0.0064874054 -0.04099716 0.07984521 0.115773976
0.028138647 0.023849715 0.048427764 0.011087579 0.010919799 -0.0320377 -0.10668252 -0.0045173145
0.016111491 -0.019089304 -0.025215074 -0.01305915 -0.010933232 -0.07039607 -0.07360368 0.058640983
-0.07984902 -0.04357422 -0.08912238 -0.049770307 0.019935103 -0.06562209 -0.09097566 -0.006081142
0.04358499 0.058941845 0.07655681 0.020183235 0.0118320435 0.061642796 0.05425194 -0.000602974
0.0054025073 -0.024450934 0.03285626 -0.011875251 0.008875999 -0.0013185719 0.010455655 -0.051803418
-0.018957797 0.08437718 0.05984915 0.0032420442 -0.15413906 0.046640445 0.092738755 0.10528349
-0.07050475 -0.07772667 0.047185794 0.04249681 0.048475284 -0.009644501 0.044062164 0.04874198
0.10742619 -0.024210274 -0.026859006 -0.021108987 -0.039690677 0.08306011 0.15135252 0.043608442
-0.06160154 -0.0024391217 0.057264958 -0.0031833067 -0.02411333 0.096977085 0.018944029 0.051533144
0.107321054 0.017977884 0.005109948 0.031455677 0.09636413 0.06196999 0.00093985203 0.005075896
0.13022701 -0.0021695017 -0.12942214 -0.058788687 0.02037893 0.11269134 0.05091473 0.017645035
-0.011950477 -0.039191056 -0.14601494 -0.015704952 0.037727 -0.10132995 -0.15821156 -0.011519902
-0.16602655 -0.17579302 -0.019300872 -0.06973535 0.11017631 0.042065337 -0.07241032 0.03821718
0.19982834 0.16424388 -0.048177104 -0.058366455 0.09616378 0.1280084 -0.02925058 0.071591645
-0.0881683 0.0024885093 0.018631019 0.03400884 -0.114074536 0.046740122 -0.053043444 0.007688938
0.017227903 -0.001476334 -0.039986573 0.010627782 0.057214215 0.022552323 0.015987389 0.05863729
-0.09452743 -0.009270541 0.06715076 0.10460572 -0.045696147 -0.04036156 -0.043435186 0.09823901
00000000: eed3 a8bd ca64 b93b 06e9 97bd 1ed6 90bd
00000010: 4136 7f3b 792c 60bb b3b7 8f3b c250 55bd
00000020: eccb 96bd 06ff 153a 4a2e a0bc f6c4 533c
00000030: 0a0b 8d3c 33d2 ffbc bc65 683d 7ae8 38bd
00000040: 6157 12bd 030f b5bd 625a cfbd 067a 27be
00000050: a68d f5bd f4b9 0fbe c7bd 9dbc 4266 04be
00000060: 9a9f b0bd 4e62 6e3d 6085 383c 4db4 9abc
00000070: ea5f 85bd 3d54 ad3d 3a8c f83c 7581 5cbd
00000080: 43f0 58bc 7ee4 023d f064 683d 84f6 bd3c
00000090: ec78 a83d 9d15 a7bb c576 383c 3c4d 03be
000000a0: 1fce 24bd 90f2 263d d7d1 8ebc adfd 4fbd
000000b0: e171 8ebc 3bc0 663d 9d06 373d a711 d13d
000000c0: 6e63 0dbc a56f 76bd d978 84bd 9a00 4f3d
000000d0: dd92 243d c996 893d afc4 a23c a1a1 a6bd
000000e0: 7107 4dbc a63d cd3d 41f0 db3d 62e6 823d
000000f0: f2ea 0b3d 0218 913c 3cc0 313e 2991 3e3d
00000100: f10e 0b3e d5e3 d93d c008 ae3d 46a5 f43d
00000110: ea2e 8f3d 5473 8d3d 1062 4e3d 4183 1d3e
00000120: a791 ab3c 9248 b3bc 5983 0abd 2405 d23d
00000130: 9830 c23d fbde 7a3d c77e 063d 9c90 013d
00000140: 1879 553c af6c f03c 3949 4c3d ada8 ba3d
00000150: cc14 923c d660 0d3c c0e2 12bd 449b d53d
00000160: a0da 5cbd feb5 21bd 5088 ea3d 71c5 303e
00000170: 0461 3ebc 67fd 873c b4d7 cc3c 6fea ba3d
00000180: 5bf4 403d da85 a23b 7812 283d 1347 8f3c
00000190: e9b2 ac3b 41eb 483c 0dac 85bd d869 b1bc
000001a0: 2ad5 31bd a37c b7bc ea29 93bd 8117 27bd
000001b0: 4784 5f3d 5d89 5abd e1d7 92bd cb7f e5bd
000001c0: 6ff2 80bd 5069 70bd 06ba fbbc b28e febc
000001d0: 4d94 d4bb a3ec 27bd e385 a33d e81a ed3d
000001e0: 0583 e63c 7a60 c33c 315c 463d ada8 353c
000001f0: f5e8 323c f739 03bd 5d7c dabd fb05 94bb
00000200: 3ffc 833c 2c61 9cbc d88f cebc 0cf6 55bc
00000210: 4c21 33bc d12b 90bd 87bd 96bd 8731 703d
00000220: e287 a3bd e27a 32bd cb85 b6bd f3db 4bbd
00000230: f14e a33c e064 86bd 7251 babd 5144 c7bb
00000240: 2d86 323d 016d 713d d1c9 9c3d 5057 a53c
00000250: 30db 413c 287d 7c3d 4837 5e3d e610 1eba
00000260: 8407 b13b 534d c8bc 4994 063d 6a90 42bc
00000270: a36c 113c eed3 acba 324e 2b3c d22f 54bd
00000280: 624d 9bbc f1cd ac3d 6224 753d 7a78 543b
00000290: a1d6 1dbe 0d0a 3f3d d1ed bd3d df9e d73d
000002a0: cb64 90bd 292f 9fbd e445 413d 2311 2e3d
000002b0: 058e 463d f803 1ebc 877a 343d aca5 473d
000002c0: 4302 dc3d a054 c6bc 6b07 dcbc c1ec acbc
000002d0: b192 22bd 6b1b aa3d 28fc 1a3e c49e 323d
000002e0: e551 7cbd acd9 1fbb a98e 6a3d 069f 50bb
000002f0: 5189 c5bc ec9b c63d 8230 9b3c 6b14 533d
00000300: 24cb db3d 5b46 933c 5a71 a73b abd7 003d
00000310: 8f5a c53d 3fd4 7d3d 6760 763a b453 a63b
00000320: 3b5a 053e 332e 0ebb 3d87 04be 68cc 70bd
00000330: b7f1 a63c b8ca e63d f78b 503d 528c 903c
00000340: efcb 43bc cd86 20bd f184 15be aca7 80bc
00000350: a087 1a3d 1486 cfbd 3602 22be f9bd 3cbc
00000360: dd02 2abe 1603 34be dd1c 9ebc 68d1 8ebd
00000370: 1ea4 e13d b44c 2c3d dd4b 94bd 9e89 1c3d
00000380: cd9f 4c3e 8c2f 283e 5b55 45bd aa11 6fbd
00000390: 84f1 c43d a214 033e ea9e efbc a49e 923d
000003a0: 9591 b4bd 4216 233b 14a0 983c da4c 0b3d
000003b0: e99f e9bd 9272 3f3d 1544 59bd 7df3 fb3b
000003c0: 8821 8d3c 8c81 c1ba f6c8 23bd 2620 2e3c
000003d0: 7459 6a3d a6bf b83c fcf7 823c a82d 703d
000003e0: 9997 c1bd 78e3 17bc 5686 893d 863b d63d
000003f0: e22b 3bbd 2a52 25bd 18e9 31bd 8931 c93d

model.6.weight f4 [64, 32, 4, 4]
-0.05737522 0.06605309 0.070659906 0.039546944 0.07548735 0.11875854 -0.007342109 0.021937363
-0.03925447 -0.05490018 0.010493109 0.03879454 -0.010600907 -0.06515136 -0.07251894 0.0074925665
0.01126936 -0.050393112 0.047074888 0.008678825 -0.0051193186 -0.008445541 -0.0041346424 0.021144088
-0.0333346 -0.10880478 -0.08276922 -0.054069646 0.0051230006 0.06363024 -0.010413576 0.07210114
0.22456165 -0.056687877 0.119170904 0.06483545 -0.07398727 -0.058935806 0.060392417 0.019304767
-0.06483814 0.033588223 -0.02199741 -0.009300327 -0.0031321878 0.06440941 0.017297735 0.1652401
-0.20131284 -0.069282986 -0.04933464 0.027732542 -0.08272437 -0.043124713 -0.005648938 -0.07029514
-0.06378496 -0.020684613 0.1015388 0.030435964 -0.05751896 0.09081137 -0.020305369 0.044153363
0.0023264186 0.024105871 0.031176036 -0.03763273 0.09290932 -0.020518014 0.00047547612 -0.016352285
-0.057188287 -0.1843493 0.0052235043 -0.051261585 0.06748647 0.039342966 -0.018057568 -0.05550455
0.029571777 -0.031181851 -0.03911352 -0.016036352 -0.1136818 0.01569366 -0.006581044 0.070329115
0.022139033 -0.00070924376 -0.07085018 0.022382881 -0.066039175 0.115276285 -0.0040894626 0.07719943
0.02901034 0.010544124 0.07878143 0.02466282 -0.10175751 0.20303845 0.013419416 -0.054189745
0.0016922405 0.037800588 0.058529492 0.01863867 -0.10927251 -0.035018522 0.06685678 0.030669518
-0.10213388 -0.03980437 0.055293597 0.049013738 -0.110990666 0.071409956 0.07134097 0.14015609
-0.0609498 -0.00736991 0.12980771 -0.0052903276 -0.119914725 -0.03922823 -0.095107496 0.033586342
-0.012692906 0.077355795 -0.0010966591 -0.04108909 0.09969768 0.14145915 -0.039357435 0.02912081
0.111520186 0.066035494 0.006270744 0.039612215 -0.18712823 -0.14505932 -0.035613105 0.13105327
-0.04345712 -0.0021659255 -0.009736058 0.06714322 -0.025001742 0.05161984 0.044751443 0.0010869083
0.02409315 0.032327726 0.0036109753 0.041923635 0.051407184 0.02805568 -0.08342591 -0.017644914
0.036628958 -0.13898118 -0.030223168 0.008725332 0.055808727 -0.087060265 0.062618546 -0.0346431
0.0066435128 -0.048335202 0.015964163 -0.02926272 0.09950441 0.10023142 0.028880913 -0.083171226
-0.033351455 0.01821818 0.0067835725 0.0018498977 -0.05327881 -0.018339623 -0.059678704 0.0390896
-0.026027968 -0.057029333 0.074933775 0.109231904 0.0025170608 -0.03990147 0.010396844 0.09867886
-0.012109974 -0.11336426 0.02294987 0.10151259 0.015387301 -0.04010965 -0.08507691 -0.04158115
0.04618343 0.04722107 0.08302956 -0.043030053 0.020594863 -0.13190797 0.010494032 0.053947587
-0.039336063 -0.029570924 -0.051033165 -0.05679224 0.08562524 0.043488204 -0.009246817 0.023152236
0.087814786 0.004679001 -0.1261905 -0.01942451 -0.0071495953 -0.048620827 0.057433248 0.010243466
-0.03415365 0.074374594 -0.040179983 -0.044166394 0.059143882 0.020804318 0.0043502823 -0.00559524
0.023500307 0.032117173 -0.0313264 0.0368154 0.058962204 -0.07227824 -0.04542753 0.10657597
-0.06453114 0.117436536 -0.00812887 -0.034538534 0.11327433 0.12591256 0.031498287 -0.020161808
0.10766633 -0.0017394711 -0.081995115 -0.09246685 -0.032807443 0.068847 -0.011502485 0.035140373
00000000: 4702 6bbd d846 873d 24b6 903d fafb 213d
00000010: 1d99 9a3d ad37 f33d 1396 f0bb fcb5 b33c
00000020: 4cc9 20bd 03df 60bd 4aeb 2b3c 06e7 1e3d
00000030: 6daf 2dbc 146e 85bd cf84 94bd 3484 f53b
00000040: 1fa3 383c 0269 4ebd 99d1 403d a131 0e3c
00000050: f5bf a7bb 2b5f 0abc e57b 87bb 5e36 ad3c
00000060: dd89 08bd 0ad5 debd e982 a9bd 2278 5dbd
00000070: d8de a73b 9250 823d b49d 2abc c3a9 933d
00000080: 7df3 653e 8c31 68bd e00f f43d 73c8 843d
00000090: a386 97bd ac66 71bd 0a5e 773d 0825 9e3c
000000a0: dcc9 84bd ce93 093d ea33 b4bc 6660 18bc
000000b0: 6445 4dbb 15e9 833d fbb3 8d3c b334 293e
000000c0: f424 4ebe 3de4 8dbd 1f13 4abd 5b2f e33c
000000d0: 656b a9bd 8aa3 30bd ba1a b9bb e6f6 8fbd
000000e0: b0a1 82bd c772 a9bc 93f3 cf3d d854 f93c
000000f0: 0099 6bbd 50fb b93d 7257 a6bc 28da 343d
00000100: d476 183b ad79 c53c e364 ff3c c724 1abd
00000110: 3e47 be3d 6515 a8bc 5349 f939 3af5 85bc
00000120: 443e 6abd 10c6 3cbe ee29 ab3b abf7 51bd
00000130: 5936 8a3d 1726 213d 77ed 93bc bd58 63bd
00000140: 8340 f23c 1571 ffbc 8035 20bd ab5e 83bc
00000150: 01d2 e8bd fe8f 803c cca5 d7bb b608 903d
00000160: eb5c b53c 8bec 39ba e619 91bd 4e5c b73c
00000170: 8c3f 87bd f915 ec3d e600 86bb bc1a 9e3d
00000180: 18a7 ed3c 43c1 2c3c 2958 a13d af09 ca3c
00000190: 3e66 d0bd 50e9 4f3e 1cdd 5b3c 11f6 5dbd
000001a0: 2bce dd3a cad4 1a3d 9fbc 6f3d 20b0 983c
000001b0: 44ca dfbd 956f 0fbd 35ec 883d a43e fb3c
000001c0: 912b d1bd e809 23bd 8a7b 623d a1c2 483d
000001d0: 134f e3bd 623f 923d 371b 923d 1485 0f3e
000001e0: 7fa6 79bd 497f f1bb 50ec 043e 7c5a adbb
000001f0: da95 f5bd c8ad 20bd b8c7 c2bd d591 093d
00000200: e8f5 4fbc b76c 9e3d c6bd 8fba 094d 28bd
00000210: 4c2e cc3d abda 103e 4335 21bd c48e ee3c
00000220: b264 e43d 9e3d 873d d07a cd3b 6b40 223d
00000230: 8b9e 3fbe 6e8a 14be 0cdf 11bd d432 063e
00000240: 1800 32bd 33f2 0dbb fd83 1fbc 6282 893d
00000250: 74d0 ccbc 536f 533d 4a4d 373d 9776 8e3a
00000260: ff5e c53c 146a 043d 1da6 6c3b 1eb8 2b3d
00000270: 5790 523d 07d5 e53c 34db aabd 118c 90bc
00000280: 3f08 163d 1551 0ebe 9496 f7bc b2f4 0e3c
00000290: b197 643d a74c b2bd 273e 803d ece5 0dbd
000002a0: d3b1 d93b 22fb 45bd 47c7 823c 5fb8 efbc
000002b0: f8c8 cb3d 2146 cd3d aa97 ec3c ad55 aabd
000002c0: 899b 08bd 4b3e 953c bb48 de3b 4478 f23a
000002d0: e23a 5abd fa3c 96bc a871 74bd 6b1c 203d
000002e0: 9b38 d5bc 9797 69bd e176 993d fab4 df3d
000002f0: 46f5 243b b96f 23bd 8657 2a3c 2418 ca3d
00000300: ea68 46bc 852b e8bd 5e01 bc3c d5e5 cf3d
00000310: 051b 7c3c 044a 24bd ce3c aebd ff50 2abd
00000320: d62a 3d3d e16a 413d 670b aa3d 4840 30bd
00000330: 8fb6 a83c e212 07be 29ef 2b3c 25f8 5c3d
00000340: da1e 21bd b93e f2bc 2708 51bd fb9e 68bd
00000350: 495c af3d b020 323d f67f 17bc c2a9 bd3c
00000360: 3dd8 b33d 4e52 993b 1538 01be 2620 9fbc
00000370: 2747 eabb a226 47bd 203f 6b3d 36d4 273c
00000380: b3e4 0bbd b551 983d c493 24bd d2e7 34bd
00000390: db40 723d d16d aa3c d08c 8e3b 4658 b7bb
000003a0: b783 c03c 4c8d 033d 1c50 00bd bfcb 163d
000003b0: 5a82 713d 9d06 94bd 3812 3abd 8144 da3d
000003c0: e728 84bd 9182 f03d f42e 05bc 4778 0dbd
000003d0: 5ffc e73d 39ef 003e 5904 013d 602a a5bc
000003e0: 2a80 dc3d f7fe e3ba 0eed a7bd 435f bdbd
000003f0: 1961 06bd a8ff 8c3d eb74 3cbc 5aef 0f3d

model.8.weight f4 [128, 64, 4, 4]
0.08992833 -0.07584549 0.039453708 0.07431255 -0.14401257 -0.050494976 -0.031432997 -0.015189266
0.053433064 -0.049256153 -0.075688265 0.08041662 -0.06174319 -0.013324043 -0.0010265349 -0.0037843944
-0.013202855 -0.053569987 -0.004515975 -4.247767e-05 0.015328035 0.015900202 0.058505703 0.033424247
0.06765429 -0.04298315 0.065471575 0.10516093 -0.020798491 -0.03742209 -0.005781103 0.05484178
-0.023888713 -0.00968054 -0.029271306 0.035073265 0.039175574 -0.11185859 -0.013892296 0.04437749
0.044020347 0.0034148877 -0.03323159 0.12319446 0.010022441 0.09683871 -0.0072450642 0.016157407
-0.028468749 -0.06939817 -0.11955203 0.11402591 -0.03434528 -0.0031916932 -0.04857356 0.054511055
-0.11713423 0.017865714 0.08065582 -0.031317227 -0.054090016 -0.010047103 0.07303595 0.04899216
-0.080487706 -0.06862601 0.0927065 0.119596645 -0.009174706 -0.011758941 0.07573948 0.025578037
0.065635584 0.050207395 -0.0034596273 0.03612131 0.04227004 0.07474926 -0.048655603 -0.0181646
0.019729976 -0.042751823 0.055991907 0.043788433 3.6411056e-05 -0.05434262 0.010554355 0.02842191
0.011460053 0.02486445 0.07101869 0.050930683 0.051348984 0.00881777 0.034076855 0.042203426
0.04266879 -0.055278108 0.0057511088 -0.06507803 0.018594492 -0.057852082 -0.017401854 -0.02886087
0.05451739 0.0953405 -0.023493372 -0.015440864 0.057771925 0.057156008 0.063008286 0.018743597
-0.018982382 -0.069470115 0.0266875 -0.037880745 -0.02947288 -0.09778226 -0.050525054 -0.007049198
0.007865269 -0.011143464 0.106054224 0.06950116 0.02151958 0.04954391 -0.025064917 -0.03354495
-0.053617492 0.071595035 -0.009945712 0.015366946 0.012675968 -0.03542998 0.014657993 -0.033516273
-0.105837815 -0.035605244 -0.059339657 -0.1012134 0.021568459 0.10964438 -0.052624643 -0.09382501
0.024090596 0.016738825 0.23889542 -0.006221941 0.03438258 -0.01583741 0.03928727 -0.0012452537
0.08230482 0.036036905 0.15172948 0.026649889 0.014827966 0.0012229253 0.008456733 0.025735542
-0.022451501 -0.004225519 -0.038250722 0.016621888 0.03805551 -0.046357635 -0.056031447 0.04613253
0.072960645 -0.038715918 0.091893286 0.04580381 -0.033688843 -0.004407415 -0.033817478 0.021847935
-0.0730056 -0.0079982355 -0.0070875543 -0.07661863 0.015287713 -0.026670588 -0.023278741 0.027877348
0.031432934 0.018942669 -0.03810702 -0.05591702 0.0051890146 0.053812485 -0.010160926 -0.06852826
0.048871554 -0.0395777 -0.057034995 0.042882163 0.055444267 -0.04192764 -0.005673137 0.05023182
0.030779352 0.043743867 -0.01839168 0.027737068 -0.0101013025 0.031582635 0.007503654 -0.025792517
-0.08969094 0.026511788 0.13722537 0.08964396 -0.03113334 0.015366937 -0.014114303 -0.044260226
-0.07981554 0.029529456 0.14160328 0.038868327 0.015533307 -0.01314853 0.018362682 0.007161416
-0.022191517 0.010581297 -0.057440087 0.0006057438 0.012928192 -0.021556936 -0.0075220377 0.009055392
0.016397372 0.044624455 -0.024631998 0.068008944 0.009025556 -0.033653464 0.026902702 0.008917673
-0.0012872128 -0.023410736 -0.006503998 0.03013776 0.054444905 0.012892704 0.008845175 0.051843934
0.025449585 0.083070494 -0.09263206 0.06921858 0.0005008315 -0.003264798 -0.032610632 -0.006228834
00000000: 582c b83d e154 9bbd 369a 213d 2e31 983d
00000010: 0878 13be d2d3 4ebd e3bf 00bd 66dc 78bc
00000020: a1dc 5a3d d2c0 49bd 7302 9bbd 78b1 a43d
00000030: 6de6 7cbd 164d 5abc cc8c 86ba 9a03 78bb
00000040: ca50 58bc 346c 5bbd befa 93bb 0d2a 32b8
00000050: 7022 7b3c 2441 823c ada3 6f3d dde7 083d
00000060: 558e 8a3d 190f 30bd f615 863d 9d5e d73d
00000070: 9961 aabc e847 19bd 686f bdbb c6a1 603d
00000080: 43b2 c3bc 219b 1ebc 61ca efbc fca8 0f3d
00000090: 9176 203d 1e16 e5bd 839c 63bc 2cc5 353d
000000a0: ae4e 343d 4fcc 5f3b d91d 08bd 614d fc3d
000000b0: 2a35 243c 6053 c63d 0168 edbb 8a5c 843c
000000c0: 4b37 e9bc a120 8ebd b2d7 f4bd 6b86 e93d
000000d0: a3ad 0cbd ba2b 51bb 12f5 46bd fc46 5f3d
000000e0: 12e4 efbd 1e5b 923c e12e a53d 7e46 00bd
000000f0: 7e8d 5dbd 9b9c 24bc df93 953d 01ac 483d
00000100: bdd6 a4bd cb8b 8cbd e8dc bd3d 16ef f43d
00000110: 8251 16bc 93a8 40bc 4d1d 9b3d 0889 d13c
00000120: f36b 863d 45a6 4d3d eaba 62bb f0f3 133d
00000130: 5923 2d3d 2416 993d 194b 47bd edcd 94bc
00000140: c2a0 a13c 891c 2fbd c557 653d 805b 333d
00000150: 13b8 1838 5e96 5ebd 2cec 2c3c 11d5 e83c
00000160: f2c2 3b3c 88b0 cb3c 3f72 913d b19c 503d
00000170: 5053 523d 6878 103c 2c94 0b3d 80dd 2c3d
00000180: 78c5 2e3d 4c6b 62bd cc73 bc3b a147 85bd
00000190: 7a53 983c 4ef6 6cbd 558e 8ebc a26d ecbc
000001a0: a04d 5f3d e141 c33d 2c75 c0bc adfb 7cbc
000001b0: 41a2 6c3d 6b1c 6a3d 7d0a 813d 2c8c 993c
000001c0: f180 9bbc 5946 8ebd be9f da3c d728 1bbd
000001d0: 1c71 f1bc 1142 c8bd 5cf3 4ebd f5fc e6bb
000001e0: 54dd 003c 1393 36bc f532 d93d a056 8e3d
000001f0: d549 b03c 8eee 4a3d f154 cdbc 6e66 09bd
00000200: 049e 5bbd 6ba0 923d 57f3 22bc a5c5 7b3c
00000210: ddae 4f3c 071f 11bd 1428 703c 5c48 09bd
00000220: 7fc1 d8bd ced6 11bd 240e 73bd f948 cfbd
00000230: 56b0 b03c 3c8d e03d f08c 57bd 5427 c0bd
00000240: a459 c53c dc1f 893c 00a1 743e 6de1 cbbb
00000250: c0d4 0c3d 75bd 81bc b0eb 203d c837 a3ba
00000260: 6e8f a83d 6f9b 133d f95e 1b3e de50 da3c
00000270: fff0 723c 904a a03a 1c8e 0a3c 58d3 d23c
00000280: 36ec b7bc 3976 8abb caac 1cbd a02a 883c
00000290: 18e0 1b3d 81e1 3dbd 3b81 65bd 77f5 3c3d
000002a0: 646c 953d 9594 1ebd 8c32 bc3d c79c 3b3d
000002b0: 50fd 09bd 146c 90bb 3284 0abd 71fa b23c
000002c0: f683 95bd 080b 03bc b73e e8bb 3aea 9cbd
000002d0: 5179 7a3c 477c dabc 0fb3 bebc 095f e43c
000002e0: d2bf 003d a82d 9b3c 1b16 1cbd 3f09 65bd
000002f0: 9c08 aa3b 7b6a 5c3d 037a 26bc 8b58 8cbd
00000300: 8a2d 483d 3a1c 22bd 879d 69bd 35a5 2f3d
00000310: 8719 633d 51bc 2bbd b9e5 b9bb e2bf 4d3d
00000320: fb24 fc3c c52c 333d 26aa 96bc d938 e33c
00000330: ef7f 25bc cb5c 013d 36e1 f53b d44a d3bc
00000340: e2af b7bd 402f d93c cf84 0c3e 4197 b73d
00000350: 590b ffbc 9bc5 7b3c ad3f 67bc 364a 35bd
00000360: 5476 a3bd c2e7 f13c 7300 113e 6534 1f3d
00000370: 697f 7e3c ef6c 57bc 566d 963c 50aa ea3b
00000380: fcca b5bc 2d5d 2d3c 4c46 6bbd c7ca 1e3a
00000390: c4d0 533c 2c98 b0bc 6d7b f6bb 115d 143c
000003a0: c853 863c 22c8 363d 0bc9 c9bc 4648 8b3d
000003b0: eddf 133c 37d8 09bd 0e63 dc3c 6e1b 123c
000003c0: b2b7 a8ba dfc7 bfbc 7d1f d5bb 77e3 f63c
000003d0: 9f01 5f3d ec3b 533c 5aeb 103c 4e5a 543d
000003e0: a67b d03c dd20 aa3d e1b5 bdbd 79c2 8d3d
000003f0: 3c4a 033a 39f6 55bb ba92 05bd 3f1b ccbb

model.10.weight f4 [1, 128, 4, 4]
-0.019567028 0.0096498 0.017684102 0.049873263 0.05396224 -0.10874138 -0.04584843 0.29995865
-0.0015109024 -0.010896028 0.021739466 -0.053362645 0.03893112 -0.046303637 0.02652594 -0.020535557
-0.010846961 0.08952566 -0.0068498426 -0.071000785 -0.040745802 0.0019653083 -0.025740955 -0.066819586
-0.02678451 -0.005961612 0.088928275 -0.02092227 -0.0010477139 0.0013612924 -0.0176659 0.005593835
-0.05832759 -0.038697377 0.010831583 0.03413831 0.03432306 0.04583867 -0.2052933 0.03574249
-0.014699702 -0.021794083 0.027334213 0.012989868 -0.0017054321 0.0052880202 -0.0040165246 0.010129887
-0.0021428617 -0.0064081163 -0.0005296888 -0.0100473575 0.01398901 0.0013558104 0.0023691875 -0.003456778
-0.003436244 -0.002599552 0.006156464 -0.006521765 -0.03910166 -0.04266338 -0.03724088 -0.017923068
-0.00586888 0.0050303945 0.006890508 0.03756611 -0.04658934 -0.01012917 0.031225761 -0.061199304
0.0036538665 0.013603362 -0.01516539 0.008497551 0.03695395 -0.00020057993 0.012542618 0.0060797655
-0.0005666393 0.0036009436 -0.0049105724 0.034750987 0.005108297 -0.0017824305 -0.0023553025 -0.03919047
0.012639007 0.0053973496 -0.0038871286 0.0071236272 -0.010842824 -0.008365905 -0.0018318632 0.028793624
-0.000910995 0.012450089 0.007016163 -0.0013602339 0.0061418223 -0.0031991967 -0.0018656084 0.011395718
-0.008852651 -0.007803596 -0.0029059555 0.01401923 -0.0189171 -0.031805724 -0.01530214 -0.015339635
-0.013305175 0.002237421 -0.00389693 -0.0011100742 -0.0015037714 0.0022996524 0.0020004886 0.00072812487
-0.012732477 0.0022415048 -0.00074353366 -0.004189926 0.00012672276 0.023950037 0.020547226 -0.000391593
-0.09950964 -0.02150848 -0.056084782 0.031285416 0.05313363 0.15131967 -0.040334698 -0.04542872
-0.026450574 0.010434526 -0.015062667 0.009195158 -0.0076525887 0.0395882 0.008960835 0.025645297
0.023144351 1.0934911e-05 -0.00478225 -0.048533987 -0.0064469636 -0.0003550303 0.013320388 -0.052642412
0.04448231 -0.016021866 0.009728114 0.018117499 -0.013178347 0.024235642 0.0070176646 -0.014216979
0.049339928 -0.061038498 0.044209145 -0.0063775713 0.023509158 0.002851523 -0.010511124 0.018753018
0.018626861 -0.0203851 0.005670049 0.01258975 0.015931305 -0.0044708825 -0.023849146 -0.013477592
0.20236401 -0.25127155 0.17299834 -0.051516227 -0.040647276 0.09344388 0.090929165 -0.04111912
0.010247435 0.010311742 -0.13194883 -0.0047331066 0.01249122 -0.0064371615 0.026012631 0.017224643
0.0032990274 0.04592941 0.08572001 -0.12816952 -0.118559815 -0.0713006 -0.016338542 -0.032872017
-0.0016172401 -0.069926225 0.16090995 -0.03584173 0.0034600554 0.005694304 -0.007875339 0.0205258
-0.0046073073 0.009922131 0.015780486 -0.012594506 0.002092872 -0.0009737741 -0.007501418 0.01651733
0.028827505 -0.0035396202 -0.0060882266 -0.0011685302 0.017732766 0.006418287 -0.011401595 -0.022698639
0.060930368 -0.017592333 -0.017543351 0.005506286 -0.031407896 -0.0063064494 0.006652299 0.005941702
0.0008346618 -0.0029961837 -0.0014021322 -0.010959663 -0.019220768 -0.043558512 0.02290564 -0.01880498
-0.0055778576 0.0058881254 0.014822837 -0.0020723909 0.003842586 0.0014257747 -0.0064306525 0.0040106974
-0.0041579907 -0.011012137 0.005991737 0.0019528745 -0.007984425 -0.001747324 -0.0057079983 0.032317948
00000000: 084b a0bc 321a 1e3c 40de 903c e847 4c3d
00000010: 8307 5d3d cdb3 debd 90cb 3bbd 2e94 993e
00000020: 7909 c6ba 4185 32bc f716 b23c ca92 5abd
00000030: 3d76 1f3d e2a8 3dbd ee4c d93c 2f3a a8bc
00000040: 74b7 31bc 3b59 b73d a574 e0bb dc68 91bd
00000050: 12e5 26bd 67cc 003b b2de d2bc b5d8 88bd
00000060: 306b dbbc a059 c3bb 0720 b63d 2e65 abbc
00000070: 7253 89ba 656d b23a 14b8 90bc 7d4c b73b
00000080: e9e8 6ebd 2481 1ebd f476 313c 9dd4 0b3d
00000090: 5696 0c3d 54c1 3b3d 6838 52be b866 123d
000000a0: 05d7 70bc 8189 b2bc 00ec df3c 75d3 543c
000000b0: ce88 dfba 2147 ad3b 0d9d 83bb d3f7 253c
000000c0: 416f 0cbb 2dfb d1bb d0da 0aba ac9d 24bc
000000d0: 2932 653c 73b5 b13a 5f44 1b3b 1c8b 62bb
000000e0: 9c32 61bb 3f5d 2abb 2abc c93b 88b4 d5bb
000000f0: 1029 20bd ccbf 2ebd e589 18bd 66d3 92bc
00000100: bc4f c0bb 02d6 a43b c5c9 e13b ecde 193d
00000110: 77d4 3ebd d1f4 25bc 2bcd ff3c 1fac 7abd
00000120: b575 6f3b a3e0 5e3c 4278 78bc 5039 0b3c
00000130: 065d 173d c452 52b9 8e7f 4d3c c538 c73b
00000140: 858a 14ba cffd 6b3b dee8 a0bb 0d57 0e3d
00000150: 8063 a73b 71a0 e9ba 6b5b 1abb 3086 20bd
00000160: d613 4f3c 40dc b03b 32bf 7ebb 516d e93b
00000170: 1aa6 31bc 2611 09bc 211b f0ba 9be0 eb3c
00000180: d7cf 6eba 75fb 4b3c d7e7 e53b e049 b2ba
00000190: 5741 c93b 9da9 51bb 6e87 f4ba 1bb5 3a3c
000001a0: b60a 11bc 4fb5 ffbb d871 3ebb eab0 653c
000001b0: 09f8 9abc b846 02bd d4b5 7abc 1853 7bbc
000001c0: f3fd 59bc b2a1 123b a363 7fbb e97f 91ba
000001d0: 321a c5ba c4b5 163b a11a 033b a2df 3e3a
000001e0: e19b 50bc 36e6 123b b3e9 42ba a64b 89bb
000001f0: e2e0 0439 de32 c43c a852 a83c b94e cdb9
00000200: b6cb cbbd 8d32 b0bc 28b9 65bd 2325 003d
00000210: a6a2 593d 8bf3 1a3e ff35 25bd 7713 3abd
00000220: e0ae d8bc 93f5 2a3c 68c9 76bc 4aa7 163c
00000230: 91c2 fabb 3d27 223d 77d0 123c 1616 d23c
00000240: 3999 bd3c 1675 3737 6cb4 9cbb 93cb 46bd
00000250: 0d41 d3bb 5c23 bab9 c23d 5a3c 929f 57bd
00000260: 1533 363d 4a40 83bc ab62 1f3c 266b 943c
00000270: fee9 57bc d389 c63c 70f4 e53b 55ee 68bc
00000280: aa18 4a3d 8103 7abd a614 353d f2fa d0bb
00000290: 4796 c03c 9ee0 3a3b d936 2cbc ee9f 993c
000002a0: 5c97 983c a7fe a6bc d2cb b93b 3d45 4e3c
000002b0: 5e82 823c 7b80 92bb 495f c3bc 1ed1 5cbc
000002c0: 8338 4f3e aaa6 80be 7a26 313e ae02 53bd
000002d0: c27d 26bd 815f bf3d 1239 ba3d 866c 28bd
000002e0: dce4 273c 95f2 283c 981d 07be 2d18 9bbb
000002f0: f9a7 4c3c d3ee d2bb 7118 d53c b21a 8d3c
00000300: 7f34 583b 7a20 3c3d f98d af3d df3e 03be
00000310: 7dcf f2bd 0d06 92bd 68d8 85bc cfa4 06bd
00000320: 93f9 d3ba 7b35 8fbd 94c5 243e c7ce 12bd
00000330: 19c2 623b 4997 ba3b 9107 01bc b925 a83c
00000340: e5f8 96bb 6f90 223c 1446 813c 3059 4ebc
00000350: 9128 093b e044 7fba 74ce f5bb 5a4f 873c
00000360: a927 ec3c f9f8 67bb bf7f c7bb 5e29 99ba
00000370: 4e44 913c 7e50 d23b c1cd 3abc 7ff2 b9bc
00000380: 1f92 793d cc1d 90bc 13b7 8fbc 136e b43b
00000390: 91a5 00bd 55a6 cebb 87fb d93b 9cb2 c23b
000003a0: 35cd 5a3a 9f5b 44bb c0c7 b7ba 2990 33bc
000003b0: df74 9dbc 696a 32bd 9ca4 bb3c e70c 9abc
000003c0: 76c6 b6bb 2df1 c03b 7cdb 723c f3d0 07bb
000003d0: e5d3 7b3b 0fe1 ba3a 39b8 d2bb 2b6c 833b
000003e0: c13f 88bb 406c 34bc 5556 c43b 98f7 ff3a
000003f0: 1bd1 02bc 7706 e5ba 290a bbbb d35f 043d
