model/rock/discriminator_percent_-1_1_allNoNorm.pt (torch, 178941 bytes, 5 tensors)

model.0.weight f4 [8, 1, 4, 4]
000000 ba eb 46 bd 17 85 92 bb 85 bc 6a be 3e af 1e bd
       -0.04856465 -0.004471432 -0.22923477 -0.038741343
000010 0d 7d 42 3c 53 af 9e be ea 74 73 be c1 07 98 3b
       0.011870635 -0.30993137 -0.23775068 0.004639596
000020 3d 45 0d be fc e6 88 be 2d 58 b0 be e5 92 eb 3c
       -0.13795944 -0.26738727 -0.34442273 0.028756568
000030 1c 4a 6b 3d 06 8a 10 be c0 d9 61 3d 72 5f 35 be
       0.057443723 -0.14115152 0.055139303 -0.17712191
000040 0b 6f dc 3c 43 83 40 3e dd c9 7f be 69 75 a3 3d
       0.026908418 0.18800072 -0.24979348 0.079813786
000050 bf 11 0f bd b9 cc 80 3d ab a0 0d bf c6 1d 62 3e
       -0.034929033 0.06289048 -0.55323285 0.2208167
000060 6f 54 ab 3d b6 d9 81 3d 82 62 89 be 93 7d 88 3e
       0.08365714 0.06340353 -0.26832968 0.26658306
000070 f8 b3 80 3d 2e a9 90 bd 5a 58 c9 bc 8a 37 05 3e
       0.06284326 -0.070635185 -0.024578262 0.13009468
000080 f1 d7 d7 bb de 95 fe bd 2a af 5f bc c4 f8 8f be
       -0.0065870215 -0.12430929 -0.013652602 -0.2811948
000090 4e 12 10 be e5 ee 97 bd 67 89 17 be b4 39 ae be
       -0.14069483 -0.074186124 -0.14798509 -0.340284
0000a0 ff f5 75 3d 02 4c 85 bd 3b 58 b8 bd 76 dd 2d 3c
       0.060049053 -0.06508638 -0.090012036 0.010611882
0000b0 bf 5f 20 be 5c 41 e5 3d aa 52 b8 be 9e 12 42 3e
       -0.15661524 0.11194107 -0.36000568 0.18952414
0000c0 a3 6e 67 3d 0c 91 99 bb 84 f0 82 bd 86 8c 87 bd
       0.056501996 -0.0046864804 -0.06393531 -0.066185996
0000d0 70 34 01 3c d1 e4 d2 3e fe d2 e6 be 2b fc 77 be
       0.007886037 0.41190198 -0.4508285 -0.24217288
0000e0 c4 26 8f bb 44 25 88 3e c9 ae 20 3d e1 6e 25 be
       -0.004368635 0.2659093 0.039229188 -0.16155578
0000f0 8e de 14 3d bb b7 b9 bc 04 86 51 3e 1d e4 07 bd
       0.036345057 -0.022670617 0.20461279 -0.03317653
000100 d2 0a d3 3d ba db e4 be eb da e9 3e 21 70 48 bd
       0.10304798 -0.44698888 0.45674834 -0.04893506
000110 6e d5 6e 3d 4a 07 51 be a5 2e da 3d 05 9e 50 bd
       0.05830901 -0.20412937 0.10653428 -0.05093195
000120 31 8a e0 3b 50 dc 59 3d 80 a3 91 bd c7 a3 1e 3d
       0.006852411 0.053188622 -0.07111263 0.03873041
000130 a3 49 74 3c bb 0a 35 bc 54 38 01 bc c4 b1 e3 3b
       0.0149101345 -0.011049922 -0.007886965 0.0069486815
000140 1c 7a 1a 3b ca 45 92 3c 83 ad 53 be 83 25 6c bc
       0.0023571318 0.017855544 -0.20671658 -0.01441324
000150 8c 6b b0 bb 1d f8 e5 bd a2 67 c8 3e c9 13 9c be
       -0.0053839143 -0.112289645 0.39141566 -0.30483845
000160 a8 aa 6c 3c 05 06 e6 3d 2a 04 9f be 56 35 c5 3e
       0.0144449845 0.11231617 -0.31057864 0.38517255
000170 45 0c 0c 3b b0 ab a9 bc 8c b6 00 3e 2e 23 9d bd
       0.0021369618 -0.02071175 0.12569636 -0.076727256
000180 ee 6f de 3d fa b5 38 3e a1 46 37 be 19 65 47 be
       0.10861193 0.18038169 -0.17898037 -0.1947216
000190 75 77 ec 3e 31 45 e8 3e ae 48 d2 bd e7 9c e5 bd
       0.46184888 0.4536529 -0.10267769 -0.11211567
0001a0 fc 34 33 3e ee 95 61 3e 16 4f d0 3d f1 16 13 3c
       0.1750068 0.2202985 0.101713344 0.008977638
0001b0 20 32 9a bc 5b 88 18 3d 58 c0 b1 bc 55 da 05 be
       -0.01882273 0.037239414 -0.021698162 -0.13071568
0001c0 a4 61 9a bc 7c 14 45 bb fe 15 19 be a0 47 19 bd
       -0.018845387 -0.0030072024 -0.14949796 -0.037421823
0001d0 d9 6a 1b be 37 dc cc bc d1 ec af 3e ee 56 a1 bc
       -0.15177478 -0.02500735 0.34360364 -0.019694772
0001e0 a4 a1 10 3e b5 b3 f4 bd 51 c9 9b 3d a1 96 8f be
       0.14124161 -0.11948339 0.076067574 -0.28044608
0001f0 1d a2 28 3d e0 09 3a 3e 25 35 89 be a9 50 8a 3e
       0.04117023 0.1816783 -0.2679836 0.27014664

model.2.weight f4 [16, 8, 4, 4]
000000 62 a4 a7 ba 32 f6 d0 3d 8e 6c bb 3d 56 42 f8 bc
       -0.0012790079 0.10203208 0.091515645 -0.030305069
000010 67 ce ee 3d b8 d0 11 3e 3c a8 67 3d f3 67 ea 3d
       0.11660462 0.14239776 0.056556925 0.11445608
000020 9d 2e 59 3d f8 bb 40 bb fa e0 40 bd a8 e5 16 3d
       0.05302297 -0.0029408913 -0.047089554 0.03684011
000030 d1 63 14 3d 8f 5a a4 bc 32 f3 31 bd b7 5d e3 3c
       0.036228005 -0.020062713 -0.04344482 0.027754648
000040 ef cc 72 bd 86 68 20 bd 64 45 47 3e cc eb 25 3e
       -0.05927747 -0.03916218 0.19460064 0.1620323
000050 d2 1c 84 3d 14 b9 54 bd ed f2 48 bd 91 f6 51 bd
       0.064508095 -0.051934317 -0.049059797 -0.051260535
000060 51 7c 51 bd 66 65 4f bd 1b 75 50 bc 62 4d 26 bd
       -0.051143948 -0.05063381 -0.012723233 -0.04060114
000070 88 e9 cf bd 82 e9 dd 39 38 f3 50 bc 7f 59 38 3c
       -0.101519644 0.00042326382 -0.0127533 0.011251806
000080 bc c2 74 3c 26 a5 18 bd 68 49 13 bd e6 d2 1f bc
       0.014939006 -0.037266873 -0.035958678 -0.009754872
000090 8d f3 c2 3d 4d 3c 9f 3b c9 f3 b7 3d b1 f9 4c 3e
       0.0951911 0.0048594833 0.08982045 0.20017125
0000a0 7d bd 35 bb b9 75 f8 3d 6d e1 69 3d 74 b7 26 3d
       -0.0027731352 0.12131829 0.05709975 0.0407023
0000b0 1c aa 77 bc 5a 64 7d 3d 38 1c bb 3d fd c3 6a 3c
       -0.015116241 0.06186328 0.09136242 0.014328954
0000c0 2f bf 09 3d 5d 82 23 3d 57 a4 a1 bd 47 51 d7 bc
       0.033629593 0.039919246 -0.078926735 -0.026283873
0000d0 00 93 50 bd 54 6d 43 be 66 49 12 be 6e 56 ad 3c
       -0.05092144 -0.19084674 -0.14285812 0.021159377
0000e0 59 8d 49 bd 87 10 4a be ba 7e 26 be a0 92 08 bc
       -0.049207065 -0.19732867 -0.1625928 -0.008335739
0000f0 4f f8 a7 bd 6e 76 7a bc b6 3f ee 3c 7b 8b 8d bd
       -0.08201658 -0.015287025 0.029083114 -0.069113694
000100 d0 14 24 3d e3 52 78 bc bc 30 01 3c 08 e7 c5 3c
       0.04005891 -0.0151564805 0.007885154 0.024158016
000110 8f fa 88 bd 38 a2 1d 3c 8b f6 fd ba e6 5b f0 3c
       -0.06688415 0.0096211955 -0.0019375844 0.029340696
000120 6d 14 58 bd 8b ca 1c be 67 1e 70 3d 35 a6 8f 3d
       -0.052753855 -0.15311639 0.058622744 0.07014123
000130 7a 86 37 bd bb 6e 8a be 31 b0 a2 bd c7 bc a7 3d
       -0.04480598 -0.27037606 -0.07943762 0.08190303
000140 4a c7 eb bd c6 10 c8 3d 8a fe 08 3e 40 40 b9 3d
       -0.11512621 0.09768824 0.13378349 0.09045458
000150 03 a9 99 be a2 f4 5b be f8 6c f4 bc 91 1e 54 3d
       -0.30011758 -0.21480039 -0.029837117 0.051786963
000160 59 ea 5a be 68 ba 8c be c5 10 12 3d a1 4d 1a 3e
       -0.21378459 -0.27485967 0.035660524 0.15068676
000170 46 24 89 bd 10 d9 4d 3d b6 fb ac 3d b1 3c 88 3b
       -0.06696372 0.050255835 0.084464476 0.0041576256
000180 90 d8 0b be 8e 02 e1 bd 73 ae 16 3e 3d 6c 60 bc
       -0.13656831 -0.109868154 0.14714985 -0.013697681
000190 34 84 8b bc 06 8f d2 bc 29 e6 39 be a6 80 1f 3d
       -0.017030813 -0.025702965 -0.18154205 0.038941048
0001a0 10 87 d4 3c 40 d3 e7 bc 78 33 2f be e4 5c 4c 3d
       0.02594331 -0.028298974 -0.17109478 0.049893275
0001b0 b2 8a 76 3c 36 1c fe bd ba 03 c5 bd 79 33 7b 3d
       0.015047716 -0.124077246 -0.096198514 0.061328385
0001c0 fe f6 f2 3c 8b 11 7c bd e8 43 05 3e c5 5b 5e 3e
       0.02965879 -0.061540168 0.13014185 0.21714695
0001d0 ec 9b 69 bd 29 e7 15 be 3c 3a 71 bd 11 c1 3b 3c
       -0.057033464 -0.14638962 -0.058893427 0.011459605
0001e0 0e ea 37 bd 0e 46 98 be 27 15 7b bc 83 70 00 3e
       -0.044900946 -0.29740947 -0.015324867 0.1254292
0001f0 15 dc b6 bd 4d 12 ac bd 10 4c f8 bc 54 40 82 3d
       -0.08928696 -0.08401928 -0.030309707 0.06359926
000200 b3 f3 08 3d f9 f3 99 bd a6 da c3 bc e4 18 32 3d
       0.033435535 -0.07517237 -0.02390797 0.04348077
000210 7f 78 23 3e e1 9b c4 3d 0a 32 0e 3e dc 65 ba 3d
       0.15963934 0.09600044 0.13886276 0.091014594
000220 4d 0e 56 3d 00 05 d0 3c 71 de a6 bd 03 74 29 bd
       0.052259732 0.02539301 -0.08147896 -0.041370403
000230 04 00 94 3d 61 91 d9 bd c5 cb e2 3c eb da df 3c
       0.072265655 -0.10623432 0.027685056 0.027326068
000240 06 ad ad bd e3 9b 41 be e7 6b 15 bd 23 79 ac bb
       -0.08480267 -0.18907122 -0.036479857 -0.005263464
000250 82 9c e2 bd a0 6d 91 bd d1 66 ca 3c 74 47 65 3c
       -0.11065008 -0.071009874 0.02470723 0.0139940865
000260 e2 62 29 be a7 9c a5 3c 80 9d a2 3d 8d d2 be bc
       -0.16541627 0.0202163 0.07940197 -0.023293758
000270 c9 91 01 3e 88 44 46 3d ae 99 c9 3d 27 60 08 3b
       0.12653269 0.0484052 0.09843765 0.0020809264
000280 fa 53 fd 3d 81 70 7e 3d 1d b5 e6 3d b8 db 8e bd
       0.12369533 0.06211901 0.11265013 -0.06975502
000290 4c 66 cd 3d 69 20 2d 3d 37 db 34 3d f4 fb 5d be
       0.10029277 0.042267237 0.044154372 -0.21678144
0002a0 71 f8 88 3d fd 2b a4 bd 22 66 ff bc ba fa 83 bd
       0.066880114 -0.080162026 -0.03117663 -0.06444307
0002b0 70 1c d6 3d 4a 90 bb bd 92 ad 06 3b 19 00 89 b9
       0.10454643 -0.0915838 0.0020550233 -0.0002613075
0002c0 85 ac 28 3c 8e 2c 6f 3d 85 67 42 3a 21 be 99 3e
       0.010295038 0.0583921 0.00074159383 0.3002787
0002d0 06 fd aa bd be 04 85 3d e0 41 d7 3d 24 ed 00 3e
       -0.08349042 0.06495045 0.105106115 0.12590462
0002e0 2e df a0 bd 4c af b4 3d 92 4f 92 3d 58 2a 02 be
       -0.07855068 0.08822498 0.07144083 -0.12711465
0002f0 00 95 79 3d 0c ee a2 3d 74 83 63 3d df c3 e6 3d
       0.060933113 0.0795556 0.055545285 0.11267828
000300 85 f7 3d 3d 3c de 94 bd 3b 35 b3 bd bf 46 e0 3d
       0.04637863 -0.0726895 -0.08750387 0.10950994
000310 8a fc c3 bd cd d6 38 be da 2a 0b 3e 16 cc 1a 3e
       -0.095696524 -0.1805069 0.13590565 0.15116915
000320 74 26 d3 bd 4b b6 2d be da 32 a4 bd 58 2e 2d 3e
       -0.10310069 -0.1696407 -0.08017512 0.1691221
000330 8c 12 23 3d 16 5a 7b 3c 59 ca b8 ba 5d ce c7 bd
       0.03981261 0.015341302 -0.001409839 -0.097561575
000340 fe 9b 75 3d a5 17 f0 3c b6 a6 15 3d 37 ff 57 bc
       0.05996322 0.02930815 0.03653594 -0.013183407
000350 ff 48 ce bd a9 34 7e be 7e 85 79 3a c4 ed 03 3e
       -0.10072517 -0.24824776 0.0009518488 0.12883669
000360 e6 ea ba 3d a3 37 a9 bd a9 7d a8 bd 62 2f 05 be
       0.091268346 -0.08262565 -0.08227093 -0.13006356
000370 2b 16 2b bd af d8 cb 3d 45 d1 17 bd 9d 5a 0c be
       -0.041769188 0.099534385 -0.03706481 -0.13706441
000380 4d 3f 48 bd dd bf 06 be df 57 8f b9 cb 28 18 be
       -0.048888493 -0.13159128 -0.00027340555 -0.14859311
000390 c1 15 e1 3d b9 2d 2d 3d f1 2c cd 3b 38 e7 a9 3c
       0.10990477 0.042279933 0.006261461 0.020740137
0003a0 b2 21 30 3d 62 a0 8d bb 07 8a 69 bd 02 39 ba 3d
       0.043000884 -0.0043220976 -0.0570164 0.090929046
0003b0 0b 25 03 bd 1f 6f d0 3d 53 d8 f5 bc 7e 8f 59 bc
       -0.03201775 0.10177445 -0.030010378 -0.01327884
0003c0 fb 63 b3 bd f6 cf 8d 3d d1 22 e9 bc 35 bd 36 bd
       -0.08759304 0.06924431 -0.028458985 -0.044614036
0003d0 ee fb 1a 3d ef e3 03 be a6 06 9c bd 06 66 09 3e
       0.037837915 -0.12879919 -0.076184556 0.13417825
0003e0 01 6b b5 bc 66 03 a4 3d e6 fb 01 bd 2b fb e8 bc
       -0.02214575 0.08008461 -0.03173437 -0.028440079
0003f0 1a 1a 25 bd 3c 2d d1 3d 87 ed d5 3d 1f 45 1f be
       -0.040308096 0.10213706 0.10445695 -0.15553711

model.4.weight f4 [32, 16, 4, 4]
000000 3d 43 02 3d 59 e6 25 3e a2 a3 45 3e 48 b4 13 3c
       0.031802405 0.16201152 0.19300702 0.00901515
000010 dd 76 73 3d a8 4d 8c 3d 4d e1 54 3d 59 17 53 3c
       0.05943953 0.06850749 0.051972676 0.0128839845
000020 e9 ae 44 bc 39 66 e7 bc 47 99 12 bd 06 a0 df bd
       -0.012004592 -0.028246986 -0.035790708 -0.10919194
000030 52 3d 5f bd 98 57 b1 bd 33 e5 93 bc 88 ed a0 bd
       -0.05450184 -0.08659285 -0.018053627 -0.078578055
000040 ac 60 08 3e 69 cf d9 3d 92 4b f4 3d 74 a0 ce 3c
       0.13318127 0.106352635 0.119284764 0.025222994
000050 f6 63 0e 3d 23 4b f4 3d 94 ad 3f 3e 5c 78 70 3d
       0.0347633 0.11928394 0.18718559 0.058708534
000060 67 24 84 bd b6 f9 13 3d e7 ea bd bd c6 89 c5 bd
       -0.06452256 0.036126815 -0.0927332 -0.09645419
000070 28 f7 98 bd a2 38 42 bd 2e 60 93 bd 25 f0 c5 bd
       -0.07469016 -0.04741729 -0.07196079 -0.096649446
000080 aa e0 59 3d 82 b2 cc 3d 25 d5 a6 3d e5 d5 79 bc
       0.053192772 0.09994985 0.08146123 -0.01524875
000090 4b d5 95 bd 64 54 18 3d 67 d4 de 3d 71 7a 3b bd
       -0.07316073 0.037189856 0.10880356 -0.045771066
0000a0 46 59 c8 3c ee 73 99 3d 65 ab 2c 3b 5d b3 1f bd
       0.024456631 0.07492815 0.0026347276 -0.038989414
0000b0 ea 8a 94 3a 8c 1d f4 3c 64 56 cd bc f6 ee 91 bc
       0.0011332904 0.029799245 -0.025065608 -0.01781414
0000c0 b0 ed 4e 3e b8 13 80 3d 72 82 7b 3c 99 a1 b3 3c
       0.20207858 0.06253761 0.015350925 0.021927642
0000d0 81 a1 ba 3c 36 28 a0 bc f8 6a 19 3c 87 72 47 bd
       0.02278209 -0.019550424 0.009363882 -0.048693206
0000e0 86 76 b5 bd 2f 79 98 3c 03 a3 6e 3c d8 cf 59 bd
       -0.08860497 0.018612472 0.014565232 -0.05317673
0000f0 ad ed b1 bd 7b d3 9c 3c 21 29 7d ba 7a 89 10 bc
       -0.08687911 0.01914381 -0.0009657313 -0.0088218395
000100 b3 aa c0 3c 55 df 6f 3c 68 9d 91 3d 6d 93 a5 bd
       0.023518896 0.014640649 0.07110101 -0.0808476
000110 45 ca 98 3d 52 c8 45 3c c0 a8 a7 bc b2 df c1 bd
       0.07460455 0.012071686 -0.020466208 -0.094664946
000120 0d 4c f4 3c 1c 32 bf 3d 86 24 21 3e 91 c4 86 3d
       0.02982142 0.093357295 0.15736589 0.06580461
000130 75 1f d7 bb 4b 03 e6 3d 3f 6a ca 3d e8 83 cd 3d
       -0.0065650293 0.11231097 0.09883546 0.10034925
000140 0f a0 3a bc 15 f3 65 3d 37 0d c1 bc 1f 84 c0 bd
       -0.0113907 0.056140024 -0.023565872 -0.094002
000150 a3 ea 48 3b bc c0 dc 3d d3 e6 a5 3d cf 90 94 bc
       0.0030657433 0.10778949 0.08100667 -0.018135456
000160 16 7a e8 3c 5d 14 ca 3d 6b 88 29 3e 2f 82 79 bd
       0.028378528 0.09867165 0.16555946 -0.06091517
000170 31 1d 32 bd 05 e2 0f 3e 74 ff 20 3d f5 b0 a4 bd
       -0.04348487 0.14051063 0.03930612 -0.080415644
000180 d7 b0 66 3d 0e bb 4f 3e 02 01 f7 3d 71 47 fa ba
       0.05632099 0.202862 0.12060739 -0.0019094778
000190 5b 3e 2b bc 56 e6 d4 bc 20 65 08 3c f6 88 94 bd
       -0.010451878 -0.025988739 0.008324891 -0.07252686
0001a0 3e 5a 1b 3d 22 40 98 bd 85 e0 ab bd ed 5d 2c 3d
       0.03792786 -0.07434107 -0.08392433 0.042081762
0001b0 d0 04 d5 3c 23 0c d5 3c 24 60 39 bd fb 3f 50 bd
       0.026003271 0.026006764 -0.045257702 -0.050842267
0001c0 32 5e ad 3d 3c ba f1 3d 0e 94 17 3e 92 92 f0 3d
       0.08465232 0.118030995 0.14802572 0.11746706
0001d0 53 3d 95 bc 76 86 0d 3d 0c 02 06 3d ad 2f 9c 3d
       -0.018217718 0.03455206 0.032716796 0.07626281
0001e0 08 0c 44 bc c9 67 34 3c f2 94 76 bd 6e 8c 7f bb
       -0.011965759 0.011011072 -0.06020064 -0.0038993615
0001f0 fd b2 67 bd 90 a4 f6 3c 7c 9e 60 3d f3 a0 00 be
       -0.05656718 0.030107766 0.054838642 -0.12561397
000200 59 b0 cc ba 85 2b b0 3d e5 3f e0 bd fd 5f 07 be
       -0.001561652 0.08602051 -0.10949687 -0.1322021
000210 64 13 87 3d 35 c9 18 3d be 8c 6d 3c 6a 35 49 bc
       0.06595495 0.03730126 0.014498888 -0.012280801
000220 56 9b b3 3d e2 8c c3 3d 25 8a 83 3d b3 5b 7a 3d
       0.08769862 0.09548356 0.06422833 0.061122607
000230 9a af 8d 3d 79 04 e8 3d 58 34 d0 3d 47 07 28 3d
       0.06918259 0.11328978 0.10166234 0.041022565
000240 88 5b 56 3d 9b 8d a6 3c 9b 48 88 bd 38 52 62 bd
       0.052333385 0.020331195 -0.066544734 -0.05525419
000250 95 9c 92 bd 5d 6d 85 bc 51 95 b5 bd 13 b7 39 bd
       -0.07158772 -0.0162875 -0.088663705 -0.04534061
000260 bf 01 ba bd f3 2d 3e 3d f0 cd db bc 93 ec 94 bd
       -0.09082364 0.04643054 -0.026831597 -0.072716855
000270 b4 1a 8e bd a4 44 9e bc 3e 42 84 3c 23 55 3b bd
       -0.06938687 -0.01931984 0.016144868 -0.04573549
000280 8e a8 d8 3d 62 62 7d 3e 80 4b 01 3e 01 a9 b4 bb
       0.10579024 0.24744561 0.12626457 -0.005513311
000290 8a bd 1f 3d 84 35 15 3e d4 2b 80 3d 39 b9 53 bd
       0.038999118 0.14571196 0.062583596 -0.051690314
0002a0 1a 07 58 3c 99 72 0e bd 0a ed 45 3c cf 95 33 bd
       0.013185287 -0.034777258 0.01208044 -0.04384404
0002b0 83 a6 2f bd 2e d3 8d bd ce ec d0 bd 3b 8c 98 bd
       -0.042883407 -0.06925045 -0.10201417 -0.07448622
0002c0 e8 58 56 3d 07 f7 bb 3d 91 d9 bd 3c 5c cc b0 3c
       0.05233088 0.09177976 0.023175033 0.021581821
0002d0 60 f3 21 bd 96 b7 e7 3c b3 7e 81 3c 34 b1 4c bd
       -0.03953874 0.028285783 0.015807485 -0.04997368
0002e0 5f 0b 19 be 28 6b d1 bb 49 0c 22 3d 7c 11 00 be
       -0.14945744 -0.006390948 0.039562497 -0.1250667
0002f0 44 2e e5 bd 6d 6c 59 bd b2 53 ba bb 2e 5d d4 bd
       -0.11190465 -0.05308192 -0.005686247 -0.10369335
000300 69 0f c5 3d 72 9c 60 3e 42 1c f7 3d c2 ad 43 3d
       0.0962208 0.21934679 0.120659366 0.04777313
000310 ab d3 33 3d b9 ef fc 3d 49 ba 17 3d b3 67 c9 bc
       0.043903034 0.12350411 0.03704289 -0.02458558
000320 85 d1 95 3c be d4 1b bd 1f 94 8f bd 39 5f d4 bd
       0.018288383 -0.038044684 -0.07010674 -0.10369725
000330 74 01 62 bd d9 af af bd c3 bc c8 bd 91 51 cc bc
       -0.055177167 -0.08578462 -0.098016284 -0.024941238
000340 b2 c6 bd 3c 3c 74 ba 3d 85 ed 7e 3b 30 30 24 bc
       0.023166034 0.09104201 0.0038898897 -0.010021254
000350 f3 87 30 bd ca a9 29 bd fb 7b 51 bc 36 33 54 bd
       -0.0430984 -0.04142169 -0.012785907 -0.05180665
000360 f5 0b 0f be bf 8d bb bd 67 10 7b bd d0 97 05 be
       -0.13969405 -0.09157895 -0.06129494 -0.13046193
000370 e1 cd 07 be dd cd bb bd 34 6b d6 bc d9 97 0d be
       -0.1326213 -0.09170125 -0.026174165 -0.13827457
000380 b0 ec a1 3d de 62 c7 3d 9b a7 d8 bd b6 df e6 bc
       0.07906473 0.09735654 -0.10578843 -0.028182846
000390 3a 91 ad 3d 74 eb 9d 3d 5e 0d 47 bd 2f 5a 17 bc
       0.084749654 0.07710925 -0.048596732 -0.00923781
0003a0 7c 4d be 3d a5 47 a5 3d 96 e6 15 3e 53 3b 82 3d
       0.09292123 0.08070306 0.14638743 0.063589714
0003b0 fa 12 ce 3d 33 d6 dc 3d 34 67 15 3e 78 a7 dc 3d
       0.10062213 0.10783043 0.1459015 0.1077413
0003c0 79 18 af 3d 52 74 17 3e 99 4c 07 3e 04 64 a0 3d
       0.0854959 0.14790466 0.13212813 0.078315765
0003d0 2a 41 20 bd b2 f2 15 3d 7f 3b 76 3d ff 1f 11 3d
       -0.039124645 0.036608405 0.060115334 0.035430904
0003e0 f4 58 fd bc 1d bc c8 bc 9f 75 ca bd 5d 8d d8 bd
       -0.030926205 -0.024503762 -0.09885716 -0.10573838
0003f0 79 d3 40 3d 7a 51 59 bd ea bf 1d bd ef 47 ca bd
       0.047076676 -0.053056218 -0.0385131 -0.098770015

model.6.weight f4 [64, 32, 4, 4]
000000 f8 2f 95 3d eb d1 9c 3d 6e 50 1d 3d 8d bb 7f 3d
       0.0728454 0.07657226 0.03840678 0.06243472
000010 7c 97 3a 3c f0 17 e3 3d 6f 81 1d 3e 55 20 d1 3d
       0.011388656 0.1108855 0.15381406 0.10211245
000020 ec 1f 27 3e 4b 68 08 3e 49 d5 f3 3d ff 43 b8 3d
       0.16320771 0.13321035 0.11905915 0.08997344
000030 41 42 4b 3d f7 82 fd 3d 6e 5b 20 3e ce 03 e5 3d
       0.04962373 0.12378495 0.15659878 0.11182366
000040 45 44 6b 3d 72 46 a8 bb 72 a3 f4 bc 40 02 19 3b
       0.057438154 -0.005135351 -0.029863093 0.0023347288
000050 3b 06 5d 3d 03 54 7b bd 80 f8 a4 3d d6 fa 31 bd
       0.05396102 -0.061359417 0.0805521 -0.043452106
000060 1d d7 1f bd 89 04 57 bd c2 86 d5 3d 35 4a 8c 3d
       -0.039023507 -0.05249456 0.10426094 0.06850091
000070 ca 5c ae bd 59 51 14 bd 24 64 bc bd 64 48 40 3d
       -0.08513792 -0.03621039 -0.09198788 0.046944037
000080 1e 55 8b 3d 14 a2 53 3d b7 7f 36 3d 60 57 fd bc
       0.06803344 0.05166824 0.044555392 -0.030925453
000090 df 74 87 3c 2c ac da 3b 86 23 b1 3d 74 07 9a bd
       0.01653522 0.0066733565 0.08649354 -0.07520953
0000a0 c9 7c 4a bd e7 e3 a4 bd 7d 6d 0e 3b 97 46 2f 3d
       -0.04943541 -0.080512814 0.002173274 0.04279193
0000b0 62 2d 5c bb 1a 22 ce 3c 0e a9 61 3d 86 ac a1 bb
       -0.0033596386 0.025162745 0.055092864 -0.0049338965
0000c0 ab a1 9b 3d 8c d1 ae bc a7 7b 45 3d b6 77 73 3d
       0.07599195 -0.021340154 0.048213627 0.059440337
0000d0 4b 99 a3 3d 65 fa ca bd e9 bf 0b bd ee 1b c2 bd
       0.07988223 -0.0991104 -0.034118567 -0.094779834
0000e0 f1 9a 6d bb 89 29 17 3d a8 44 8d 3d 94 a0 1c 3d
       -0.0036255682 0.036904845 0.06897861 0.038239077
0000f0 e1 7a 60 bc d5 8d 40 3b 9e 57 85 bd 66 ca 44 3c
       -0.013701172 0.0029381413 -0.06510852 0.012011146
000100 48 65 d6 3c ab eb 43 bd 99 fa d9 bc 71 d0 18 3c
       0.026171342 -0.047832172 -0.026608752 0.00932704
000110 0b 38 91 3c 00 c2 fc 3c b0 d2 c4 3c 62 aa cf 3b
       0.017726919 0.030854225 0.024026245 0.00633745
000120 a4 a5 9c 3d 21 66 78 3d 58 4b 04 3e c4 81 2d 3d
       0.07648781 0.060644273 0.12919366 0.042360082
000130 2e e4 9f 3b d7 bd 16 bd dd 54 6b bb 90 85 4c bd
       0.004879496 -0.03680214 -0.0035908737 -0.049932063
000140 10 63 c5 bb e3 3e 0f bd e7 e8 d0 3d b9 12 82 3c
       -0.006023772 -0.034972083 0.102006726 0.015878068
000150 9c 7a 94 3d 07 be af 3c d3 5b 3e 3d 0f bb cf 3c
       0.072499484 0.021452917 0.04647429 0.025357751
000160 65 13 f8 bd 89 52 90 3d e6 b2 de 3c 0c e6 05 bd
       -0.12113074 0.07046992 0.027184915 -0.032690093
000170 be 66 0e 3d d5 bc 86 bd ac 6c 15 3e bc dc 22 bd
       0.03476595 -0.065789856 0.14592236 -0.03976129
000180 dd bd 5d 3d e2 06 de bc 20 ab 9b bd 88 23 a6 3d
       0.054136146 -0.027102891 -0.07600999 0.08112246
000190 7d c4 e7 3d e1 ac 06 3c 51 53 1a 3c a4 d0 cb bc
       0.11316774 0.0082199285 0.009419278 -0.024879761
0001a0 58 9d 51 bd 04 33 62 3c 83 cd 16 bd 20 75 55 bd
       -0.051175445 0.013806108 -0.036817085 -0.052113652
0001b0 f1 87 6d 3c 8c 45 82 bd 51 5e b6 bd 59 a6 0c 3d
       0.014497743 -0.06360921 -0.08904708 0.03433833
0001c0 e8 df b1 3c bd 12 b0 bc 64 27 21 bd ac e5 67 3d
       0.021713212 -0.02149331 -0.039344206 0.056615517
0001d0 a3 74 cc 3c ce 7f 62 bd 40 7d 23 3d 00 dd 4e bd
       0.02495796 -0.055297665 0.03991437 -0.05050373
0001e0 ca 22 f8 ba 19 1a 05 bc 47 95 63 3d ad 3a 93 bd
       -0.0018931266 -0.008123898 0.055562284 -0.07188926
0001f0 ca 47 40 3c 84 aa 42 3d 02 cc af 3d 8e 8c 76 3c
       0.011735866 0.047525898 0.08583833 0.015048159
000200 7f 0b c0 3c 89 1e 3f 37 a2 e1 f1 bd 9a 2f b6 3c
       0.023442982 1.1391597e-05 -0.11810614 0.022239495
000210 ec cc fa bc 68 20 a6 bc c4 b4 b6 bd dc e3 aa bd
       -0.030615292 -0.020279124 -0.08921197 -0.08344242
000220 90 d6 5e 3d 9b 9b c4 bc e4 97 58 3d dc 19 82 3c
       0.05440384 -0.02399998 0.05287923 0.015881471
000230 9e 88 ba 3b 91 1b 03 3c 79 c4 0f 3d 52 ec 21 bd
       0.0056925556 0.008002178 0.03509948 -0.039532013
000240 20 91 9b bd 79 ea cc 3b a8 fd 2d bd 13 8f e7 bc
       -0.0759604 0.0062535373 -0.042478234 -0.028266465
000250 76 53 b0 bd 8d 55 2d 3d 9b 13 8f bd 9d 33 01 bc
       -0.08609669 0.042317916 -0.06986161 -0.007885841
000260 9f 1d 3d 3d 9b c8 39 bd 68 e1 e4 3d 95 c9 a4 bd
       0.046170827 -0.045357328 0.11175805 -0.08046261
000270 9e d7 5b 3d 2b 65 45 3d 57 1a 39 bd 86 58 8b bd
       0.053672425 0.048192184 -0.045191135 -0.06803994
000280 2f d6 b9 bd fb 3c 14 bc a5 e5 ce 3c af 7a ed 3b
       -0.090740554 -0.009047742 0.025255987 0.007247291
000290 85 24 83 bd 91 09 e4 3c 31 e2 84 bd 93 1e 29 3d
       -0.0640345 0.027836593 -0.06488455 0.041288923
0002a0 72 f2 a5 3d 7e fb b0 3c 7f f0 26 3e a1 cc f8 bc
       0.081028834 0.021604296 0.1630268 -0.030371012
0002b0 9c c6 a9 3c 2f 30 4f 3d 6c 04 24 3e 19 4a 4b 3d
       0.020724587 0.05058306 0.16017312 0.049631212
0002c0 8b b2 65 bb f9 0d 50 bd 25 20 09 bc af 53 a6 bb
       -0.0035049047 -0.050794575 -0.00836948 -0.005075894
0002d0 f9 5a a1 3d bf b7 7d 3c 55 0a 9f 3c 9b 29 38 3b
       0.0787868 0.015485703 0.019414106 0.002810097
0002e0 6a 64 37 be a2 88 db bd 4f 43 04 be b4 d3 a8 bc
       -0.17909399 -0.1071942 -0.12916301 -0.02060876
0002f0 30 27 8a bd 72 8d 8c 3c 61 ae ee bc ea e4 0e bc
       -0.06745756 0.01715729 -0.029135885 -0.00872157
000300 0d a3 b4 3d a0 ef cc 3d 6f 9c af 3c e5 d4 41 bd
       0.08820162 0.10006642 0.021436898 -0.047322173
000310 e9 34 8b 39 ff a0 c2 bc 02 ea 2e bd cc ae 89 3d
       0.00026551567 -0.02375841 -0.042703636 0.06722793
000320 7e cb 1a be 85 69 c5 bc 87 88 5b 3d 88 8a 4c 3c
       -0.15116689 -0.024098167 0.053597 0.0124842
000330 eb 72 a1 bd c0 24 90 3c b2 42 28 3d dd 91 64 3d
       -0.07883247 0.017595649 0.04107923 0.05580317
000340 e8 03 a7 ba 2e de 52 bd 42 25 e0 bc 1c b6 ec 3b
       -0.0012742253 -0.05148142 -0.027361516 0.0072238576
000350 e8 bb 24 bd 97 1f c1 bd f4 b0 84 bd 3e be 94 bd
       -0.040218264 -0.094298534 -0.06479064 -0.07262848
000360 46 34 86 bc d1 4d 53 bd fb 87 ef bd 1f 25 3e bd
       -0.016382348 -0.051587883 -0.11695858 -0.04642212
000370 a9 9f 24 3d db 09 97 bb ce 1f 32 be 74 89 aa bd
       0.040191326 -0.004609329 -0.17394945 -0.08326998
000380 95 a8 a7 bc 35 e0 92 3d 4e 5e 0d be 5b ca d6 bc
       -0.020466128 0.0717167 -0.13805506 -0.026219537
000390 92 b0 a8 3d 8e 35 82 bc 00 82 4d 3d f3 bb 14 bd
       0.08236803 -0.015894677 0.050172806 -0.036312055
0003a0 ed 54 4a 3c 1a 53 81 bd 53 3c 57 3e 64 0b b2 3d
       0.012349349 -0.063146785 0.21019106 0.08693579
0003b0 11 7a 07 b9 f6 ad 9b bd 85 3c c5 bd 1b 9e 89 3d
       -0.00012920077 -0.0760154 -0.09630684 0.06719609
0003c0 45 5e 3b bc 56 5a 04 3e 6e 2d c2 3b 1a dd 9b 3d
       -0.01143605 0.12925085 0.005925826 0.07610531
0003d0 79 6d 14 3d 9e 99 c7 3b 0c c9 9e 3d 73 34 af 3c
       0.036237214 0.0060913106 0.077531904 0.021387314
0003e0 4a 2f c1 bd 98 c1 ae bd ee 49 f5 3b 4d d6 7a bb
       -0.09432848 -0.08533019 0.0074856197 -0.0038274706
0003f0 81 64 1e 3d 7d 00 8c 3c d6 66 ea 3c 7f 4f 6f bd
       0.038670067 0.017090077 0.02861349 -0.058425423

model.8.weight f4 [1, 64, 4, 4]
000000 fc 7b c2 3b 8d 16 ac bc 89 f1 5a bc 35 92 ca 3c
       0.0059351902 -0.021006847 -0.0133632505 0.02472792
000010 3c aa 82 bc 60 93 0d bc 82 5d 54 bb 26 6e b7 bd
       -0.015950315 -0.008641094 -0.0032404368 -0.08956556
000020 a2 7c 28 bb b8 87 1e bc 15 5d 48 bc 46 84 8a bb
       -0.0025709053 -0.009675913 -0.012229224 -0.004227194
000030 32 55 1b bd 32 6c 1f bd df 0c a1 3c ce 33 ec bc
       -0.037923045 -0.038921542 0.019659458 -0.028833296
000040 15 71 82 3d d7 41 14 3d 12 96 89 3d 0a 3b 87 3d
       0.06369225 0.036195602 0.06718077 0.06603058
000050 d3 7b 69 bc 3e f9 e9 3c 43 1c f8 bd f3 c9 2e bd
       -0.014250713 0.02856123 -0.121147655 -0.042673063
000060 bc 37 0e 3d ea 9c 97 3b 25 b2 a8 3d c8 5c cd bc
       0.03472112 0.00462686 0.082371034 -0.025068656
000070 21 9f fb 3c 8c 7a d0 3c 64 e9 44 3d 63 92 48 bc
       0.030715527 0.02544906 0.04807414 -0.012241933
000080 ab c4 1a 3d 45 3b d8 bc d5 18 bb bd 62 a9 49 3d
       0.037785213 -0.02639545 -0.09135596 0.0492338
000090 e1 fa f4 bd bc 0c bf bd e5 c9 30 3e 67 38 04 3c
       -0.11961914 -0.09328601 0.17264517 0.008070088
0000a0 f0 6c 8a bc 03 ff 95 3d 94 c3 a4 3d 6f 98 bd 3a
       -0.016897649 0.0732403 0.08045116 0.0014464984
0000b0 aa 85 a8 bc 8f 30 cd bc 2f e7 f8 3c 5c df 63 ba
       -0.020571548 -0.025047569 0.030383674 -0.0008692646
0000c0 87 55 59 3c 90 e2 6c bc 31 48 2c bc 4a 4c e3 3b
       0.01326502 -0.014458314 -0.010515259 0.0069365846
0000d0 ea d5 06 bb 64 d6 8e bb 8a 77 3f 3b a8 36 48 bc
       -0.002057428 -0.0043590534 0.0029215538 -0.012220062
0000e0 f6 85 f4 bb 56 95 50 3c 6d b7 3c bb 19 9a f5 bb
       -0.0074622585 0.012730917 -0.0028795854 -0.0074951765
0000f0 23 c5 aa 3d 12 2f 45 3d cc 57 6e ba b4 3d 8c 3c
       0.08338382 0.048140593 -0.0009092062 0.017119266
000100 2b 7f 8d bc 79 45 e3 bc 1a 22 f5 3c da 74 8d 3d
       -0.017272552 -0.027743088 0.029923487 0.06907053
000110 a1 61 92 3c 72 e9 28 3c 92 ca ee ba 96 a1 79 3b
       0.017868819 0.010309564 -0.001821833 0.0038090697
000120 5b 8a b7 3c d1 c3 c3 bc 20 3e a3 bb 97 4e 43 bd
       0.02240484 -0.023897083 -0.004981771 -0.04768237
000130 2f 79 98 bc 8d 87 a8 bc 6d f6 4e bd 1c aa 7b bd
       -0.018612472 -0.020572448 -0.05052798 -0.061441526
000140 08 97 90 3c 19 3f 8a 3c 0c 1d 02 3d d4 8f 3f bd
       0.017650142 0.01687579 0.031765983 -0.046768025
000150 e9 fc d8 3a 7a fb 1a 3b 18 29 1d bc d0 e8 3a 3d
       0.0016554865 0.0023648427 -0.009592317 0.045632184
000160 0a a7 68 bd 59 30 64 3a a5 68 6f bb ff ca 13 bc
       -0.056799926 0.0008704714 -0.003653088 -0.009020566
000170 d9 84 42 bd 1b d3 6e bc 31 f9 a1 bc cc 89 b4 bc
       -0.047489975 -0.014576699 -0.019772144 -0.022038363
000180 5b 42 90 bc 72 28 dc bd 5e 2a ba 3d 54 a9 33 be
       -0.017609766 -0.10749902 0.09090112 -0.17545062
000190 f6 bc ab bc 4e b7 8b bd fb e1 8c bd d2 f5 24 bc
       -0.020964127 -0.06822072 -0.0687904 -0.010068374
0001a0 f6 3c d9 3b d9 ff d5 3b b4 6b 8c bb 11 ed 8b 3d
       0.0066295816 0.0065307436 -0.0042853 0.06832326
0001b0 ce 40 07 bd 6d 18 82 bc c2 fa d3 3c 75 84 11 bd
       -0.033020787 -0.015880788 0.025876407 -0.03552671
0001c0 8a 2c 23 3c a3 f7 07 bd f8 7d 59 3d 75 07 1b bd
       0.009959349 -0.03319515 0.05309865 -0.03784891
0001d0 6f 50 19 3d 8d 78 05 bc 1c 48 33 be 97 6d 80 3d
       0.037430223 -0.008146417 -0.17507976 0.062709026
0001e0 4e cc b1 bc ca 29 52 bd 24 61 a1 3d b0 a7 82 3c
       -0.021703865 -0.051309384 0.07879856 0.0159491
0001f0 47 d5 24 bc c3 44 e0 3c 12 a7 12 3d 18 f3 01 3d
       -0.010060615 0.027376538 0.035803862 0.031725973
000200 f7 14 06 bd 71 ce 9f bc ca 0b ed bc 24 d0 a2 3d
       -0.032734837 -0.019507619 -0.028936286 0.07949856
000210 13 6d 36 3b cb 63 e7 3b 54 db 3f 3b 9c c4 84 bd
       0.002783601 0.007061457 0.0029275017 -0.06482813
000220 92 34 c4 bb 6f c3 bb bc cc 5a 5f 3c b9 0c df 3c
       -0.005987712 -0.022920338 0.0136324875 0.027227746
000230 f8 f2 5a bd 15 76 96 bb ff 79 a1 bc e1 76 df bc
       -0.05345437 -0.004591713 -0.019711493 -0.027278366
000240 70 f6 85 bd 89 17 6e bd c9 c5 3d bd 8b dc 19 3e
       -0.06541145 -0.058127914 -0.0463312 0.15025537
000250 4d 33 00 3c 68 4d b9 bc f3 23 8c bb 10 98 44 bd
       0.007824731 -0.022619918 -0.0042767464 -0.04799658
000260 52 48 7f bd 67 cb 89 bc f8 aa c0 bc 65 dc 2f bd
       -0.06232483 -0.016820623 -0.023519024 -0.042934794
000270 9e f9 e5 bb 90 be 2c bc 9b c2 8b bb 24 e1 f9 bc
       -0.007018282 -0.0105434805 -0.004265142 -0.030502863
000280 24 3a a2 bd 1a dc 08 3d 7d fc 06 bc 04 c2 75 bd
       -0.07921246 0.03341303 -0.008238909 -0.05999948
000290 a5 b3 5a 3c 00 1e c5 bc e5 a6 09 bc 14 c1 8e bc
       0.013348495 -0.024062157 -0.008401607 -0.017426051
0002a0 27 a0 5c 3c 67 9f df 3b d4 ea 80 ba 08 2c 2b bd
       0.013465918 0.006824422 -0.0009835609 -0.04179004
0002b0 9f 4d 3e 3d ef e3 e3 3c 36 c4 09 bd 36 12 09 bd
       0.046460744 0.027818648 -0.033634387 -0.033464633
0002c0 d2 41 1f bd b1 e8 cd bd b4 2f d5 bc 53 0c 92 be
       -0.03888113 -0.10054148 -0.026023723 -0.28525028
0002d0 16 4b 4f bb 3f 95 98 3d d5 1b 2c bd 30 c7 4d 3e
       -0.0031630448 0.074503414 -0.04201873 0.20095515
0002e0 4f b3 a8 3d fe 75 8c 3c 22 5b 99 3c 14 35 61 3c
       0.082373254 0.017146107 0.018720213 0.013745565
0002f0 84 0d 4e bc 29 74 4b 3d 46 79 4b 3c 4b 09 33 3b
       -0.012576465 0.049671326 0.012419051 0.0027318771
000300 93 c4 1e bd 1e 50 1e 3e a0 ef 60 bc 9e cc c1 bd
       -0.038761687 0.1546025 -0.013729006 -0.09462856
000310 bb f9 dd bc 80 18 af 3b f8 48 ba 3c 90 44 0b 3b
       -0.02709662 0.005343497 0.022739872 0.0021250583
000320 6d 12 7d 3d 7d 91 fd 3b 7d 9d 44 bd 5a f6 c3 bd
       0.06178515 0.007738291 -0.048001755 -0.09568472
000330 c0 61 33 3d a7 db 2b 3d cb b2 81 3c 33 80 cd bc
       0.043794394 0.041957524 0.015832325 -0.025085544
000340 9c c2 28 bc 30 e0 05 3c 0f fc 86 3c 24 f8 bd 3a
       -0.010300305 0.008171126 0.016477613 0.0014493507
000350 dd 88 3f be 03 d6 8b be 27 4e 2e 3d 41 61 56 bc
       -0.18704553 -0.27311715 0.042555 -0.013084711
000360 82 53 a1 bc 4f d3 77 bd 19 85 5c be 69 9b dc 3c
       -0.01969314 -0.060504254 -0.21535148 0.026929574
000370 dd e2 0f bb 5c 96 39 3b c7 a5 92 bc c7 ed 26 3d
       -0.002195529 0.002831838 -0.017901314 0.040754106
000380 40 2e 08 3e 11 89 bc bb 64 36 09 3d 18 70 18 bd
       0.13298893 -0.0057536443 0.033499137 -0.037216276
000390 b6 ed 12 3c 47 eb 69 bb ed e1 1e bd 54 42 15 bc
       0.0089678075 -0.0035693215 -0.03878968 -0.009110052
0003a0 a7 7a c9 3b b2 eb 75 bb cf 0d 95 bd 46 b4 ad 3c
       0.0061486545 -0.0037524519 -0.072780244 0.021204125
0003b0 2d f6 04 bd 8b 7d 69 3b 37 5a 71 3c 9d dd 43 bd
       -0.032461334 0.0035627808 0.014730982 -0.04781877
0003c0 0d 6e 19 be 36 f0 d4 3d 22 9a df be bb a0 58 bc
       -0.14983387 0.10397379 -0.43672282 -0.013221915
0003d0 af 88 87 bd ed 72 6f 3d be bc 0c 3e e2 01 03 bd
       -0.06617867 0.05845921 0.13743874 -0.031984217
0003e0 4c c0 b4 3c 11 56 8a 3b af 72 02 3d ee d9 0e bd
       0.02206435 0.0042216857 0.031847652 -0.034875803
0003f0 53 da 0f 3d 26 f9 b8 3c ee 20 19 bd 74 ac 47 bd
       0.03512032 0.02257974 -0.03738492 -0.04874845
