model/rock/netD copy.pt (torch, 183655 bytes, 17 tensors)

main.0.weight f4 [8, 1, 4, 4]
000000 9e 60 e4 3c 8f ce 2c 3d c8 94 ab bd b8 32 50 bc
       0.027878102 0.042189177 -0.08377987 -0.012707405
000010 a6 cb cc 3b 8e 7a 00 be c9 94 14 bf 05 8b 12 3d
       0.0062498627 -0.12546751 -0.5803953 0.03577711
000020 e1 47 9a 3e 1d 6b 99 3e db 52 ad 3d 2f 87 42 3c
       0.30132964 0.29964533 0.08463069 0.011873051
000030 ac 07 4d 3a 81 32 bf 3d d0 45 9b bc d3 91 04 bd
       0.00078212726 0.09335805 -0.018954188 -0.03236563
000040 37 e1 4a 3e 2a 82 4a bf 24 17 9d 3e a4 a4 fb bc
       0.19812475 -0.79104865 0.30681717 -0.030718155
000050 5d 32 bd 3d 33 05 7a 3e 9f 51 1c be 81 a9 58 3e
       0.09238122 0.24416046 -0.15265511 0.2115841
000060 bd c4 35 be dd 25 ba 3d 53 8e 1c 3d 11 49 73 3c
       -0.17750831 0.09089253 0.03822167 0.014848963
000070 d3 89 7f bd 0c 3b 38 3d d3 aa 96 bc ef 67 2d 3c
       -0.0623873 0.044978186 -0.018392002 0.010583862
000080 83 bc 35 be ac 40 c9 3e 57 70 9b 3d 27 a7 4b 3e
       -0.17747693 0.39307153 0.075897865 0.19887982
000090 59 33 11 bf 64 aa 5f 3e c5 90 8b bd 45 82 99 bd
       -0.56718975 0.21842343 -0.06814722 -0.0749555
0000a0 b2 a0 5e be 7b b6 2f 3e cd ad 97 bd 90 a7 30 bd
       -0.21740988 0.17159455 -0.07406197 -0.04312855
0000b0 48 80 0e 3d 4e f4 16 3e a3 29 24 bd 05 05 69 3d
       0.034790307 0.14741632 -0.04007877 0.056889553
0000c0 e3 1c bb bd 03 97 b4 bd 2d c3 1e 3d 59 5c fa bb
       -0.09136369 -0.08817866 0.038760353 -0.007640403
0000d0 c1 9c 23 3e 23 e9 95 3e b5 85 1f 3e 52 17 af bd
       0.15977766 0.29279432 0.15578349 -0.0854937
0000e0 de fa 1e be a1 aa a3 3e c5 d3 88 3d 70 80 12 bf
       -0.15525386 0.31966117 0.06681017 -0.5722723
0000f0 b4 5f ff bd 4c d2 01 3e 06 d9 3e bc 80 e7 ae bc
       -0.12469426 0.12677878 -0.011648422 -0.021350622
000100 99 78 24 3e 93 e9 66 3e a1 ce 34 bc 8a d5 c6 3d
       0.1606163 0.22550039 -0.011035592 0.09708698
000110 3b 77 7f 3e 0e 7f 08 3d 49 1a 89 3c 19 85 c5 bb
       0.24947827 0.033324294 0.016736167 -0.0060278294
000120 7b 67 75 3e 90 5f 21 be a5 45 07 be b8 0c 2a bd
       0.23965256 -0.1575911 -0.13210161 -0.041516036
000130 a9 cd 00 3e 8b 41 0b bd 01 74 a7 bb 42 d8 2a bc
       0.12578453 -0.033998054 -0.0051102643 -0.010427536
000140 37 c2 8c 3c 1b 4b 00 be c0 93 8b bd 62 30 64 be
       0.017182453 -0.1252865 -0.068152905 -0.22284082
000150 36 36 be bd a1 80 d1 bd 3a 59 2f bd c7 e2 e8 be
       -0.09287684 -0.10229612 -0.042809702 -0.45485517
000160 ef 33 41 3d 1e e3 05 3d 1b 2b d2 bd 0f 1d 90 3d
       0.04716867 0.0326873 -0.10262128 0.070367925
000170 ec 0d 0d 3e 05 26 f6 3d 79 c5 da bd 0c 0c c9 3d
       0.13774842 0.120189704 -0.10682196 0.09816751
000180 05 73 b8 3b 2b cb 37 be a0 2b cc 3d ae 8f 83 3d
       0.005628946 -0.17948596 0.09969258 0.06423889
000190 9a e6 d8 3e 3f 22 4c bf 7f c9 ab 3e 6f 52 94 3c
       0.42363435 -0.79739755 0.33552167 0.018105714
0001a0 95 b5 6a 3e 07 6c 0e be 03 08 1f bd 02 e7 97 3d
       0.2292083 -0.13908397 -0.038826 0.07417108
0001b0 58 c0 63 bd 5a bc 4e 3d 4b de 13 bc cb 78 82 bc
       -0.055603355 0.050472595 -0.009025167 -0.01592674
0001c0 ea 8d 08 bd dc 57 fb 3e 83 f9 2e bf 24 07 df 3d
       -0.033338465 0.4909047 -0.68349475 0.10890034
0001d0 43 73 62 3d 1b a5 d6 3e 4b 8b 8a bd 4d 38 f3 bd
       0.055285703 0.4192284 -0.06764849 -0.11875973
0001e0 d1 4e ac bc 6e c0 4f 3d 8f 98 7c bd 47 7e f8 3c
       -0.021033676 0.050720625 -0.06166893 0.030333651
0001f0 24 ed 8e 3b 46 12 f7 bd da fd 0c 3a 43 89 22 bc
       0.0043617655 -0.12064032 0.0005378403 -0.009920421

main.2.weight f4 [16, 8, 4, 4]
000000 ec bb a5 be a6 3a 12 3e 5a 78 34 3e d0 b9 b5 be
       -0.32369936 0.14280185 0.17624035 -0.35493326
000010 0e ed fe 3e cb 3c f2 3c 94 db 9c bd 34 26 d1 3c
       0.49790233 0.029570004 -0.07659069 0.025530912
000020 82 8e d4 3d 72 7b 87 bd 40 d3 3a 3d bc 7b 58 be
       0.10378744 -0.06615342 0.04561162 -0.21140951
000030 37 1e 45 bc 54 58 88 3e 19 ed e2 3b eb 22 5a be
       -0.01203113 0.2662989 0.006925237 -0.21302383
000040 3b fe 62 3e 5c 25 07 3e 41 6a 8a be ce cc 9e bd
       0.22167294 0.13197845 -0.2703419 -0.07753907
000050 bb cb df 3e a9 c5 4b 3f 1d a0 10 3d e9 fa 8b be
       0.43710122 0.7959848 0.035308946 -0.27339867
000060 5f 37 af be fb cb 7f be a1 c8 68 3e 9a 71 e1 be
       -0.34221932 -0.24980156 0.22732784 -0.44031984
000070 9c 93 1a be fc 63 ed bd 47 67 1c 3e 0b af 15 3e
       -0.15095371 -0.11591336 0.15273772 0.14617555
000080 25 1d 7d 3e b8 d5 a9 3d 28 bb 12 be a6 2a 63 bc
       0.24718149 0.08292717 -0.14329207 -0.013865149
000090 95 7b a4 3e d7 f5 80 3e 20 65 47 3c c7 03 84 3e
       0.32125536 0.2518756 0.012170106 0.25784132
0000a0 34 5f 17 bf de 11 10 3c 6b 4f e0 bd 73 fc 5b be
       -0.59129643 0.008793322 -0.10952648 -0.2148302
0000b0 93 9f 97 be 64 83 00 3d 98 42 a9 3d 98 e9 bf bd
       -0.29613933 0.031375304 0.08264655 -0.09370726
0000c0 45 57 4d 3d 94 4d 27 3f c1 8b 9f bc 3e 30 88 3d
       0.050132055 0.6535275 -0.01947582 0.066498265
0000d0 2a 7b 3a be 99 c3 07 3e 70 9f b2 3d 2c 82 15 3c
       -0.18211046 0.13258208 0.087218165 0.009125274
0000e0 d6 ec 02 be 57 a7 28 3d 09 8b 99 be 46 8c b1 bd
       -0.12785658 0.041175213 -0.29988888 -0.08669333
0000f0 6a 95 cb bd c8 df 06 be 0c e8 09 3e 60 10 02 3e
       -0.09940608 -0.13171303 0.13467425 0.12701559
000100 4f 6d 46 be 8d 54 f2 bd 42 fe f5 bd 9d cc 22 3e
       -0.19377635 -0.11832533 -0.120113865 0.15898366
000110 75 11 a1 bd 89 6f bb bd 29 d0 43 3e df 35 07 3e
       -0.07864658 -0.09152133 0.19122376 0.13204144
000120 98 2b 65 3e 67 28 83 bd e7 d7 5d 3e e5 10 06 3e
       0.22379911 -0.064041905 0.21664391 0.13092382
000130 bd 6e b0 bd d6 46 9e 3c e4 6b 63 3e fd 9b 93 3d
       -0.08614872 0.019320887 0.22209126 0.07207487
000140 fe 83 22 3e 80 0b 41 3d 61 88 03 3e a0 d8 58 bc
       0.15870664 0.047130108 0.12844993 -0.013235241
000150 d6 34 43 3e d8 1d b4 3d 0f 7b ff 3d da ab 92 ba
       0.19063124 0.08794755 0.124746434 -0.0011190132
000160 18 08 7d bd 54 a7 72 3e 84 58 77 bc d6 4e 13 bd
       -0.061775297 0.23696643 -0.015096787 -0.035963856
000170 2d bd 47 be 83 ee 0a 3d 31 11 02 bd 49 76 7b 3d
       -0.19505759 0.03391887 -0.031754676 0.061392102
000180 d9 55 c9 3d d8 0e 66 3d 29 89 dd 3d 82 86 5c be
       0.09830827 0.0561665 0.10817177 -0.21535686
000190 a3 41 59 be e1 2d db 3e 4e c8 5f 3e 7e a1 15 3e
       -0.21216445 0.4280844 0.21853754 0.14612386
0001a0 e6 13 8d be bb 42 77 bd 2e 69 08 3f e6 0b 93 bd
       -0.27554244 -0.060366374 0.5328549 -0.07180004
0001b0 57 b3 68 be 82 13 83 be a5 c2 0e be d1 0b aa be
       -0.22724663 -0.2560082 -0.13941438 -0.3321214
0001c0 7b 30 69 be ff 1e 1e 3e a3 e6 34 3b f6 af 86 be
       -0.227724 0.15441512 0.002760329 -0.26306123
0001d0 47 c2 14 3e cb 7e 09 3e ee 5f 78 3e ef 11 01 bf
       0.14527236 0.13427274 0.24255344 -0.5041799
0001e0 fe a4 18 3e 16 05 db bd 45 9d 50 be 96 9d 9c bd
       0.1490669 -0.106943294 -0.20372494 -0.07647245
0001f0 1c 17 99 be 43 9f 12 3e 5c b5 50 3e cb 88 be be
       -0.29900444 0.14318566 0.20381683 -0.3721374
000200 4a 5d 85 be 9a 73 0e be 16 5e 3e 3c cb bd 15 3d
       -0.26047736 -0.13911286 0.0116191115 0.036557954
000210 5a 15 84 be a9 63 1a be 75 95 c6 3e 61 9b 49 3e
       -0.2579754 -0.1507708 0.38785902 0.19688179
000220 00 9b 01 bd e5 b7 8b be 35 83 62 3e ec 43 ff 3e
       -0.03164196 -0.27288738 0.22120364 0.49856508
000230 68 7a 28 bd d9 9d 27 bd 9d f8 03 be a2 0c 82 3d
       -0.04113236 -0.04092202 -0.12887807 0.06350066
000240 7b cf 7b bc 1a f8 ca bd 2e 8c da bd cd d0 4c 3c
       -0.015369291 -0.09910603 -0.106712684 0.012500954
000250 7f c1 de 3d d0 4b 4b 3d 20 3c be be 7e b5 32 3e
       0.1087675 0.049632847 -0.37155247 0.17452046
000260 46 19 31 be 1b 67 f2 3e a0 0d 72 3e 7c 31 6e 3d
       -0.17294797 0.47344288 0.2363801 0.05815266
000270 b0 56 90 be 1c 27 67 3e 9d 93 95 3d f7 ab 1f be
       -0.28191137 0.22573513 0.073035456 -0.15592943
000280 6b cd 78 3d 57 e3 70 bc d4 f3 75 be 45 5a c4 3d
       0.060742777 -0.01470264 -0.24018794 0.0958753
000290 9b 2a 1f 3e 35 3c 01 3e 1e 8a 92 be 92 41 80 bd
       0.15543596 0.12620623 -0.28621 -0.062625065
0002a0 04 9d 6b bd 2f 6c 0c be 0c c6 6a 3d 96 27 da 3d
       -0.05752279 -0.13713144 0.05731778 0.10652082
0002b0 bf 68 af bd b9 30 6a bd 83 f5 1a 3e 7e dc 14 be
       -0.085649006 -0.05717537 0.15132718 -0.14537236
0002c0 5e 66 05 be 9b 37 13 3b 4b 89 5d bd a1 f2 ca ba
       -0.13027331 0.0022463563 -0.05408601 -0.0015483686
0002d0 21 66 0c bd e3 09 37 3e 2d 80 08 b9 3d c3 0b 3d
       -0.034277085 0.17874865 -0.0001301772 0.03412174
0002e0 f6 f1 a5 3d a5 c2 87 be a5 c4 af 3e ee d9 39 3d
       0.08102791 -0.2651569 0.34329715 0.04537385
0002f0 5b 74 24 be 9e 0f ff bd c6 07 f3 bc 4c 6a 67 3e
       -0.16060011 -0.124541506 -0.029666793 0.22599143
000300 62 d7 e0 bd db 19 89 be 75 a3 d8 3d cb f3 37 3d
       -0.10978581 -0.2677754 0.10578052 0.044910233
000310 8c bf a0 bc fe 60 43 be 4d 7b 91 3e 44 ba 81 be
       -0.019622587 -0.19079968 0.28414384 -0.25337422
000320 bf 36 89 bd 11 81 a0 be c8 a8 8b 3e 4d 6f b0 be
       -0.06699895 -0.3134847 0.27277207 -0.34459916
000330 5b 68 07 bd c4 fb 36 be 0a 3e e5 3b ea 11 48 3c
       -0.033058506 -0.17869478 0.006995921 0.012211302
000340 b6 80 1f be a5 cf 50 be d4 c0 f7 3c 71 80 c9 3e
       -0.15576443 -0.2039171 0.030243315 0.39355806
000350 8e ae de bc 51 e7 17 bf 66 04 c9 3b 65 48 91 3e
       -0.027182844 -0.59337336 0.0061345575 0.28375545
000360 f2 fb 34 3e e2 62 f2 be 02 05 0c 3e 01 d3 00 3e
       0.17674235 -0.47341067 0.13673785 0.12580492
000370 03 f4 0b 3e cb 01 50 bd a9 22 ab 3d 95 40 96 3c
       0.13667302 -0.05078296 0.0835622 0.018341342
000380 73 39 c9 bd db e3 81 be ed fd 4d be 7a 34 95 3d
       -0.09825411 -0.25369152 -0.20116396 0.072854
000390 8a b3 d1 3e 3a 79 ed 3e 89 50 19 3e 27 5e f2 bd
       0.4095729 0.4638155 0.14972128 -0.118343644
0003a0 79 91 b0 bb 74 db 2d 3f b2 8e 6c 3e bb eb 71 be
       -0.0053884354 0.67912984 0.23101309 -0.2362508
0003b0 a0 e2 1c be 1d e4 eb 3d 19 b1 1c 3e 7b 83 2b 3d
       -0.15320826 0.115181185 0.15301932 0.041873436
0003c0 48 1a 70 3c 67 20 6f 3d d2 81 cd bd b5 dd 01 3e
       0.014654703 0.05838051 -0.10034527 0.12682231
0003d0 31 e6 a1 be 1d 2f e5 3d 10 a3 29 be 60 a1 ec bd
       -0.31620935 0.11190627 -0.1656611 -0.11554217
0003e0 6d ce 89 be b6 76 9a bd d1 84 18 3e cc af cb bd
       -0.26915303 -0.075421736 0.14894415 -0.0994564
0003f0 a0 7c 07 be 5e f6 f2 3d 76 1a 2e 3d 94 cc 2e 3e
       -0.13231134 0.11863397 0.042505704 0.17070228

main.3.weight f4 [16]
000000 7a 5c 6a 3f 23 c0 93 3f 55 80 43 3f 8e df 93 3f
       0.9154736 1.154301 0.76367694 1.1552598
000010 0f 44 7b 3f f8 cc 6f 3f 0d 82 81 3f 07 9f 96 3f
       0.98150724 0.9367213 1.0117813 1.1767281
000020 39 98 90 3f d4 94 76 3f 4b 12 64 3f ff 05 7c 3f
       1.1296455 0.96320844 0.8909041 0.9844665
000030 42 5b 80 3f 7c 8f 69 3f fb 25 81 3f 09 b6 83 3f
       1.002785 0.91234565 1.0089716 1.0289928

main.3.bias f4 [16]
000000 f4 b2 87 be 14 72 f3 be 7f fe 91 be ba 2c c0 be
       -0.26503718 -0.47547972 -0.28514478 -0.37534124
000010 71 dd fd bd 76 c3 7b be 1a e0 98 be e2 62 b6 be
       -0.12395752 -0.24586281 -0.29858476 -0.35622317
000020 cf 6d 69 be 6b 73 6c be 2c 9d 6f be e4 8f 1a bf
       -0.22795795 -0.23090903 -0.233998 -0.6037581
000030 ff 0f 44 be 6c 38 40 bd e1 1c 7f bf 25 a3 46 be
       -0.19146727 -0.046928808 -0.9965344 -0.19398172

main.3.running_mean f4 [16]
000000 41 0d 80 43 1b aa 7b c2 41 6f 9d c4 58 bb ee 43
       256.10355 -62.91612 -1259.4767 477.46362
000010 a0 10 8b 43 9d 9f c0 42 ce a7 7c 42 06 a0 26 43
       278.12988 96.311745 63.16387 166.62509
000020 e8 f4 f8 42 3a ab 84 c2 7a c1 0b c3 b3 3b 98 c4
       124.47833 -66.33443 -139.75577 -1217.8656
000030 3a 95 5c 44 27 de 68 c0 0c ed 32 44 2d 54 89 c0
       882.33167 -3.638559 715.70386 -4.2915254

main.3.running_var f4 [16]
000000 73 af 64 48 50 cf a0 48 95 27 7e 48 3d fa 09 49
       234173.8 329338.5 260254.33 565155.8
000010 10 fc 9b 48 18 05 b0 48 ce 3b bd 48 b0 c0 bc 48
       319456.5 360488.75 387550.44 386565.5
000020 7c 43 e1 48 58 43 b6 48 d8 50 c0 48 36 8e c9 48
       461339.88 373274.75 393862.75 412785.7
000030 90 7f 24 49 2b 06 b1 48 a8 9b fa 48 58 90 ba 48
       673785.0 362545.34 513245.25 382082.75

main.5.weight f4 [32, 16, 4, 4]
000000 61 29 f4 bd af 6e a8 be b5 04 7c 3e 51 94 68 be
       -0.11921955 -0.32896945 0.2461117 -0.22712828
000010 81 ad df 3e de 08 13 3e 78 fc 0a be b2 8c 2e 3e
       0.4368706 0.14358851 -0.13572872 0.17045859
000020 78 57 e2 3d be 43 1f be 86 45 ed bd fa 56 86 be
       0.110518396 -0.15553185 -0.11585526 -0.26238233
000030 f6 93 76 3d 32 bc 07 3e 04 be 46 3e 3b 2e 02 be
       0.0601997 0.13255385 0.19408423 -0.12712948
000040 e5 e7 9e 3e c7 c3 eb 3e 8c 36 66 bd dc 67 f4 bd
       0.31036296 0.46047804 -0.056204364 -0.11933872
000050 06 09 b0 3e de e1 bc 3d 5c e1 38 3d 9b 11 1a 3e
       0.34381884 0.09222768 0.045136794 0.15045778
000060 22 b8 46 bd 6d 8a 90 3c 92 f4 1f 3e 57 9f ed bc
       -0.048515446 0.017644132 0.1562064 -0.029006643
000070 d9 dc 7d be 50 be 50 be 82 79 dc 3c a3 4e b6 bd
       -0.24791278 -0.20385098 0.026913408 -0.089017175
000080 c6 8b 89 bc ea 83 41 be 69 d0 7e 3d 8e 4e 18 be
       -0.016790282 -0.18897977 0.062210474 -0.14873716
000090 cd 3a 64 3e 7f 7e 57 3e cf 85 99 3e 2e 8f 71 be
       0.22288056 0.21044348 0.299849 -0.23589775
0000a0 ea ea 4f be c8 af 25 be 19 7a e2 bd 7b b5 ed bc
       -0.20304456 -0.16180336 -0.110584445 -0.0290172
0000b0 ad 83 29 be 64 51 4b 3e cc e3 84 bc 51 26 b1 3d
       -0.16554137 0.19855267 -0.016221903 0.086498864
0000c0 1d 25 b9 be c9 ae 82 be 37 f4 1d 3d 9f 32 9a bd
       -0.36161128 -0.25523975 0.03856298 -0.075291865
0000d0 b0 d8 80 bc 2e 61 a6 be b9 f4 93 3d 79 55 92 be
       -0.015728325 -0.32496017 0.072244115 -0.28580835
0000e0 3f 6f c6 3c 4d 85 3b be 25 0c 7d 3d 66 8b 20 be
       0.024222968 -0.18312569 0.06177916 -0.15678176
0000f0 14 b4 4e be 0d ea b0 be 51 c2 28 be de 6e 93 bd
       -0.20185882 -0.34553567 -0.16480376 -0.071988806
000100 f3 d5 8c be 0d cf 61 be 66 68 9b bd 36 11 e9 be
       -0.2750698 -0.2205164 -0.07588272 -0.45520943
000110 7e bf a3 3e 55 a1 40 bd 3f 56 42 bd 22 bb d1 bd
       0.31982034 -0.04702886 -0.047445532 -0.10240771
000120 0a 88 40 bd 75 26 8d 3e ad 77 e0 bd f1 50 b7 3d
       -0.047004737 0.27568403 -0.10960326 0.08950985
000130 50 f7 1b 3e e6 b4 ea bb ab 79 10 bc a0 51 75 be
       0.15231061 -0.007162678 -0.00881807 -0.23956919
000140 15 05 09 bf 11 08 fe bd 95 f2 49 bd c7 0d eb bd
       -0.5352338 -0.12403882 -0.04930361 -0.11477237
000150 35 79 7a be c9 6f ff 3d c3 17 b9 3e 5b cc 32 bd
       -0.244603 0.12472493 0.3615094 -0.04365192
000160 3c 17 53 bd 73 4e 80 3e dd d6 53 be 16 c5 fb be
       -0.05153583 0.25059852 -0.20687433 -0.49173802
000170 51 fc b1 3e 9b ad 66 bd ac 9f e6 bb 93 18 f9 3c
       0.34762815 -0.056317907 -0.0070380773 0.030407226
000180 18 24 9e 3c 65 6c 72 3e 33 8d ac 3d 37 ad 8d 3c
       0.01930432 0.23674162 0.08425369 0.01729451
000190 45 8b 98 3e cc 17 44 3e 19 b9 60 be b2 ef 95 be
       0.29793754 0.19149703 -0.21945609 -0.29284436
0001a0 b7 47 9b bd 6f 51 52 be 6b 2b f4 3b f9 05 ed bd
       -0.07582038 -0.20538877 0.007451465 -0.11573405
0001b0 f7 5a f3 bd f6 6d 0d 3e 4f f9 bc be e8 ce 89 be
       -0.118825845 0.13811478 -0.36908957 -0.2691567
0001c0 44 e7 99 be 3f dd 32 3d 2d b4 9c bc b7 67 f6 bd
       -0.30059254 0.043668028 -0.019128883 -0.12031501
0001d0 f8 ef f5 be b0 38 df be 9b 93 d7 3d 5a b4 00 bf
       -0.48034644 -0.43597937 0.105262004 -0.50275195
0001e0 6f d8 70 3e 1d 09 6e bb 6a ed 80 3e d7 ba 00 bf
       0.23520063 -0.003632135 0.25181133 -0.50285095
0001f0 4f 40 4f be 36 70 0c be ae 15 89 bd a5 bf 70 be
       -0.20239376 -0.1371468 -0.06693588 -0.23510607
000200 95 c9 8a be df 87 d2 bd 24 e4 14 3d de 14 2b 3e
       -0.2710692 -0.102798216 0.036350384 0.16707179
000210 f8 3e f0 3d 71 5b bd bd ba 77 cd be 46 b6 69 bd
       0.1173076 -0.09245957 -0.40130407 -0.057058595
000220 9b a4 82 3d 6c e7 d6 3d 97 af 65 3e 0c 76 00 bf
       0.06379052 0.10493359 0.22430263 -0.50180125
000230 90 ed 57 3e 59 cc 8b bd b7 6f d9 be ab ec 99 bc
       0.21086717 -0.068260856 -0.42468044 -0.01878961
000240 48 f5 da 3e c1 cb c3 3e aa eb ea bd 9f 69 d7 be
       0.4276526 0.3824139 -0.114707306 -0.4207277
000250 8b 03 1f 3c 59 2a 35 be ff 7f 0b be 64 19 85 3c
       0.009705435 -0.17691936 -0.13623045 0.016247459
000260 0d 6d 22 be 64 44 50 3e 39 60 90 3e cc 09 04 bf
       -0.15861912 0.20338589 0.28198412 -0.5157745
000270 b4 27 70 be 91 81 28 be 56 70 16 3e c2 5c 42 3e
       -0.23452646 -0.16455676 0.1469129 0.18980697
000280 08 3f 3e 3e b3 c5 9f 3c 66 df 29 be e0 28 48 3d
       0.18578732 0.01950345 -0.16589126 0.048867106
000290 68 ee 8e be 2c 53 38 3e e4 cd 6c bd 73 d9 0e 3e
       -0.27916265 0.18000478 -0.05781354 0.13950138
0002a0 98 60 b6 bd f0 e7 a4 be fd a6 12 bc c8 2f b8 3c
       -0.089051425 -0.32208204 -0.008950946 0.022483721
0002b0 71 5b 24 be b4 ac 9a 3d ae 20 58 3d d1 fe a7 be
       -0.16050507 0.07552472 0.05276554 -0.32811597
0002c0 8e 56 3e bd b1 96 6f 3d de f0 67 3e 7e d1 6d be
       -0.046469264 0.05849332 0.22650477 -0.23224446
0002d0 5e 73 94 3e 6e 86 2a bd f9 74 9a 3d 88 3c eb 3d
       0.28994268 -0.04163211 0.07541842 0.11486155
0002e0 8d 95 c9 bd e6 85 5e 3e eb ed 8d 3d ab 4f 67 3e
       -0.09842978 0.21730766 0.06930145 0.22588985
0002f0 a6 7b a4 be 5a 89 79 be 6b 8e ee 3d 3d 79 ad 3d
       -0.32125586 -0.24368802 0.11648258 0.0847039
000300 c6 be 42 be 39 a4 e3 bd 4c 85 d1 bd 8e 8b 7f 3e
       -0.19018087 -0.11115307 -0.102305025 0.2495558
000310 58 c0 b3 be f9 2f 65 3e cb 96 89 3d 72 43 5c 3e
       -0.35107684 0.22381581 0.067182146 0.21510103
000320 15 b5 34 bd 3e 06 41 3e 5a 26 27 be a6 d6 82 bd
       -0.044118006 0.18850037 -0.16323224 -0.06388597
000330 56 ae 05 3b 4a 7f be bd 07 53 a2 be c5 b5 97 bd
       0.0020398102 -0.09301622 -0.3170397 -0.07407717
000340 69 e9 a1 bd 57 20 7e bb 35 d8 d6 bc 0e 86 25 be
       -0.079058476 -0.00387766 -0.026226142 -0.16164419
000350 c4 a4 46 3e 7e d5 a3 bd 5a 89 f4 3d ad 34 a4 be
       0.1939879 -0.07999705 0.1194026 -0.32071438
000360 f4 c0 01 3f a9 81 30 3d dc d4 64 be 61 49 82 be
       0.5068505 0.043092404 -0.22346824 -0.2544661
000370 0e 1b 20 3d 4f 43 07 3d 68 08 00 3e 34 09 64 3d
       0.0390883 0.033023175 0.12503207 0.05567284
000380 43 f9 aa bd c2 88 b1 bd ea 53 e8 bd 7c aa 71 3e
       -0.08348324 -0.086686626 -0.1134413 0.23600191
000390 75 3c 5c 3d cc d8 2e be f5 2c 15 3e 60 ec 28 3e
       0.053768594 -0.17074889 0.14567931 0.1649642
0003a0 01 d6 01 be 07 05 d3 bd 91 1b 21 3e 85 91 d0 3e
       -0.12679292 -0.10303693 0.15733172 0.40736023
0003b0 55 6b 80 bc ec 87 df bd 55 cc 1d 3e 4d 3e 5d 3d
       -0.01567618 -0.10914597 0.15409978 0.054014493
0003c0 2e 0e fd 3b 01 a7 4e be a6 da 47 be 0e 48 c2 3d
       0.0077226376 -0.20180894 -0.19517002 0.094863996
0003d0 36 33 cd 3d a6 ac 13 3e bf a6 9d 3e 9b 3d 05 3e
       0.10019533 0.14421329 0.3079128 0.13011782
0003e0 55 78 df 3d a2 e9 48 be 29 0a dd bd 72 68 3e bd
       0.109116234 -0.19620374 -0.107929535 -0.046486326
0003f0 26 e3 cc 3d ec 5b d7 3d 6f be 8d be 84 bd a5 be
       0.100042626 0.105155796 -0.27684352 -0.3237115

main.6.weight f4 [32]
000000 c3 54 61 3f 5c 85 65 3f f4 3f 50 3f 6d 5c 61 3f
       0.8801996 0.89656615 0.81347585 0.88031656
000010 7f 59 73 3f c6 86 95 3f e6 c9 6d 3f 8e 2b 4e 3f
       0.95058435 1.1681755 0.928862 0.8053521
000020 97 19 82 3f 1b dd 55 3f aa 4f 8f 3f 56 e8 62 3f
       1.0164059 0.83540505 1.1196187 0.88635767
000030 58 95 92 3f c3 92 63 3f ca b8 64 3f 3c d1 83 3f
       1.1451826 0.88895816 0.89344466 1.0298228
000040 bb bc 7a 3f 14 be 53 3f 31 32 7b 3f c6 1d a2 3f
       0.9794423 0.8271191 0.9812346 1.2665336
000050 cf 99 73 3f 96 e1 63 3f a4 10 50 3f 39 49 64 3f
       0.9515657 0.8901609 0.8127539 0.8917423
000060 1d 4b 68 3f 5b 62 a2 3f 15 48 7b 3f 1a 3d 45 3f
       0.90739614 1.2686266 0.98156863 0.7704636
000070 03 60 57 3f 7a 50 54 3f 54 f5 74 3f bb 03 67 3f
       0.8413088 0.829353 0.9568684 0.9024007

main.6.bias f4 [32]
000000 72 5c ce be 21 06 99 be 6c c2 c3 be 36 1f 2d bf
       -0.40304905 -0.29887488 -0.3823427 -0.6762575
000010 21 82 00 bf e0 c0 8e be 5c e3 bd be c6 13 e5 be
       -0.5019856 -0.27881527 -0.37087524 -0.44741648
000020 28 17 de be 12 02 2f bf 23 c2 3d be 99 37 cf be
       -0.43377042 -0.68362534 -0.18531089 -0.40472105
000030 7e 4f 86 be 48 a9 3a be ac 12 f3 be 7f fc d0 be
       -0.26232523 -0.18228638 -0.47475183 -0.4081764
000040 97 6b ee be c6 85 a3 be bc 5f f7 be f9 f1 1d be
       -0.4656646 -0.31938 -0.48315227 -0.15424336
000050 7a ee a8 be 05 d1 cf be 96 96 92 be c7 c7 e2 be
       -0.32994443 -0.40589157 -0.28630513 -0.44293043
000060 a4 49 28 be 47 e2 6f be 41 46 97 be f3 06 f7 be
       -0.16434342 -0.23426162 -0.29545787 -0.4824749
000070 50 37 01 bf 5b 71 d3 be 4f 98 b2 be 3f 8f b3 be
       -0.50475025 -0.4129742 -0.34881827 -0.35070226

main.6.running_mean f4 [32]
000000 37 39 09 bf cc d0 03 bd e8 7a e5 3e 71 5a 92 3f
       -0.5360293 -0.032181546 0.44820333 1.143385
000010 ab 7a 16 be 5f 23 d5 bf 01 37 dd 3e 0e 78 75 3e
       -0.14695232 -1.6651419 0.43206027 0.23971578
000020 0c e8 79 3d 8b 7b 22 3f c5 e4 b7 bf 19 03 95 be
       0.061012313 0.6346976 -1.436669 -0.29103926
000030 8d 5a 95 bf 78 f9 8f bf e7 5b 66 3f 8a f5 37 be
       -1.1668259 -1.1248007 0.8998398 -0.1796476
000040 6e cb 15 3f 62 6e 20 bf 49 ff f1 be 64 60 79 bf
       0.58513534 -0.6266843 -0.4726508 -0.97412705
000050 24 5f 27 be 97 f9 83 bd fb 67 11 be a5 14 0d 3f
       -0.16344887 -0.0644409 -0.14199822 0.55109626
000060 53 ff 74 3e f3 10 37 bf e8 c1 c3 be b8 a6 d4 3d
       0.23925523 -0.7151024 -0.38233876 0.103833616
000070 0d ca 74 3e 0a 80 07 3d 42 c1 36 3c c2 9d 43 bd
       0.23905201 0.033081092 0.011154475 -0.04775787

main.6.running_var f4 [32]
000000 df 6f 4d 40 d6 6a 61 40 f3 8f 42 40 83 39 c3 40
       3.209953 3.5221457 3.040036 6.1007705
000010 a0 8e 62 40 57 c9 14 41 31 6b 54 40 b4 52 38 40
       3.5399551 9.299155 3.3190424 2.8800478
000020 78 02 79 40 82 4f 89 40 67 fe 31 41 8b 5c 6f 40
       3.8907757 4.2909555 11.12461 3.7400234
000030 e0 f6 c6 40 6b b4 be 40 b5 17 7a 40 02 ff 67 40
       6.217636 5.9595237 3.907697 3.6249394
000040 58 05 6b 40 c0 b6 66 40 7e fc 81 40 9f f2 3b 41
       3.6722012 3.6049042 4.062072 11.746734
000050 d1 95 43 40 51 81 91 40 73 55 50 40 44 48 51 40
       3.056019 4.5470357 3.2552154 3.2700357
000060 8d c7 47 40 9e 85 03 41 cd 77 b6 40 5f fb 51 40
       3.1215546 8.220121 5.702124 3.2809675
000070 09 6f 26 40 6c ee 35 40 a8 0d 71 40 5f d7 59 40
       2.600527 2.842677 3.7664585 3.4037702

main.8.weight f4 [64, 32, 4, 4]
000000 dd a8 9f be 2a fe a3 be 2f 78 cb 3d 6c 46 3c be
       -0.3118352 -0.3202985 0.099350326 -0.18386239
000010 6b 02 08 3e ec 83 05 be 4a 5c 4e 3e 86 a8 63 be
       0.13282172 -0.13038605 0.20152393 -0.22232255
000020 25 19 dd bd ee 6f 96 3b dc c6 11 3d 6f c7 5c be
       -0.107958116 0.00459098 0.035590038 -0.21560453
000030 60 95 58 bd 72 b9 40 3e ef ee 29 3c f4 e4 7d be
       -0.05287683 0.18820742 0.010371908 -0.2479437
000040 ac 66 38 be c8 36 38 bd 0c fd d2 3d 13 0c 2e 3e
       -0.18007916 -0.04497412 0.10302171 0.16996793
000050 54 f3 b3 be cb 05 94 be a8 96 b0 3c c9 b8 78 3e
       -0.35146582 -0.2891067 0.021556213 0.2428924
000060 d4 4a 52 3e 71 9c 12 3d a2 e7 ce 3e 9d 0c c2 3e
       0.20536357 0.035793725 0.40411097 0.37900248
000070 9a ff 43 3e 96 cc 72 be 17 05 b5 3d f5 0c dc bb
       0.19140473 -0.23710856 0.088388614 -0.006715412
000080 96 f5 90 3e a9 54 0e be 13 20 81 be 83 78 31 be
       0.28312367 -0.13899483 -0.25219783 -0.17331128
000090 06 fe e6 3b 2e ee 98 3d 99 0f 44 be d4 ed bd 3d
       0.007049325 0.07467304 -0.19146575 0.09273878
0000a0 b9 f7 13 3d 75 01 3a be 86 0a 1c be 02 18 1d 3d
       0.03612492 -0.18164618 -0.1523839 0.038352974
0000b0 d0 9f 85 3e 64 a3 18 3e 32 00 33 bc f0 f1 8c be
       0.2609849 0.14906079 -0.01092534 -0.27528334
0000c0 e1 17 dc be 5b 58 f5 bd 1a f2 f9 bd b0 df 53 bd
       -0.42986968 -0.11979743 -0.1220438 -0.051726997
0000d0 a7 b2 d0 3e 8d f5 0a be cd 87 1a 3e be 89 00 bf
       0.407613 -0.13570233 0.15090866 -0.5021018
0000e0 d0 fc 0e 3f 05 da 9e bd b3 70 01 3e f6 ce 3f be
       0.5585451 -0.07756428 0.12640648 -0.18731293
0000f0 dd 8f 0f bd fc fc 1a 3c cd e7 3c bc a4 84 40 3e
       -0.035049308 0.00945973 -0.011529875 0.18800598
000100 dd 9b 8e bd a3 13 76 be 27 4c 20 3d 12 cf 10 be
       -0.06963322 -0.24030928 0.039135125 -0.14141491
000110 2d f6 ed 3d 22 c9 90 3c 32 fc cb 3d 64 78 b0 be
       0.1161922 0.017674033 0.09960212 -0.3446685
000120 06 dd 20 3d 84 19 50 bd 3d aa c4 3e 12 ea 89 be
       0.039273284 -0.050805584 0.38411132 -0.26936394
000130 e8 57 cc bb b9 b5 fd 3d 2e 90 4b be e1 84 f1 3d
       -0.006236065 0.123881765 -0.19879219 0.11792923
000140 55 e5 1e 3e fc 11 38 3e 47 c5 d2 3d 1f de 5d be
       0.1551717 0.1797561 0.10291534 -0.21666764
000150 da 4a 5d be c6 42 0e be e6 c6 38 bd c9 09 a4 3c
       -0.21610585 -0.1389266 -0.04511156 0.020024197
000160 7b 81 b2 be b9 0d 0c bf 1c fc af bd 52 93 d5 bd
       -0.3486441 -0.5470844 -0.08593008 -0.1042849
000170 94 39 a2 bd f5 ac a3 3d af 51 05 be d2 7b e2 be
       -0.079211384 0.07991973 -0.13019441 -0.44235092
000180 22 13 29 be 4c 1d 95 be 21 5c 86 3e 80 54 95 be
       -0.16511205 -0.29123914 0.26242164 -0.2916603
000190 f5 64 76 3d 1a f9 8c bd 51 17 cc bc 3c 3c 21 be
       0.060154874 -0.0688345 -0.024913462 -0.15745634
0001a0 9e 4f 9e 3e 30 5b e2 bc 71 61 99 bd ff 11 41 be
       0.30920118 -0.027631372 -0.074892886 -0.18854521
0001b0 1c f6 f7 3e cf 7e d8 be 87 2c 29 3e ca 85 d1 3d
       0.48429954 -0.42284247 0.16520892 0.10230596
0001c0 70 08 d5 be 4e cd 5b be 92 56 50 be 30 cd 87 be
       -0.41608 -0.21465036 -0.20345524 -0.26523733
0001d0 26 ed cc 3d 1f 39 97 be ad e0 c6 ba dc 44 23 3e
       0.1000617 -0.29535767 -0.001517316 0.15944237
0001e0 27 61 35 3d 87 eb 7c 3b f6 43 3b be d4 61 9e be
       0.044282105 0.0038592534 -0.18287644 -0.30934012
0001f0 fb 9e 4b 3c d1 ce 21 3c 9e d8 0d be b7 a0 3c 3d
       0.012428041 0.009875969 -0.13852164 0.046051707
000200 6d ee 6b be 26 88 1f be 36 dd 37 bb 15 cf d7 bd
       -0.23040171 -0.1557928 -0.0028055436 -0.10537545
000210 12 05 89 be 7e dd 46 be ee 12 8a 3e 73 fc 89 3e
       -0.2676168 -0.1942043 0.26967567 0.26950416
000220 5e 1e 46 3e bb 51 88 bd ac 5d c1 bd 4d e8 79 be
       0.19347522 -0.06656214 -0.094416946 -0.24405022
000230 d1 2f b7 be da 70 57 3e b6 dc b0 3d 86 ba cb be
       -0.3577867 0.21039143 0.08635847 -0.39790744
000240 b1 19 16 be a0 00 68 be bb b9 2f be 15 44 86 be
       -0.14658238 -0.22656488 -0.17160694 -0.26223817
000250 a2 35 44 be 38 f3 39 bd b2 a4 98 be 31 23 c7 be
       -0.19161084 -0.045397967 -0.29813153 -0.38894036
000260 ae dd ef 3e c5 0b a6 3c cf cc d8 bd e2 ae c7 be
       0.46848816 0.020269284 -0.10585939 -0.39000612
000270 ad a9 e4 be fe e5 10 be 86 ce c7 bc 13 de 3d 3d
       -0.44660702 -0.14150235 -0.02439047 0.046354365
000280 33 20 5f bd a2 73 60 be db 2c a1 3e ea 7d 9e bb
       -0.054474067 -0.2191911 0.31479535 -0.0048367875
000290 08 a2 5e be 9b 29 9d 3e ea 5b 36 be 2d a7 1f 3e
       -0.21741498 0.30695805 -0.178085 0.15591116
0002a0 4a 18 2c 3e 05 f5 4f 3d 9c ee 0e be 31 9e 85 3e
       0.1680614 0.05077078 -0.1395821 0.26097253
0002b0 8c 8d 6b 3d b2 4e 86 3e 97 2d 9a bd 9f a5 84 3d
       0.057508036 0.26231915 -0.07528227 0.06476902
0002c0 c4 be 1e bd e0 06 8d be 31 09 d0 3d ec ca f3 be
       -0.038756147 -0.27544308 0.10158003 -0.47615755
0002d0 08 c4 d6 3e 6c 2f b9 be 62 99 c9 3d 39 97 58 3e
       0.41946435 -0.36168993 0.098437086 0.21151437
0002e0 a5 03 a6 3c b8 5f 92 3d b6 4e 8f be 66 62 8e be
       0.02026541 0.07147163 -0.2798974 -0.27809447
0002f0 db 5f 68 be 73 06 83 be ae b0 1f bd 8d 42 74 bd
       -0.22692816 -0.25590858 -0.038986854 -0.05963378
000300 8d 2c 5a 3d 22 78 8d be 97 bc e4 3a 68 26 e3 3d
       0.053265143 -0.27630717 0.0017451224 0.1109131
000310 42 05 30 be 07 bd ab be e2 25 8a 3d 67 38 33 3e
       -0.17189506 -0.33542654 0.06745507 0.17501985
000320 22 2d f3 be 30 39 66 be 68 61 2c be 3a de 78 bd
       -0.4749537 -0.22482753 -0.16834033 -0.060758807
000330 d3 71 9a bd db ff 76 3e bc 25 26 be 67 0b 76 be
       -0.075412415 0.24121039 -0.16225332 -0.24027787
000340 6e bc 13 3e 32 56 22 3d d0 4b 8d 3e e7 f9 1f 3e
       0.14427349 0.039632984 0.27596903 0.15622674
000350 1a 77 67 be 45 37 94 3e c2 6c 40 bd a9 44 ba 3e
       -0.22604027 0.28948417 -0.04697872 0.3638051
000360 ee 7a 1d bd da de 0b 3d 74 b4 f3 bc ae 61 e3 3c
       -0.038447313 0.034148075 -0.029749133 0.027756538
000370 34 f6 5c be d6 51 8a be 06 5a ff ba 2c 56 98 be
       -0.21578294 -0.2701556 -0.0019481785 -0.29753244
000380 d3 22 b7 bd 53 b6 0c 3e f7 90 cc be e6 21 2c 3e
       -0.08942189 0.13741426 -0.3995435 0.16809806
000390 62 3c fd 3c ed d9 67 3b 88 0c e5 be b4 08 e6 be
       0.030912582 0.0035377697 -0.44736123 -0.44928515
0003a0 43 ac f8 bd 2f 68 27 bd ae fb 06 be d1 ed 3d be
       -0.12142231 -0.04087084 -0.13181946 -0.18547751
0003b0 99 a6 38 3e 62 91 f2 bd 18 ac f0 bd f5 6d ea be
       0.18032302 -0.11844136 -0.11751574 -0.45787016
0003c0 a2 9e 74 bd 8d 17 2a 3e 71 eb 18 3d 4e 33 23 bd
       -0.059721597 0.16610546 0.03733391 -0.03984385
0003d0 1a e8 a0 3d 90 ef d0 bd 03 78 84 3e 86 b7 03 3e
       0.0785677 -0.10201943 0.25872812 0.12862977
0003e0 95 49 93 3d cd 59 56 be 22 37 4f 3e 3f 4a 53 be
       0.07191769 -0.20932694 0.20235875 -0.20633791
0003f0 68 23 ba 3e 47 f5 d7 3d fe 87 d6 3d 82 6f aa be
       0.36355138 0.1054483 0.10475157 -0.332882

main.9.weight f4 [64]
000000 b3 60 6e 3f 2d e3 3d 3f fc f4 6f 3f 2c d9 80 3f
       0.931163 0.7417477 0.9373319 1.0066276
000010 66 0f 83 3f 50 8e 50 3f 58 a7 4f 3f 97 4f 76 3f
       1.0239074 0.8146715 0.8111472 0.96215194
000020 d7 9c 6c 3f 62 ac 48 3f 76 ec 51 3f de a8 5d 3f
       0.9242682 0.78388035 0.82001436 0.86585796
000030 67 91 8d 3f e9 bb 5d 3f 51 9b 49 3f b2 61 58 3f
       1.1059998 0.86614853 0.7875262 0.8452407
000040 e8 de 51 3f 49 0f 91 3f a8 cd 84 3f 32 a3 65 3f
       0.8198075 1.133279 1.0375261 0.8970214
000050 de ea 84 3f f7 ed 8b 3f 6f 96 6b 3f 64 b8 41 3f
       1.0384176 1.0931996 0.9202642 0.7567198
000060 7a 65 40 3f 02 c2 1e 3f 98 6c 6b 3f ff 9d 74 3f
       0.7515484 0.6201478 0.91962576 0.9555358
000070 83 1f 72 3f c7 8e 42 3f d2 91 41 3f 0f ff 7f 3f
       0.94579333 0.7599911 0.7561313 0.99998564
000080 66 12 62 3f 3a fb 3d 3f b5 9b 91 3f da d7 8e 3f
       0.88309324 0.74211466 1.1375643 1.1159623
000090 04 f2 5c 3f 29 7d 18 3f b8 a3 81 3f c9 5c 86 3f
       0.86306787 0.5956598 1.0128088 1.0497066
0000a0 2e 53 5c 3f 46 e9 86 3f 58 35 9e 3f f0 b3 8e 3f
       0.8606442 1.0539939 1.2360029 1.1148663
0000b0 bf 24 27 3f 32 87 8e 3f e4 83 8d 3f 00 cc 7e 3f
       0.65290445 1.1135008 1.1055875 0.9953003
0000c0 b6 2a 57 3f 57 47 67 3f 15 a6 82 3f 18 90 86 3f
       0.84049547 0.9034323 1.0206934 1.0512724
0000d0 59 69 6b 3f de ba 89 3f 5e f6 7e 3f 73 91 39 3f
       0.9195762 1.0760152 0.99594676 0.7248756
0000e0 88 c1 93 3f 74 b2 2d 3f cd 64 6c 3f 7a 74 a1 3f
       1.1543436 0.6785042 0.9234131 1.2613671
0000f0 b8 9a 72 3f bf fe 6f 3f cc ea 4e 3f 16 bf 97 3f
       0.9476733 0.93748087 0.8082702 1.185519

main.9.bias f4 [64]
000000 ff 44 e4 be 6a c3 a7 be f4 83 99 be d7 a6 a6 be
       -0.4458389 -0.32766277 -0.29983485 -0.32549164
000010 eb 6a 30 be 38 97 c1 be 96 9f 1d be 24 e7 69 be
       -0.17228286 -0.37810683 -0.15392908 -0.2284208
000020 f2 ee b9 be 8e ed 79 be d0 f6 d0 be b7 7a 75 be
       -0.36315113 -0.24407026 -0.40813303 -0.23972593
000030 b8 de 68 be 58 f2 84 be b5 d0 64 be 44 d1 15 be
       -0.2274121 -0.25966144 -0.2234524 -0.1463061
000040 52 a1 11 be 04 0e 93 be b4 be 6f be fe c3 cb be
       -0.14221695 -0.2872163 -0.23412591 -0.39797968
000050 fe af a7 be 34 d7 6e be 9f 10 70 be 3a 93 a7 be
       -0.3275146 -0.23324281 -0.2344384 -0.32729512
000060 ac 1a cd be fb 0c 7f be d3 f2 ba be ba 62 23 be
       -0.40059412 -0.24907295 -0.36513385 -0.1595563
000070 c2 d1 60 be 5b dc 76 be 5f fe 9b be 51 88 51 be
       -0.21955016 -0.24107496 -0.30467507 -0.20462157
000080 be 10 e0 be 7f b1 47 be 8c 16 82 be 95 86 58 be
       -0.43762773 -0.19501303 -0.25407827 -0.21145089
000090 eb b4 39 be e1 6b 64 be e2 18 71 be b5 09 99 be
       -0.18135421 -0.22306778 -0.23544648 -0.29890218
0000a0 32 c9 e4 be 23 ee 07 be e5 63 a8 bd a0 7b 80 be
       -0.4468475 -0.13274436 -0.08222178 -0.25094318
0000b0 75 65 0c be 83 7e 89 be 40 54 ed be c5 f4 21 be
       -0.13710578 -0.26854333 -0.4635334 -0.15816028
0000c0 f9 4e 39 be 96 36 c8 be e1 48 80 be 10 32 d4 be
       -0.18096532 -0.39104146 -0.25055602 -0.41444445
0000d0 9e f2 e4 be 47 43 63 be 14 9c 55 be 22 f0 cf be
       -0.44716352 -0.22193633 -0.2086032 -0.40612894
0000e0 2a e6 89 be 72 e8 d3 be 81 ad 9f be 17 55 57 be
       -0.26933414 -0.4138828 -0.3118706 -0.21028553
0000f0 11 47 7b be 03 c2 ac be 44 51 9d be 34 11 6a be
       -0.24538828 -0.3374177 -0.30726063 -0.22858125

main.9.running_mean f4 [64]
000000 e3 ff 90 bf 74 8f f1 3c d1 61 da bf 76 f9 87 3f
       -1.132809 0.02948735 -1.7061101 1.0623004
000010 e1 42 99 3e 57 19 52 bd f9 8a 98 bd 48 28 08 3f
       0.29933837 -0.051293697 -0.07448382 0.53186464
000020 46 07 50 bf c4 93 2e bf 90 6e 18 bf ad 83 a8 be
       -0.812611 -0.6819422 -0.59543705 -0.3291296
000030 7f ce 1f bf 3f 21 b5 3c 1f ed 31 3e bd 32 5f 3f
       -0.62424463 0.02211058 0.17375611 0.87186795
000040 8e 6b 68 3f 8c f2 b4 be 9f ff 2c bf ff 8f ae bf
       0.90789115 -0.353413 -0.67577547 -1.3637694
000050 be 02 0f 3f 17 e4 9d 3e f6 a0 a3 3f 74 c3 c9 be
       0.5586356 0.3083808 1.2783496 -0.3940693
000060 9a e8 fb be a3 1a 62 be 50 6b e3 be 91 88 cf bd
       -0.49200898 -0.22080474 -0.4441781 -0.1013347
000070 a7 93 ca bf f9 b1 96 be 39 e8 d3 3e 6e fe 70 bf
       -1.582631 -0.29432657 0.4138811 -0.9413823
000080 89 d7 8c be fa e4 30 be 9a 5f ca 3d 6f b5 81 3e
       -0.2750819 -0.17274848 0.09881516 0.25333735
000090 74 2e c5 be c8 5c 48 bf b3 ae 28 3e 95 a9 da 3e
       -0.38512003 -0.7826657 0.16472892 0.42707506
0000a0 a4 f6 7a be 88 2b 79 bf 8d 79 2d c0 87 ee 0b bf
       -0.24508148 -0.9733205 -2.7105439 -0.5466084
0000b0 0a 9a 84 3f 36 0e 94 3e 60 67 c9 3e 89 b1 1c bf
       1.0359509 0.28917092 0.3933668 -0.612084
0000c0 fd 94 93 3e 65 3f 56 3f 63 52 ae 3e f7 e8 93 be
       0.28824607 0.8369048 0.3404723 -0.28888676
0000d0 2a 6e 75 3e d2 6b 72 bf 45 6a 88 bf 7d db ee 3d
       0.23967806 -0.9469577 -1.0657431 0.11662958
0000e0 1f 52 f0 3e f7 1e 9d be f7 d1 dc be 3e de ee 3d
       0.46937653 -0.30687687 -0.4312894 0.11663483
0000f0 10 a1 83 bf 21 ee ca 3f d8 a2 fc 3e fe 9f ec bd
       -1.0283527 1.5853921 0.4934299 -0.115539536

main.9.running_var f4 [64]
000000 18 25 82 40 0a 2c 8f 40 64 0c 86 40 c4 8e 0b 41
       4.067028 4.474126 4.1890125 8.722355
000010 ac de fc 40 db 67 df 40 85 01 b1 40 67 93 04 41
       7.9021816 6.9814277 5.5314355 8.285987
000020 c9 68 99 40 3c 0b e4 40 5d 3f 97 40 c8 39 7b 40
       4.794041 7.1263714 4.726485 3.9254017
000030 1a 3c 0d 41 82 67 c8 40 3e 30 15 41 20 0b ad 40
       8.827173 6.262635 9.324278 5.407608
000040 b3 64 c9 40 ab ea 12 41 77 c5 18 41 eb 14 ef 40
       6.2935424 9.182292 9.548209 7.4713035
000050 9e 81 e7 40 d8 05 fa 40 93 37 b6 40 68 49 91 40
       7.2345724 7.8132133 5.694284 4.5402107
000060 40 26 2a 40 e8 31 46 40 09 16 32 40 f3 82 06 41
       2.6585846 3.096796 2.782595 8.40697
000070 04 b3 a3 40 a4 8a e7 40 73 67 bb 40 8b 97 5e 40
       5.1156025 7.235674 5.856378 3.4779994
000080 e6 5b 68 40 99 3c 9c 40 5a f8 03 41 98 d1 c9 40
       3.630609 4.882397 8.248133 6.306835
000090 19 6b c1 40 ef a4 df 40 11 5e 02 41 6b f0 ee 40
       6.0443234 6.9888835 8.147965 7.466848
0000a0 26 15 ec 40 fd b7 bc 40 63 81 cf 40 02 97 14 41
       7.3775816 5.8974595 6.4845443 9.286867
0000b0 4b 85 8b 40 1c ec ec 40 f4 c3 2b 41 1f 85 dd 40
       4.360021 7.403822 10.73534 6.9225
0000c0 ce 82 fc 40 d3 f2 20 41 ca 3d 34 40 b5 12 50 40
       7.8909674 10.059283 2.8162713 3.2511418
0000d0 9b 8d 35 40 0b 62 ea 40 ff a8 82 40 d2 6f 9e 40
       2.836768 7.324468 4.0831294 4.95115
0000e0 c1 8c f2 40 8b 87 df 40 a2 be 00 41 c4 95 49 41
       7.579682 6.985296 8.046541 12.599064
0000f0 b1 80 60 40 ed af 29 40 85 e6 eb 40 4e dd f2 40
       3.5078547 2.6513627 7.3718896 7.5895147

main.11.weight f4 [1, 64, 4, 4]
000000 a3 1d 8b bd 2d 69 62 3e c8 a8 82 bd 5b 72 16 3e
       -0.06792762 0.22110434 -0.06379849 0.1469206
000010 3d 33 2c bd cd 14 f1 bd 58 0d 63 bd 45 15 77 3e
       -0.042041052 -0.117715456 -0.055432647 0.24129207
000020 6a ac 30 be 3a e0 cc bd d6 0a 30 be 17 47 63 bd
       -0.17253271 -0.10003705 -0.17191634 -0.05548772
000030 9f 0d 89 3e 05 ad 5b 3e ed ea 3f 3e 66 0c 36 be
       0.26768205 0.2145272 0.18741961 -0.17778167
000040 8e 20 1b be 42 e9 4f be 98 1c 13 be 21 21 a8 3e
       -0.15149137 -0.20303825 -0.14366376 0.32837775
000050 77 af 3c be e5 79 ae 3c f9 68 da bd 88 38 5f 3e
       -0.1842631 0.021298358 -0.10664553 0.21798909
000060 a0 25 37 be b9 71 2d be 2c 86 00 be c0 73 1d 3e
       -0.17885447 -0.16937913 -0.12551183 0.15376186
000070 7a 33 20 be d5 53 14 3d 5d 02 c9 bd a2 9e 31 3e
       -0.15644637 0.03621276 -0.09814904 0.1734567
000080 78 d6 6c bc 75 8f 1f 3e 47 21 6d 3e 11 e9 56 bd
       -0.01445543 0.15582068 0.23157226 -0.052468363
000090 89 6c 27 3c 62 88 8f bd 3e 39 3e bd 79 1a 71 3e
       0.010218748 -0.07008435 -0.04644131 0.23545255
0000a0 20 73 70 be 8e f4 a5 3d ea 44 2e bd de 57 21 be
       -0.23481417 0.08103286 -0.04254619 -0.15756175
0000b0 4d ae 70 3e 2a 2a e8 bd 0d 89 44 3e a8 11 7d 3e
       0.2350399 -0.11336167 0.19192906 0.24713767
0000c0 c4 34 24 be 44 69 4c be 3d e3 73 be 0c 8c 56 be
       -0.16035753 -0.1996203 -0.23817153 -0.20951861
0000d0 c6 4d 70 be 7e 95 66 be f2 1d 4d be 91 78 6f be
       -0.23467168 -0.22517964 -0.20030954 -0.23385836
0000e0 0b b6 c8 be 60 5f 71 3e 21 8c bb bd e1 13 62 be
       -0.39201388 0.23571539 -0.09157587 -0.22077896
0000f0 33 3f cf bd 6b 77 cb bd 66 ab 4f be 4c 3e c6 bb
       -0.10119476 -0.099348865 -0.20280227 -0.006049907
000100 ba e5 96 bd 08 1a d5 3e f8 ae 1d be e1 e9 a9 be
       -0.073680356 0.41621423 -0.15398777 -0.33186248
000110 9c 13 bf 3d 46 42 6d 3b 73 5c 0f be ed 37 36 be
       0.09329912 0.0036202832 -0.1400011 -0.17794771
000120 7f b1 3f 3e c5 2b 4b be 3d 61 48 be f3 df 73 be
       0.18720053 -0.19840916 -0.19568343 -0.23815899
000130 05 bc c0 bd 87 c9 e6 bb 87 3d 0c 3e 54 39 48 be
       -0.09410862 -0.007043067 0.13695346 -0.19553119
000140 c6 09 38 be 42 3b 49 be 22 2d 79 be 31 7a 2f bd
       -0.17972478 -0.19651511 -0.24333623 -0.04284114
000150 e8 49 77 bc a5 c4 46 3d 8b 27 2e bc ed cd 57 be
       -0.015093304 0.04852738 -0.010629545 -0.21074648
000160 24 55 ac 3d 63 4d 5e 3d cc db aa bd f9 a0 4e 3e
       0.08414677 0.05427302 -0.08342704 0.20178594
000170 44 08 0e bc 91 a2 40 bd 5c 51 7a 3e c6 92 41 be
       -0.008668963 -0.047030035 0.24445099 -0.18903646
000180 28 aa 23 be 99 bc 7f 3c de 60 98 be e9 eb db bd
       -0.15982878 0.01560893 -0.29761404 -0.10738356
000190 77 48 a6 be 03 30 ad bc ca a7 06 be 7e 74 b7 be
       -0.3247716 -0.021141058 -0.13149944 -0.35831064
0001a0 ec 84 a8 be 14 f2 64 bd 6c 51 85 be 11 25 77 be
       -0.3291391 -0.055894926 -0.26038682 -0.24135233
0001b0 ed b3 90 3c b2 b1 18 3c ba 03 b4 3d 3d 3a af 3c
       0.01766392 0.00931971 0.08789773 0.021390075
0001c0 0d e1 cb 3e 56 b6 7b be a6 a7 4e 3e 7e a1 db bb
       0.39820138 -0.24581274 0.2018114 -0.006702601
0001d0 e0 cb d7 bd 1a c6 3b be bc b7 6c be e9 77 61 be
       -0.10536933 -0.18337288 -0.23116964 -0.22018398
0001e0 63 4d cb bd 0d 94 56 bd 2d 85 24 be 5c 65 4b be
       -0.0992687 -0.052387286 -0.16066428 -0.19862884
0001f0 de a8 50 be c5 14 4f be c7 6b 10 be b2 63 12 be
       -0.20376918 -0.20222767 -0.14103614 -0.14295843
000200 e3 c2 35 be 43 0d 2c 3e 04 13 68 3e 8c 9b 43 3e
       -0.17750125 0.16801934 0.22663504 0.19102305
000210 67 a7 60 be 24 8d e5 bd 09 03 51 be 2b 43 9f bc
       -0.21938859 -0.11208561 -0.20411314 -0.019441208
000220 21 1c 32 3d 20 04 4b be 0f 2e 5e bc 1c 79 18 be
       0.043483857 -0.19825792 -0.013560786 -0.1488995
000230 86 fc de bd 54 89 35 3e 2e 39 df bd 0f ff 14 be
       -0.10888009 0.17728168 -0.10899578 -0.14550422
000240 b7 48 a6 be 5a 81 ac be 5a a5 06 be 79 5c c3 be
       -0.32477352 -0.33692437 -0.13149014 -0.3815649
000250 d1 aa 45 be fd 5f 3c be 91 e0 39 be c8 2e a7 be
       -0.19303443 -0.18395992 -0.18152072 -0.3265288
000260 27 dd 31 be db 08 eb bd 38 3f 5a be 45 04 1d be
       -0.17369519 -0.114762984 -0.21313179 -0.1533366
000270 11 b0 7e bd c8 1c 72 be 7d 8a 01 be 35 54 15 be
       -0.06217963 -0.23643792 -0.12650485 -0.14582904
000280 19 99 9c bd 63 e4 ec bc a3 16 07 3e e9 c9 8b 3e
       -0.076463886 -0.028917497 0.13192229 0.27302483
000290 e0 7c 16 3e bb 6b 18 be 8d 6c 57 bd 8e c4 a9 bd
       0.14696074 -0.14884846 -0.052593756 -0.08289443
0002a0 f1 49 9e bb f3 05 77 be 29 74 0a bd 22 b7 5c 3e
       -0.004830592 -0.24123363 -0.033802185 0.21554235
0002b0 cb 30 63 be 8b 48 23 be 33 e8 62 bd 77 81 19 3e
       -0.22186582 -0.15945642 -0.055397224 0.14990793
0002c0 54 82 a4 bd ae 3f ab 3d cb f2 e9 bd 28 57 7a bd
       -0.080326706 0.08361755 -0.11423262 -0.061118275
0002d0 f5 95 5a 3e 87 eb e1 3d 2e 07 17 3e d2 d2 57 bd
       0.21346267 0.110312514 0.14748833 -0.05269129
0002e0 21 53 98 bd 80 95 08 3e 0e e4 df 3d 2a 78 59 3e
       -0.074377306 0.1333828 0.1093217 0.21237245
0002f0 61 33 6f be b0 32 28 3e b6 69 61 3e 9d ae 81 3e
       -0.23359443 0.16425586 0.22012982 0.25328532
000300 54 4f 20 be a6 ca 5f be 85 c5 05 3e 15 ff 54 be
       -0.15655261 -0.21854648 0.13063629 -0.20800431
000310 99 19 94 3e ab 57 34 be d0 96 7c be f3 0e 3f be
       0.2892578 -0.17611568 -0.24666905 -0.18658046
000320 4e f0 09 be c1 01 98 be 17 4c 6e be 18 3a 1d be
       -0.13470575 -0.29688838 -0.23271213 -0.15354192
000330 83 82 22 3d 4d ac 40 be 60 e7 68 be 54 cb 48 be
       0.039675247 -0.18815728 -0.22744513 -0.19608814
000340 39 5f 45 be 1a 83 18 be ee 3f 41 be 60 d5 60 be
       -0.19274606 -0.14893761 -0.18872043 -0.21956396
000350 17 0e 30 3e 3a 04 2a be bf 52 24 be 3f e1 44 be
       0.17192875 -0.16603175 -0.1604719 -0.1922655
000360 57 0b 0b 3d db 44 94 bd dd 38 2e be 00 d4 63 be
       0.03394636 -0.07239696 -0.17013879 -0.2224884
000370 4e a6 fb 3d d3 69 38 be 50 62 19 bc 87 9c 22 be
       0.122875795 -0.18009119 -0.009361818 -0.15880023
000380 66 cf 68 be 79 56 c7 bd 5e 7c ce bd 8b 22 4f be
       -0.22735366 -0.0973329 -0.10082315 -0.20228021
000390 92 e4 a5 bd f8 30 35 be b2 84 82 3d 25 cd 5d be
       -0.08100237 -0.17694461 0.06372966 -0.21660288
0003a0 02 fd 99 be 5b bb 7b be 83 34 b7 bd 7c ae 8b be
       -0.30075842 -0.24583189 -0.08945563 -0.2728156
0003b0 bc ca 34 be 54 83 37 3d 77 b4 a7 3b 25 a5 73 bc
       -0.17655462 0.04480298 0.0051179486 -0.0148709165
0003c0 e8 90 ae be 68 fd c3 bd f0 ee 71 be f4 86 6c be
       -0.3409493 -0.09569818 -0.23626304 -0.23098356
0003d0 cc ac 80 be 34 ee 26 3e 88 5b ff 3d 82 ef 3f be
       -0.25131834 0.16301805 0.1246863 -0.18743709
0003e0 98 d8 01 be 66 60 f5 bc 1a 47 31 be cf 73 07 be
       -0.1268028 -0.029953193 -0.1731228 -0.13227771
0003f0 7c 02 6b 3c 81 db 15 be 71 a9 83 bd 41 e1 b6 bd
       0.014343854 -0.14634515 -0.06428803 -0.089296825
