model/rock/netD.pt (torch, 183655 bytes, 17 tensors)

main.0.weight f4 [8, 1, 4, 4]
000000 84 d9 ba 3a 42 05 34 3a 33 21 c0 3b b6 77 41 3c
       0.0014255499 0.00068672386 0.0058633327 0.0118083265
000010 8f a5 c9 bc e6 8c 4a bc b6 af fb 3b 44 9c 9b bc
       -0.024615077 -0.012362694 0.0076808585 -0.018995412
000020 d8 39 c1 bb 24 b6 13 bc 2c 72 8e 3b 78 86 2e bc
       -0.005896788 -0.009015594 0.0043471064 -0.010652177
000030 20 38 c7 bb 0d d1 ba 37 11 bb 06 bd e5 1a 80 bc
       -0.0060796887 2.2270275e-05 -0.032893244 -0.015637824
000040 93 78 80 3b 62 60 05 3c 38 48 46 bc 85 4a 0f bd
       0.0039206236 0.008140655 -0.012102179 -0.034983177
000050 f4 d9 25 bd 45 b0 ad bc 90 85 b5 ba 3b aa 4f bc
       -0.04049106 -0.021202216 -0.0013849009 -0.012674863
000060 60 8e 9e bc a9 59 42 bd f1 4d ba bb 43 69 a0 bc
       -0.019354999 -0.047448788 -0.005685561 -0.019581443
000070 ec 85 08 bc dc 4a 4a bc cb 3a 61 bd 97 d7 89 bc
       -0.008332711 -0.012346949 -0.05498771 -0.016826434
000080 55 81 0e 3c 75 d5 4f 3a f7 d5 dd 38 00 c2 59 bc
       0.008697827 0.0007928231 0.00010577955 -0.013290882
000090 14 86 e9 bc 5e 2a a9 3c 0d 44 d4 bb af 75 e5 bc
       -0.028506316 0.020650085 -0.006477839 -0.028010217
0000a0 d8 a5 75 bc fc a1 9f 3b 8c e4 c0 bc 09 38 0e bc
       -0.0149931535 0.004871605 -0.02354648 -0.008680352
0000b0 7e ba d7 bb 6a d7 5e ba 4e d3 65 3c da 56 98 bc
       -0.006583511 -0.0008500727 0.01402743 -0.018596102
0000c0 1a 22 8c 3c 55 14 56 3c 61 0b 85 3c 89 61 83 3c
       0.017106105 0.013066371 0.016240777 0.01603772
0000d0 52 e0 7d 3c 46 07 7e 3b 6c 4a 5c 3c 4e e4 82 3c
       0.015495377 0.003876166 0.013445478 0.015978005
0000e0 6b ae 75 3c 1f 0a 5e 3c 31 b4 7e 3c d7 59 11 3b
       0.014995198 0.013552218 0.015545891 0.0022178793
0000f0 52 10 6c 3c 3e 74 96 3c b8 a5 97 3c 5c 39 2e 3c
       0.014408188 0.018365975 0.018511638 0.010633793
000100 1c 0a 84 bc 4b a8 2b 3c 4b 21 f7 bc 40 f1 03 bc
       -0.016118102 0.010477136 -0.030167243 -0.008053124
000110 65 41 03 3d e1 5d 3d bb 48 4c 38 bd ac 4e a2 bc
       0.032044787 -0.0028895068 -0.044994622 -0.019812904
000120 61 66 b8 3b 59 92 db bc a7 21 d1 bc a7 7c f3 b9
       0.005627439 -0.026803182 -0.025528742 -0.00046441445
000130 f7 68 4e bd 01 3f 37 bd 91 ba c0 bc 21 05 bf bc
       -0.05039307 -0.04473782 -0.023526462 -0.023317875
000140 07 b2 8a 3c 23 e6 08 39 ab 9c 82 bc 4d 53 b8 bc
       0.016930593 0.00013055703 -0.015943846 -0.022500658
000150 60 52 82 3c be e4 12 bc 68 5c 77 bc f2 e8 05 bd
       0.01590842 -0.008965669 -0.015097715 -0.032692857
000160 ea a3 c4 bc ca 95 80 bb e3 6c 38 bc 96 2c fb bc
       -0.024003942 -0.0039241062 -0.011256429 -0.030660909
000170 ee 88 33 bb 28 a8 8e bc 91 19 46 3b a1 bb 99 3c
       -0.002739485 -0.017414168 0.003022764 0.018766226
000180 bb c8 26 bd 22 88 da bc 54 03 a1 bc 91 07 8c bc
       -0.040718775 -0.026676241 -0.019654907 -0.017093452
000190 e1 51 5b bd 68 bc 25 ba bd 25 12 bd 82 8a 7d bc
       -0.053544883 -0.0006322325 -0.03568052 -0.015474917
0001a0 c2 f0 f8 bc bb 5d a0 bc 52 09 3d bc 21 73 7b bb
       -0.03038824 -0.019575944 -0.011537867 -0.0038368183
0001b0 32 89 87 bc 38 f4 95 bc 4c c5 93 bb 43 44 dd bc
       -0.016544912 -0.01830493 -0.0045096036 -0.027010089
0001c0 f9 d4 c0 3b 76 9f 48 3b 67 18 20 bc e4 9e 75 3a
       0.0058847633 0.0030612624 -0.009771443 0.0009369685
0001d0 e8 ee 7b 3b 10 50 c2 bb e6 67 64 bc f5 12 a7 3b
       0.003844196 -0.0059299543 -0.013940787 0.0050986954
0001e0 b9 f9 9b bc d7 0e 76 bc 3c 9f 16 bc ea 45 ea 39
       -0.019039975 -0.0150181865 -0.009193238 0.00044684048
0001f0 d5 81 6e bd 55 19 e8 3c f3 6d 1b bc 72 c3 65 3c
       -0.058229286 0.028332392 -0.009486663 0.014023649

main.2.weight f4 [16, 8, 4, 4]
000000 ba 72 c4 3b 2c 9a 84 ba f0 f1 16 bc 64 b0 ed bc
       0.005995122 -0.0010116748 -0.009212956 -0.029014774
000010 47 5f af 3c f9 fe 06 bd 8b 8c ca bc 3f 41 3a bc
       0.021407736 -0.032958005 -0.02472522 -0.011368095
000020 17 dd 56 3b 0a 23 a0 3c f4 93 89 3c f6 5c 60 3c
       0.0032785588 0.019547958 0.016794182 0.013694039
000030 24 b9 9a bc 99 99 e2 b8 28 2f 1f 3c db d3 82 bc
       -0.01888711 -0.000108051296 0.009715833 -0.015970161
000040 6e 9e c9 3c 19 3b 08 bd 53 9f 2f bc 81 68 33 bc
       0.024611678 -0.033259485 -0.010719138 -0.010950209
000050 b5 5f d0 3c ca 2a fa 39 85 bb 59 ba 7e 42 71 3c
       0.025436262 0.00047715596 -0.00083058357 0.014725326
000060 6d d6 d4 3c 54 0b 1a bb 66 d1 60 bc ba 28 ae bc
       0.025981152 -0.0023505287 -0.0137217995 -0.021259654
000070 83 6b 6c bb 27 aa 12 bd 93 94 21 bc 93 f7 2d 3c
       -0.0036074824 -0.0358068 -0.009862083 0.010618108
000080 d9 6c 4c 3b 6f a6 c5 3b 46 28 1d 3d 23 ef 6d 3b
       0.0031192808 0.0060318033 0.038368486 0.0036305867
000090 7f 55 db 3a 6d c5 90 bb 12 2a b0 bc d8 00 a3 bc
       0.0016733854 -0.0044180662 -0.021504436 -0.019897863
0000a0 9c 37 02 3b 99 b3 db 3b 54 8c 2d ba 3d 9e 0a 3c
       0.0019869572 0.0067047593 -0.0006620337 0.0084605785
0000b0 88 94 4b 3c e1 a9 7c 3c 89 a5 d2 3c 38 63 38 bc
       0.012425549 0.015421362 0.025713699 -0.011254124
0000c0 38 6d 5e bb 3c c0 1a 3b e6 31 22 bc bd 7f 2f 3c
       -0.0033939611 0.0023613116 -0.009899592 0.0107116075
0000d0 1c 30 ef 3b 6a 4c 97 3c f3 6a 13 bd 25 a2 30 ba
       0.0072994363 0.018469054 -0.035990667 -0.00067380286
0000e0 3c e7 b6 bb ef 77 4b 3c 93 86 60 3b 74 8d 5b ba
       -0.0055817645 0.012418731 0.00342599 -0.0008375265
0000f0 dc 33 14 bc d1 ac 4e bc 6c 7e da bb db 71 7a 3b
       -0.009045567 -0.012614445 -0.0066679027 0.0038214836
000100 43 cf 16 3d 9b a2 ae 3b 09 b5 99 bc 46 0c a1 bc
       0.036818754 0.0053294427 -0.018763082 -0.019659173
000110 3f b1 c9 3c b7 1f a4 bc dd 2a 19 3c cb ed 42 3c
       0.02462065 -0.020034654 0.009348598 0.011897515
000120 5b c1 92 3c 78 09 e3 bb b1 a9 18 bd db 07 2e bb
       0.017914465 -0.006928619 -0.037271205 -0.0026554975
000130 34 27 06 3d f5 9c 20 bd 99 ea 66 bc fe de 34 3c
       0.03275223 -0.039212186 -0.014094018 0.011039494
000140 66 3e fe ba 11 04 93 b9 6d 17 be 3c 09 21 5e bc
       -0.0019397258 -0.00028041055 0.02320453 -0.013557681
000150 a2 d2 c5 bc d6 db 5a 3c 85 15 ff bb fd de a9 3c
       -0.02414829 0.013358077 -0.0077845477 0.020736212
000160 0f 27 3c 3d c0 74 e7 bc bd e4 fe bb 95 16 89 3c
       0.045935687 -0.028253913 -0.0077787326 0.0167344
000170 fe f5 1a bc f5 0c ce 3a cf e9 e6 bc 9e 6a cc 3c
       -0.009458063 0.0015720414 -0.02818766 0.024953183
000180 8f 68 60 3b 24 e7 df bb 61 29 e2 bc 10 37 e6 3c
       0.003424201 -0.006832974 -0.027607622 0.028102428
000190 17 34 c0 3b 66 ae 02 bd b9 ab 8d bb b0 f6 86 bb
       0.0058655846 -0.0319046 -0.0043234495 -0.004118763
0001a0 ce cf 5a bb 06 54 ab 3b 9e 3b a7 bb 00 fc b5 3c
       -0.0033388021 0.0052285222 -0.0051035425 0.02221489
0001b0 b2 48 57 3c 61 e4 62 bc 9b e3 11 bc ba 40 bf 3c
       0.0131398905 -0.013848395 -0.008904363 0.023346294
0001c0 46 f4 dd bc 22 94 21 3d 1d 70 e1 bb ed 29 8b bc
       -0.027094018 0.03944791 -0.00687982 -0.016987765
0001d0 77 c1 f2 bc 2e f2 f8 bc 5c 3c db bb 4b 0e 72 bc
       -0.029633267 -0.030388918 -0.006690545 -0.0147739155
0001e0 37 7c a4 3c 84 fc 89 ba cd 6d d1 3b 7a b7 c7 3b
       0.020078762 -0.0010527526 0.006391263 0.00609487
0001f0 6e c3 f6 bb 6c 0c 21 3c 09 d1 be bc f8 e2 a9 bb
       -0.0075306213 0.009829622 -0.023293035 -0.0051845275
000200 18 4a 7c bb 50 e4 b6 3c c8 a0 10 bd 93 98 60 bc
       -0.0038496312 0.022325665 -0.035309583 -0.0137082515
000210 6f 62 3b bc 45 9b 34 bc f4 4e a8 3c be d1 c2 bb
       -0.011437043 -0.011023347 0.02054546 -0.0059454134
000220 2b a1 82 3c 6d 3b 99 3c 46 46 79 3a 16 c2 04 3d
       0.015945992 0.018705094 0.0009509068 0.032411657
000230 62 4c 66 3d 57 fb 51 3d 86 ae 0f 3d 82 b5 8a 3c
       0.056225188 0.051265087 0.035078548 0.016932253
000240 b5 4d ad 3c 4a a5 80 bc 06 9a cb bc 4d df 04 bc
       0.021155218 -0.015703816 -0.024853718 -0.00810988
000250 41 8d 98 3b d1 96 ba 3c a9 1b 9e bc eb 8c ca 3c
       0.0046555107 0.022776993 -0.019300299 0.024725398
000260 cb 27 2e bd 9e 28 22 3d 94 ef 87 bb 00 21 39 3d
       -0.04251842 0.039589517 -0.004148433 0.045197487
000270 d0 9f 18 3c dc 52 ac 3c a9 fb 36 bc ee c6 6a 3d
       0.009315446 0.021035604 -0.011168399 0.05731862
000280 c7 a8 7a 3c 46 d3 8f b9 02 fb 4b bc da a2 7b 3b
       0.015299029 -0.00027432496 -0.012449982 0.0038396628
000290 bf 00 9a bb f2 c8 9a 3c cf 73 28 3d c8 0e 95 bc
       -0.004699796 0.018894646 0.04112607 -0.018195525
0002a0 14 b0 76 bc a7 59 60 3c 9a 96 8f bc 36 f0 c0 bc
       -0.015056629 0.01369325 -0.017527867 -0.023552042
0002b0 7d ec 8b 3c 2f f8 3d 3c 4a 12 55 bc c1 0e a4 3d
       0.01708054 0.011594816 -0.013004849 0.080106266
0002c0 dc d0 0c 3c ba 4e a2 bb 16 74 f9 3b d4 91 d1 bc
       0.008594718 -0.0049532326 0.0076127155 -0.025582232
0002d0 d1 df 9d 3b f4 0a 62 3c 98 31 ad 3c 77 fa 16 bd
       0.0048179408 0.013796557 0.021141812 -0.036859956
0002e0 3c 52 ca b9 af f6 8e bc c2 71 15 3d 63 16 70 ba
       -0.00038589712 -0.017451612 0.03648544 -0.00091586093
0002f0 a8 a7 18 bb 0f 27 35 bd 5a 7b 08 bd 8d ad d6 bb
       -0.002329329 -0.044226702 -0.033320762 -0.0065514506
000300 af d3 01 3d 01 02 b2 3c 9a 23 ad bb 58 b4 96 bc
       0.031696018 0.021729471 -0.005283785 -0.018396541
000310 84 5e 3a 3c c3 6b a2 bc 23 2d dd 3c ae d3 cc bc
       0.011375073 -0.019826775 0.026999062 -0.02500328
000320 db 05 aa 3a f1 97 df 3c f5 ac d9 3a cc 69 bd bc
       0.0012971716 0.027294131 0.0016607331 -0.023121737
000330 65 1b 13 bb 5a 98 e0 bb ec 47 d0 3c 3b 3b 1e 3c
       -0.0022446748 -0.006854099 0.02542492 0.009657676
000340 62 b3 ca bc 26 82 5e 3c a9 37 b8 3c d8 40 e3 3c
       -0.02474374 0.0135808345 0.022487478 0.02774088
000350 74 1b f3 3b 6b 86 cd 3c 44 17 97 bb 34 f6 29 bd
       0.007419044 0.02508851 -0.004610928 -0.041494563
000360 a1 e4 38 bd 77 a3 f5 bb a5 fa 78 bc f0 b5 ca 3c
       -0.045139913 -0.007496293 -0.015196477 0.024744958
000370 60 6a 81 ba af 08 c5 3c b9 40 e5 3c 1f 0c c9 bb
       -0.0009873621 0.024051992 0.027984964 -0.006135478
000380 3e 27 ab bc 0b 62 38 ba fc c2 20 3d 38 0b 50 bd
       -0.020892736 -0.00070336525 0.03924845 -0.05079195
000390 35 bf c5 bb 5d 45 c5 3c af 86 13 3d 41 e8 bd bb
       -0.0060347565 0.024080927 0.036017116 -0.005795509
0003a0 81 6e 88 bc a8 a4 78 3c 6c af 49 3c 29 b3 9f 3b
       -0.016654255 0.015175976 0.01230989 0.0048736525
0003b0 81 eb 0c bc c7 ff 24 3d 28 75 cd 3c cd be eb 3b
       -0.00860107 0.04028299 0.025080279 0.007194376
0003c0 7d c5 b2 bc d7 25 d0 bc 10 8a ca 3c 6e 40 cb 3c
       -0.021822685 -0.025408668 0.024724036 0.024810996
0003d0 7b 6d 32 3b 1c 85 24 3c 10 c4 d3 3c 01 38 77 bc
       0.00272259 0.010041501 0.025850326 -0.015089036
0003e0 29 c3 10 bd 11 6c 0f bd 24 31 fb 3a 91 87 d2 3c
       -0.03534237 -0.03501517 0.0019164425 0.025699409
0003f0 59 c3 07 3d fc 72 90 bb 9e 6e 20 3c 27 b6 3f bd
       0.033145282 -0.0044082385 0.009791998 -0.046804573

main.3.weight f4 [16]
000000 23 46 7c 3f f6 e2 7c 3f f5 85 78 3f 27 99 74 3f
       0.9854452 0.98783815 0.970794 0.9554619
000010 6d 8a 81 3f 2c 65 7f 3f 6e 8a 7f 3f ee 3b 82 3f
       1.0120369 0.9976375 0.998206 1.0174539
000020 82 8d 80 3f cf 43 83 3f 72 a8 7f 3f f7 7b 7e 3f
       1.0043185 1.0255069 0.998664 0.99407905
000030 27 c3 78 3f 23 3c 81 3f 2a c9 75 3f d4 06 81 3f
       0.9717278 1.0096477 0.96010077 1.0080209

main.3.bias f4 [16]
000000 48 9a 22 3b 39 5d a8 bb 91 e4 41 3d 88 ac a8 bb
       0.0024811197 -0.005138066 0.04733712 -0.0051475205
000010 91 b6 94 3b e2 91 17 3c f6 05 dd bb 7f 39 b6 3b
       0.004538365 0.00925109 -0.0067450954 0.0055610533
000020 9e 87 d9 bb c6 05 08 ba 21 f1 05 bc 9a 66 b2 3b
       -0.0066384813 -0.00051888486 -0.008175165 0.00544436
000030 3e 8f f2 bb 9e 75 ae 3a bd 51 ef bb b3 fd ab bb
       -0.0074023297 0.0013310199 -0.007303445 -0.005248749

main.3.running_mean f4 [16]
000000 98 a6 1d c1 bc fb 3e 42 58 bc bb c1 f8 bd 64 42
       -9.853172 47.745834 -23.466965 57.185516
000010 6c 51 8e 41 88 5c 59 41 28 41 c8 41 ab bb cb 41
       17.789757 13.585091 25.031815 25.466635
000020 93 b9 8c 42 21 80 00 42 b6 e1 fe 41 92 77 1c c1
       70.36245 32.125126 31.86021 -9.779192
000030 f1 e0 4b 42 36 33 3f 42 88 ed c5 c1 5c 9f dc 41
       50.96967 47.80001 -24.740982 27.577812

main.3.running_var f4 [16]
000000 31 99 82 43 6c b0 54 45 a6 31 7f 44 c9 cb 5a 45
       261.1968 3403.0264 1020.77576 3500.7366
000010 b1 2c 0f 45 b1 94 ce 44 41 98 eb 44 f9 91 c1 44
       2290.7932 1652.6466 1884.7579 1548.5616
000020 4c 65 98 45 91 29 e8 44 90 42 d4 44 99 b2 a9 43
       4876.662 1857.299 1698.0801 339.3953
000030 5e db 2b 45 9b da 3a 45 51 4f 4f 44 07 be 9f 44
       2749.7104 2989.6628 829.2393 1277.9384

main.5.weight f4 [32, 16, 4, 4]
000000 8b 5f 10 bd 38 8c b8 bc 39 3c 6e bc 45 74 36 bc
       -0.035247367 -0.022527799 -0.014540725 -0.011136119
000010 70 75 91 bc cf ee b6 bb 18 f4 3d 3c 7b 80 75 bb
       -0.017756194 -0.0055826674 0.011593841 -0.0037460614
000020 73 00 de 3b a0 7e 1d 3c bc 27 9d bc dc f6 53 bb
       0.006774956 0.009612709 -0.019183986 -0.0032343185
000030 9b e6 02 bd e2 73 94 3c 68 e5 9d bb 5a 40 c0 ba
       -0.031958204 0.018121663 -0.004818607 -0.0014667616
000040 1a 7f 98 bd b2 7f 1e 3d fa 1f d9 bb 6f 0f 95 3c
       -0.07446118 0.038696 -0.0066261264 0.018195836
000050 19 08 d5 bb ff 47 93 3c 6e d9 d5 bb db bf b9 bc
       -0.0065012095 0.017978666 -0.006526164 -0.022674492
000060 61 14 3e 3c e2 e1 d0 3b 9a 85 7b 3b 09 79 b9 3b
       0.011601538 0.0063745836 0.0038379193 0.0056601805
000070 d4 08 92 bc 97 6a c1 bc eb a8 30 3c 58 99 39 3b
       -0.017826475 -0.023610396 0.010782461 0.002832016
000080 04 c7 21 bd ca 4a e2 3c 49 ad 43 bd 19 78 4f 3c
       -0.039496437 0.027623553 -0.04777268 0.012662911
000090 77 45 41 bc f6 d6 9f b9 08 5a 0f 3d 10 ea 8f 3c
       -0.011796347 -0.00030487002 0.03499797 0.017567664
0000a0 95 f7 9b 3c 65 3d 9c bb 97 0b 07 3d a2 f4 95 3c
       0.019038955 -0.004768061 0.032970037 0.018305127
0000b0 93 62 bb bb 85 97 94 bc 13 19 a5 3c d4 7e d5 b9
       -0.005718538 -0.018138656 0.020153558 -0.0004072102
0000c0 0d 30 b6 bc 8e e2 a2 3b ed c7 40 3c 42 e3 4b bc
       -0.02223971 0.004970855 0.011766416 -0.012444319
0000d0 95 4a 83 bb 42 00 a1 3c c2 a6 9a bb 97 08 c1 3a
       -0.0040066936 0.019653443 -0.004719586 0.0014727291
0000e0 5c cd ae 3c 96 10 a0 bc 81 e9 0a 3c 21 1d 0c bc
       0.021338157 -0.019539159 0.008478523 -0.008551867
0000f0 e8 18 7e 3b 94 0c de bc 3d 3d 00 bd 7d bc 26 b9
       0.003877217 -0.027105607 -0.0313084 -0.00015901211
000100 bd ba de 3c a9 85 17 bd f6 d3 3d 3c 67 3a 9b bb
       0.027188653 -0.036992703 0.01158618 -0.0047371867
000110 cf b0 59 3d a0 b8 38 3d bd 74 30 bc 11 5f e3 3c
       0.053147133 0.045097947 -0.01077002 0.027755292
000120 89 4a 6a bc d8 b6 90 3c 27 d0 92 bb 0d 8c 94 3c
       -0.014299997 0.017665312 -0.00448038 0.018133188
000130 b3 db c2 ba 38 14 61 3c f7 da f8 bb 0e 09 5d 3c
       -0.0014866501 0.013737731 -0.007594462 0.013490928
000140 d7 38 24 bd ac 62 b5 bc d6 0c 2a 3c 8c 0e 0e bd
       -0.04009327 -0.022141777 0.010379037 -0.03468184
000150 83 45 0e bc 7a 98 8e bb dc 19 23 3d 61 61 a2 3c
       -0.008683565 -0.0043516727 0.039819583 0.019821825
000160 6e e4 2c bd 33 2b be 3a b5 36 ad 3c 1b e9 64 3d
       -0.042210035 0.0014508724 0.02114425 0.05588637
000170 48 ce 47 3c b9 71 11 3c 84 a8 d7 3c 2b 65 04 bc
       0.012195177 0.008877211 0.026325472 -0.008080761
000180 eb 16 c4 bc df 74 8f bc b4 31 f4 3b 1e dc 0e bb
       -0.02393671 -0.017511783 0.007452214 -0.002179868
000190 01 d6 89 3c b3 df a7 bc 94 8a fc 3c 22 8b f8 3b
       0.016825678 -0.02049241 0.030827798 0.0075849453
0001a0 21 33 58 bb bc 73 87 bc f7 fb 05 bb 00 8a 08 bc
       -0.003298946 -0.016534679 -0.0020444372 -0.008333683
0001b0 7e e9 83 bc e6 8a 6a 3b 9c 58 e1 3b 50 10 33 bc
       -0.016102549 0.0035788356 0.006877018 -0.010929182
0001c0 6a 1d c6 3b 63 32 a2 bc d9 1c 20 bd 95 a7 a5 bb
       0.006045987 -0.019799417 -0.03909001 -0.0050553777
0001d0 0f 43 cb ba 29 a9 76 bb 5a 3f b1 bc 20 b3 83 3c
       -0.0015507656 -0.0037637448 -0.021636654 0.016076624
0001e0 e2 2a 7a 3b 49 4f 8e 3c ef bc 26 3c 85 ed 03 3d
       0.0038172533 0.01737179 0.010176881 0.03220894
0001f0 4c 47 34 bd ce eb ee 3c 45 1d 1f 3c b9 5f ef 3b
       -0.044013306 0.029165175 0.009711568 0.007305112
000200 a9 03 9f bc f6 7a 21 3d 2e 6d 00 bc 6f e2 04 bc
       -0.019410925 0.039423905 -0.0078385305 -0.008110627
000210 7c 81 81 3c d6 35 3f bc af 82 1c 3c b0 02 04 3c
       0.015808813 -0.01167055 0.009552642 0.008057281
000220 fd 82 d1 bc d2 8c b1 bc a6 c3 28 bb 3d 40 81 3c
       -0.025575155 -0.021673594 -0.0025751381 0.015777702
000230 5b 0a 11 bc 87 5e 94 bc 19 ee 5c bc 3a 3f 32 bc
       -0.008852567 -0.01811148 -0.013484501 -0.010879332
000240 e1 68 81 3b 8f 19 b5 bc 14 40 2f bc a2 32 8a bc
       0.00394927 -0.022106914 -0.01069643 -0.016869847
000250 f4 71 bd 39 ce 2b 98 3b 0e ec 45 bd 16 b4 2b bc
       0.0003613379 0.004643894 -0.048320822 -0.010479948
000260 ed 08 b0 ba fb 06 02 bd e8 6a 0d 3a 4c d9 3b 3d
       -0.0013430394 -0.03174494 0.00053946534 0.045861527
000270 49 d8 89 bc 4a 2f 77 3d 36 c9 ad ba ff b0 97 3c
       -0.016826766 0.060347833 -0.0013258818 0.018517016
000280 18 5a 2b 3d fd 08 95 bb 03 84 78 bc 58 e4 2a 3b
       0.041833967 -0.0045481906 -0.015168193 0.0026076045
000290 c2 10 a9 3c 0d cd 15 3b c3 96 43 3d 1a 69 19 3d
       0.020637874 0.0022857815 0.0477512 0.03745375
0002a0 9a d3 30 bc 2d f5 97 38 b7 b5 4c bb ee 0f 5c bc
       -0.010792637 7.245909e-05 -0.003123624 -0.013431532
0002b0 fa 01 45 bc cd 39 88 3c 1c e7 82 bc 82 72 83 3c
       -0.012024397 0.016629124 -0.015979342 0.016045813
0002c0 1e 66 7a bc 7d ec 1c bd e0 a9 ad 3b d0 ae 46 bc
       -0.015283136 -0.03831147 0.0052997917 -0.0121266395
0002d0 36 0b d7 b9 6a 1f c5 bc a2 a7 d3 3b ff 05 17 3b
       -0.00041016348 -0.024062831 0.0064591924 0.0023044345
0002e0 7f 09 09 bd 3a 16 85 bb 71 60 9e bc 69 88 ac 3c
       -0.03345632 -0.0040614875 -0.019333096 0.02106114
0002f0 1d ff c7 3b 84 2a a1 3c 4f 9e 07 3d 6d 0e e2 bc
       0.00610341 0.019673593 0.03310996 -0.02759477
000300 08 d7 63 bc ef 3a 0b bd f3 09 94 3c 36 f8 3b bd
       -0.013906248 -0.03399175 0.01807115 -0.04589101
000310 64 93 a2 bb 09 e7 44 bc b5 e5 ce bc 13 b4 81 3c
       -0.004961418 -0.012017974 -0.025256017 0.015832936
000320 57 15 00 3c b5 32 bc bc b4 3d e1 3c 8c 02 8f 3b
       0.007817588 -0.022973398 0.027495243 0.0043643173
000330 83 e1 99 bc 02 80 c7 bc 29 60 86 bc 01 8f e1 bb
       -0.01878429 -0.024353031 -0.016403275 -0.0068835025
000340 3b ae 09 3c c1 b9 4b bc da 53 83 3c bb 0b 3a bd
       0.008403356 -0.012434424 0.016031194 -0.045421343
000350 09 27 ae bc 77 98 bd 3c ce a4 69 bc bb c2 85 bc
       -0.021258848 0.02314399 -0.014260484 -0.016328206
000360 2a 01 da 3b 13 52 95 bc 34 72 88 3b ae 38 94 bb
       0.006652971 -0.018227613 0.0041640047 -0.0045233583
000370 65 0b 9b bc 95 f2 0e bc 4c e2 45 bd aa 55 78 bc
       -0.018926332 -0.008724828 -0.048311517 -0.015157143
000380 e1 8a ff bb cd ea 5c 3b 83 8a b8 bb c9 d9 a5 bc
       -0.007798538 0.0033709288 -0.0056317463 -0.02024545
000390 9f c9 ad 3c 94 5e 2c 3d a0 b3 f0 38 54 87 c4 3b
       0.021214304 0.042082384 0.000114775496 0.0059975777
0003a0 1f 27 a1 bc 11 5d d5 3c 82 76 f2 3c 88 53 29 3c
       -0.019671975 0.026045354 0.029597525 0.010334857
0003b0 0c 8b 92 3c bc 2b a5 3c 43 76 16 bd fd 3c 0e bd
       0.017888568 0.020162456 -0.036733877 -0.03472613
0003c0 19 1d e1 3b 37 c9 82 3c 17 c6 e3 3b a2 7e 95 3c
       0.006869924 0.015965087 0.0069511044 0.01824886
0003d0 1b 16 35 3c 70 5b c6 3d 75 6f ca 39 24 6c ad 3b
       0.011052634 0.09685409 0.00038611484 0.0052924324
0003e0 ef 35 ad 3c 1e ac d2 3c 8f ec 80 bc ee 4e 93 bc
       0.021143882 0.025716837 -0.0157378 -0.017981973
0003f0 24 32 f6 bb f9 6f 81 bb 5d d5 4e 3c fb 29 15 3d
       -0.0075133014 -0.0039501158 0.012624112 0.03641699

main.6.weight f4 [32]
000000 ae 29 7b 3f fa 29 80 3f 48 ca 7f 3f 88 4e 7d 3f
       0.98110473 1.001281 0.9991803 0.98947954
000010 05 2a 80 3f 8f b1 80 3f e5 34 83 3f 16 fb 82 3f
       1.0012823 1.0054187 1.0250517 1.0232875
000020 c2 48 7d 3f c8 9d 86 3f 29 b4 82 3f 0b 4a 81 3f
       0.98939145 1.0516901 1.021123 1.0100721
000030 ec 05 7a 3f 4f bc 84 3f c3 8d 82 3f 0e fa 7d 3f
       0.97665286 1.0369967 1.0199512 0.9920968
000040 97 82 7f 3f 1d 5e 79 3f b0 47 80 3f 52 2d 80 3f
       0.9980864 0.9740923 1.0021877 1.0013831
000050 f9 b0 7e 3f 4b 80 83 3f 81 52 7a 3f 13 40 84 3f
       0.9948879 1.0273527 0.9778214 1.0332054
000060 fd 2b 83 3f b0 ac 76 3f ba 08 80 3f c5 76 82 3f
       1.0247799 0.9635725 1.0002663 1.0192496
000070 53 92 80 3f 89 38 7d 3f ab d2 78 3f 5f 55 80 3f
       1.0044655 0.9891439 0.97196454 1.0026053

main.6.bias f4 [32]
000000 2a cd 3b bc 0d ef 48 bb d1 16 81 bb 5c 9d 8a 3b
       -0.011462489 -0.0030660063 -0.0039394875 0.0042301845
000010 2a 5d 0a 3b 25 34 58 3b 90 cf 44 3c 56 63 de bb
       0.002111266 0.0032990065 0.012012377 -0.006786744
000020 43 cf 55 bb a1 91 73 3c 70 12 3e bb b7 b2 c5 bb
       -0.0032624758 0.014866264 -0.0029002689 -0.0060332674
000030 06 60 04 bc 0e f8 3b bb 3a 7b 06 ba 26 aa 07 bb
       -0.008079534 -0.0028681788 -0.00051300565 -0.0020700782
000040 65 29 86 3c 98 80 34 bb b7 8c da bb 29 cf b0 3b
       0.01637716 -0.0027542468 -0.0066696065 0.005395789
000050 ad 55 3b 3c d0 72 00 bb 72 c1 98 3b cb 53 99 3c
       0.011434001 -0.0019599684 0.0046617324 0.018716713
000060 f7 06 8f bc f0 fc 88 bb d6 54 57 bb d6 e5 66 3b
       -0.017459376 -0.004180543 -0.0032856963 0.0035232208
000070 51 33 be 3a b9 e5 33 3b 82 4f eb bb 45 e3 bd bb
       0.0014511143 0.0027450158 -0.007181109 -0.005794915

main.6.running_mean f4 [32]
000000 6a 18 5b 3d 62 8d 0a bd c4 f1 90 3d 8e 30 ba 3c
       0.05349008 -0.03382624 0.07077363 0.02272823
000010 12 5a 33 3b c3 f9 11 3e 3a 36 72 bd 25 36 89 3d
       0.0027366919 0.14255433 -0.059133746 0.066997804
000020 bf b1 ac 3d 1a 88 58 3d 26 44 6a 3d dc 4b ce bd
       0.0843234 0.05286417 0.057193898 -0.10073063
000030 05 db 8d 3d 80 71 92 3d 25 97 47 be b4 76 46 bd
       0.0692654 0.07150555 -0.19491251 -0.048453048
000040 58 1a 01 be 72 41 34 3d d6 c9 6e 3d ef 8f 8d bc
       -0.12607706 0.044007726 0.058297954 -0.017280547
000050 e5 05 67 3d 8d 7d d2 3d e9 5a 2c be dd 0d c8 bc
       0.056402106 0.10277853 -0.16831554 -0.024420673
000060 c3 73 bc 3d d0 dd a6 bd 08 27 06 bd aa 23 16 3e
       0.09201767 -0.08147776 -0.032752067 0.14662042
000070 75 ec 71 bd 5b 82 97 3c cd aa c3 3d 59 4f 5c 3d
       -0.059063394 0.018494776 0.09554062 0.05378661

main.6.running_var f4 [32]
000000 a5 d2 0c 3d a5 3c 07 3d 42 ab 28 3d 80 82 23 3d
       0.034380574 0.03301682 0.04117895 0.039919376
000010 47 ec 3d 3d 8b ff 31 3d 46 64 20 3d 0a e6 db 3c
       0.04636791 0.043456595 0.03915813 0.02684309
000020 e5 5e e1 3c b6 c2 d6 3c eb 7d 0f 3d 77 09 57 3d
       0.02751107 0.026215892 0.035032194 0.05249926
000030 de 84 e7 3c f8 fc 3b 3d 41 e8 21 3d ae 39 e5 3c
       0.028261598 0.045895547 0.039528135 0.027981605
000040 14 e1 08 3d 72 fb 10 3d a0 91 f8 3c 4f ec f2 3c
       0.033417776 0.035396047 0.030342877 0.029653696
000050 d1 42 18 3d fd 1d 30 3d 36 1f 62 3d 29 f5 fa 3c
       0.037173096 0.04299735 0.055205546 0.03063448
000060 03 c1 6a 3d 0b 47 f8 3c ae 5a 7d 3d 83 a2 0f 3d
       0.057312977 0.030307313 0.061854057 0.035067093
000070 ac 65 01 3d 61 24 06 3d 14 63 40 3d 99 a5 52 3d
       0.031591102 0.032749537 0.04696949 0.051427457

main.8.weight f4 [64, 32, 4, 4]
000000 a9 cd 98 3b 3a 43 09 ba 78 03 60 3c b3 57 10 bd
       0.0046631885 -0.0005236153 0.013672702 -0.035239886
000010 f0 af 52 3b 1a 77 91 3c fd b3 4f 3c da 2b 0f 3c
       0.0032148324 0.017756987 0.01267719 0.008738482
000020 6b bd bb 3b 63 2d e5 3c 5f 74 46 ba 9c 9e a5 bb
       0.0057293675 0.027975744 -0.0007570441 -0.005054308
000030 cc 6b 56 bd c2 dc 5f 3d e0 b2 a0 bc 57 b1 fe 3c
       -0.052348897 0.05465389 -0.019616544 0.031090422
000040 ce 94 b0 bc 00 6c 64 bb d7 c7 be 3c 51 5d 3c bd
       -0.02155533 -0.0034854412 0.02328865 -0.04598743
000050 22 ff 6f 3a 61 39 9c 3c 1b 46 88 bb b6 52 78 ba
       0.0009155144 0.01907033 -0.004158748 -0.0009472774
000060 bc c8 fd bb a2 cd 94 3b 8e 1a e5 3c 88 f3 cc bc
       -0.0077448767 0.004541115 0.027966764 -0.025018468
000070 df 17 37 3d a2 2b f2 3c d6 f9 46 3c c7 6b b2 3b
       0.0447005 0.029561821 0.0121445265 0.005444977
000080 e5 3e 42 bc 4b d9 39 3c 91 48 13 bc 74 14 56 bc
       -0.011855816 0.011343311 -0.008989469 -0.0130664
000090 7b 93 82 bd 3b 77 04 3d aa 4e 3a bc ea c9 d1 bc
       -0.06375786 0.03234027 -0.011371294 -0.025608975
0000a0 7d 49 d3 3c 31 7a e9 ba be 3e 44 bb 72 e0 b1 bc
       0.025791878 -0.0017812905 -0.0029944624 -0.02171347
0000b0 99 ce 8c bc 76 4b 86 3c 36 3e ac bc dd d1 3d 3c
       -0.017188357 0.016393404 -0.021025758 0.01158568
0000c0 64 26 b5 bc bb fe 2b ba af 25 2c 3d d5 1a b5 bc
       -0.022113033 -0.000656109 0.042028125 -0.022107521
0000d0 4c 7d 56 3c ca bf 46 3c 08 8c e1 3b 7a 18 ac bb
       0.013091397 0.012130687 0.006883148 -0.0052519413
0000e0 2d d6 8e bc 71 7c 5b bb ee 3a 97 3a 34 a8 0e bc
       -0.017436111 -0.003349092 0.0011537948 -0.008707095
0000f0 55 6a bc bc 23 33 72 3c 70 ce fc bc d8 d4 c9 bc
       -0.022999922 0.0147827 -0.030860156 -0.024637625
000100 39 cf 2e 3c cc 11 5e 3c 23 c3 cb 3c ec 2e 10 3d
       0.010669523 0.013554048 0.024873322 0.035201
000110 fb bf 48 3b 6e f0 19 3c f6 c6 64 3c b6 7e e2 b8
       0.0030632007 0.009395702 0.013963452 -0.000108001215
000120 6d bb fe bb 30 db df ba 13 82 13 bc a2 44 5a bc
       -0.0077738077 -0.0017078873 -0.00900318 -0.013322027
000130 3c 77 69 bd c3 2b 98 3d b0 f3 dc 3b 8f b0 4c bd
       -0.056998476 0.07430222 0.006742917 -0.049973067
000140 93 98 43 3c 0f d9 b0 3a 59 ab 7a 3c dc 8d de 3c
       0.011938232 0.0013492423 0.0152996415 0.027167253
000150 7e aa 4d bc d7 81 0d bd a5 5f 87 bc 08 42 04 bd
       -0.012552856 -0.034547653 -0.016525099 -0.032289535
000160 06 25 b5 3c 2a 0c bb 3b 5c dd 94 bb 25 5a 76 bc
       0.02211238 0.005708237 -0.0045429897 -0.015036141
000170 26 b1 62 bc 44 91 f2 3c ed 20 9f bc fe 5c 3b bb
       -0.013836181 0.029610284 -0.01942488 -0.0028589363
000180 5f 3b b1 3c 38 6b 41 bd d1 60 00 3d 62 07 b4 bc
       0.021634756 -0.047221392 0.03134233 -0.021976177
000190 55 ab 82 3b ed 60 13 bd b4 c0 e5 3c 68 af 11 bc
       0.0039877095 -0.035981108 0.02804599 -0.008891918
0001a0 c1 12 ba bc 0b a3 a4 bd 2d dd ff bc 4f b6 bb 3a
       -0.02271402 -0.080389105 -0.031233395 0.00143213
0001b0 4e 0d c9 bc 29 c0 a7 bc 60 76 1c bc a2 ad dc 3b
       -0.024542477 -0.020477371 -0.009549707 0.006734566
0001c0 4d 24 91 bb 57 36 ca bc 0b ff 5c bc b6 7a b0 bb
       -0.004429376 -0.024684114 -0.013488541 -0.005385722
0001d0 42 27 4f 3c 9c 61 aa bc 88 fc 1d 3c f4 f3 6f 3c
       0.012643637 -0.020798497 0.009642728 0.014645565
0001e0 19 c6 77 3c ea 33 e8 3c 9b 9d b7 3b 8e a6 40 3c
       0.015122914 0.028345067 0.005603505 0.01175846
0001f0 ab 59 98 bc 88 4f 56 3c 79 93 09 bc ab 42 60 bc
       -0.018597445 0.013080485 -0.008396977 -0.01368777
000200 b7 53 d8 bc 27 ba 96 3c 81 68 42 3c c4 b7 d3 3c
       -0.026407106 0.018399311 0.011865736 0.025844462
000210 08 b1 a2 bb 7a a4 c4 bc ba 65 ab 3c 7b 20 12 bc
       -0.0049649514 -0.02400421 0.02092253 -0.008918877
000220 49 62 c1 bc a7 af 20 bd 15 cd 77 3c 7c 3d 9a bc
       -0.023606436 -0.039230015 0.015124579 -0.018828146
000230 b4 56 18 bd a9 c2 f5 bb a5 83 e5 3c c3 38 13 ba
       -0.03719206 -0.007500012 0.028016875 -0.0005616063
000240 1b 7b cd bc e8 ac 52 3d f6 5e c8 3c a4 55 e7 3c
       -0.025083115 0.051434427 0.024459343 0.028239079
000250 c6 e2 73 3c 11 4b f8 3c 36 5d 55 bb d3 3c 16 bd
       0.01488561 0.030309232 -0.0032556779 -0.0366791
000260 d8 af e9 bc d2 14 6b 3c 07 08 be 3a 9a 99 44 bc
       -0.028526232 0.014348226 0.0014498242 -0.011999512
000270 f3 c6 60 bb 3b e6 d5 3c ff 67 6d 3b fa 30 31 bd
       -0.003429827 0.026110759 0.0036225317 -0.0432596
000280 d0 49 1b bd 58 48 fc 3c 7a f1 56 3c 7d 6c d5 bb
       -0.03791219 0.030796215 0.013119096 -0.006513177
000290 b3 5b 04 bb 03 65 bc 3c 22 e7 0f 3c db bb 86 3c
       -0.0020196259 0.022997385 0.008783134 0.016446998
0002a0 3e 55 7b 3c 79 1d 89 bc fb ae cd 3c c1 10 82 bc
       0.015340148 -0.016737686 0.025107851 -0.01587713
0002b0 64 5d e8 bc c6 ee 3d 3d 27 77 99 3c 67 ee 0e bc
       -0.028364845 0.04637029 0.018733574 -0.008723832
0002c0 a4 20 6d 3c 7d a9 f9 bc 9b 6d 94 bc e8 07 b3 bc
       0.014473114 -0.030476326 -0.01811867 -0.021854356
0002d0 c4 3b de 3c 3e db c0 bc 6b d2 27 3c c9 1f 04 bb
       0.027128108 -0.023542043 0.010243039 -0.0020160547
0002e0 0d 00 44 3c 82 38 19 3c 32 a4 5f bc 69 b4 34 3c
       0.011962903 0.009351851 -0.013649987 0.011029341
0002f0 6e 43 5a bd be 4c 06 bd 76 36 7a 3b 9e 69 8c bc
       -0.053286962 -0.03278803 0.0038179434 -0.017140206
000300 19 c4 22 3c 52 14 c1 3b ee ad 8c 3c 9d 02 06 3c
       0.009934449 0.005892315 0.01717278 0.008179334
000310 38 9d bb bb f0 c9 3b 3c 6c 02 71 3c 5d 22 b2 3c
       -0.005725529 0.01146172 0.01471005 0.021744901
000320 d9 ee 78 3c 1a e2 d1 bb 6b 7c 14 bb 0a f4 81 3b
       0.0151936645 -0.0064051272 -0.0022657167 0.0039658593
000330 0b 73 82 ba 87 b2 ce bc ce ba 3a bc 5d 67 10 bd
       -0.0009952498 -0.025231613 -0.011397077 -0.035254825
000340 e4 5b ec 3c a2 43 68 3b f5 0c 03 bb 82 db 2c bc
       0.02885241 0.0035440703 -0.0019996737 -0.010550382
000350 7f 3c 57 bc 1a 2e 21 3d 84 60 cd 3c 10 2c f3 3b
       -0.013136982 0.039350607 0.025070436 0.007421024
000360 4b fe 28 bc 75 37 1c bd 18 3b 50 3c 81 6f 77 bc
       -0.010314534 -0.038138825 0.012709402 -0.015102268
000370 7d 47 05 3c 43 86 7b bc 9d cd 0d bb 90 76 83 3c
       0.00813472 -0.015351835 -0.0021637448 0.016047746
000380 99 70 96 bc 37 c9 8c 39 89 b9 2f bc b7 81 8e ba
       -0.018364238 0.00026852798 -0.010725387 -0.0010872398
000390 43 7b ad ba c9 3f 52 3c 89 ce 59 bc 0e 01 a2 3b
       -0.0013235587 0.01283259 -0.013293871 0.0049439734
0003a0 98 92 bb bb 49 77 c4 3c 05 ab 45 bd 45 e1 aa bb
       -0.0057242624 0.02398266 -0.0482588 -0.0052148425
0003b0 d1 80 b0 bc 04 0e 94 3c 0a c4 8d bb 65 dc 96 3c
       -0.0215458 0.01807309 -0.004326348 0.01841564
0003c0 71 f2 6e bc f3 7a 89 bc c6 4c 86 3c 10 1d 86 3b
       -0.01458417 -0.01678226 0.01639403 0.00409282
0003d0 cb cb 21 bc 1d ee 40 3c 82 22 e0 bc ec 09 07 3d
       -0.009875248 0.011775521 -0.027360205 0.032968447
0003e0 b5 62 1d 3b b5 37 25 bc 40 78 9a bc 99 5e d5 bb
       0.0024015133 -0.010084082 -0.018856168 -0.006511521
0003f0 17 57 8c bc 5c 86 c6 ba a0 f6 2d 3c ad 08 5d bc
       -0.017131371 -0.0015146243 0.010617882 -0.013490838

main.9.weight f4 [64]
000000 4c 14 96 3f 99 d0 7c 3f 38 00 7e 3f de 3c 80 3f
       1.1724944 0.98755795 0.99219084 1.0018575
000010 3b 7d 7e 3f d4 73 77 3f 5d d1 83 3f 4b 40 84 3f
       0.99409837 0.96661115 1.0298268 1.0332121
000020 b9 ac 80 3f 52 12 7e 3f 88 b6 83 3f b3 4e 98 3f
       1.0052711 0.99246705 1.0290079 1.1899017
000030 06 12 8d 3f b2 a2 84 3f 4c 7c 86 3f c4 bc 85 3f
       1.1021125 1.0362151 1.0506682 1.0448232
000040 2c f4 84 3f 98 00 84 3f 90 7d 8e 3f 42 a8 81 3f
       1.0387015 1.0312681 1.1132069 1.0129473
000050 93 cf 86 3f 8a 62 86 3f 8a c9 80 3f b5 d4 87 3f
       1.0532097 1.0498822 1.0061505 1.0611788
000060 c8 61 87 3f 4e ca 83 3f 13 00 81 3f d2 c3 83 3f
       1.0576715 1.0296113 1.0078148 1.0294135
000070 6b a2 89 3f 60 46 8b 3f ea 42 81 3f a8 aa 8b 3f
       1.0752691 1.0880852 1.0098546 1.0911455
000080 40 26 81 3f 3e 9a 7b 3f dd 0d 82 3f b3 11 80 3f
       1.0089798 0.9828223 1.0160481 1.0005401
000090 ce 09 82 3f 2b d0 84 3f 65 c8 84 3f ab e2 7f 3f
       1.0159242 1.0376028 1.0373656 0.9995524
0000a0 43 19 84 3f 2b 54 85 3f dc db 81 3f c1 59 81 3f
       1.0320209 1.0416311 1.0145221 1.0105516
0000b0 d9 4a 80 3f 9e 5f 80 3f bc 4a 83 3f c0 96 7f 3f
       1.0022842 1.002918 1.0257182 0.998394
0000c0 c9 4e 8e 3f 0c f1 81 3f 4d e6 84 3f 35 24 81 3f
       1.1117793 1.0151687 1.0382782 1.0089175
0000d0 31 58 82 3f e5 72 86 3f 88 96 90 3f 9a 28 82 3f
       1.0183164 1.0503813 1.1295938 1.0168641
0000e0 99 12 85 3f 57 e7 85 3f d3 d9 80 3f 68 f6 7f 3f
       1.03963 1.0461224 1.0066475 0.9998536
0000f0 3e 56 87 3f 59 19 82 3f 66 b0 7f 3f 1a 04 83 3f
       1.0573194 1.0163985 0.9987854 1.0235627

main.9.bias f4 [64]
000000 fe 26 a4 3c 8a 92 1b 3c 15 ab df 3b d0 15 1a 3d
       0.020038124 0.009495387 0.0068258145 0.03761846
000010 c8 95 85 3b d1 85 1f bb 41 d6 c4 3c 4c dc cc 3c
       0.004076693 -0.0024341235 0.024027945 0.02500739
000020 8e 18 04 3b 9c da a5 3c ff 9e 7d 3d f3 83 f8 3d
       0.0020156237 0.020245843 0.06191921 0.12134542
000030 86 14 64 3c 1d c5 5c 3c e4 1d c2 3c bb 0b 19 3d
       0.013920909 0.01347473 0.023695894 0.037364703
000040 5b 19 09 3c 10 c3 ae 3c 28 1b d6 3c c6 69 25 3c
       0.008367862 0.021333247 0.026135996 0.010096019
000050 27 a4 59 3c f2 be 1d ba 45 5f c7 3c b8 21 77 3d
       0.013283766 -0.0006017528 0.02433742 0.06033489
000060 2b f8 56 3d 68 c3 f4 39 dc 3f 79 3c 2e d3 ff 3c
       0.052482765 0.00046684896 0.015212979 0.031228628
000070 a8 93 af 3d 89 fc dc 3d e5 06 1b 3d 97 09 91 3c
       0.08573085 0.10790355 0.037848372 0.017704768
000080 4b e1 75 3c 20 c5 f4 ba 71 0f 3d 3c f0 ec 1e 3c
       0.015007327 -0.001867447 0.011539326 0.009700045
000090 d0 53 50 3c d2 d9 59 3c a7 82 be 3c 9a 8a a0 3c
       0.012715295 0.013296561 0.02325566 0.01959734
0000a0 e5 d6 77 3c 01 28 ab 3c 9d a0 45 bb 99 21 6c 3c
       0.015126918 0.020893099 -0.0030155547 0.014412307
0000b0 8a 99 a5 3c 36 f4 05 3d a2 0a bc 3c 8b 84 06 3c
       0.020214815 0.0327036 0.022954289 0.008210312
0000c0 3d 73 d3 3d fc 7f a3 3c ef 20 00 3d 9a f2 88 3a
       0.10324714 0.019958489 0.031281408 0.0010448277
0000d0 c4 38 75 3d 19 4e bb 3c 57 af fb 3b 91 e3 8a 3c
       0.05986859 0.022864388 0.0076808142 0.016954215
0000e0 49 91 83 3d da e6 60 3c 88 bf 5f 3c 94 40 19 3c
       0.06424195 0.013726914 0.013656504 0.0093537755
0000f0 03 5a 99 3d 8a a1 8f 3c df c0 3b 3d 28 b5 16 bb
       0.074878715 0.017533083 0.045838233 -0.002299616

main.9.running_mean f4 [64]
000000 c3 df 44 3d 2c 63 32 3e 61 2a 25 bd 1e 7e 00 bc
       0.04806496 0.17420644 -0.04032362 -0.007842569
000010 ca a9 bd be 83 73 9c be 87 27 4d 3e 61 52 0e be
       -0.370436 -0.30556878 0.2003461 -0.13898613
000020 ae 7b 8e 3e 94 4f ae bd 62 6f 6a 3d 36 69 0e be
       0.27828735 -0.08511272 0.05723513 -0.13907322
000030 1f 7b 13 be 75 d5 55 bd 86 68 53 be d1 00 4e 3c
       -0.14402436 -0.05220552 -0.20645341 0.012573437
000040 f2 21 55 3e a6 27 78 3e 98 7d 41 3e 93 26 29 3d
       0.2081373 0.24233875 0.18895566 0.041296553
000050 a9 55 ec 3d 36 ae 98 3d 3b 45 14 bc 06 39 33 be
       0.11539776 0.07455103 -0.009049709 -0.17502221
000060 1f 53 d5 3d 65 e7 4f 3d 05 b4 0f be 48 02 1d 3c
       0.10416245 0.050757784 -0.14033516 0.009583063
000070 7b 9c ac be 34 0a 32 3d 3c f3 51 bc 68 b0 1d be
       -0.33713135 0.04346676 -0.012814339 -0.15399325
000080 51 d5 ea be 99 89 cc bd b1 56 9a be 44 95 38 be
       -0.45865873 -0.09987182 -0.30144265 -0.1802569
000090 6d d1 a0 3e 46 ff 13 3e fe 99 86 3c 8d b1 bb bd
       0.3140978 0.14452848 0.016430851 -0.091647245
0000a0 b7 e3 49 3d cf 6d e8 3c 4c 57 42 3d ae 80 c0 3d
       0.04928943 0.028372673 0.047446534 0.09399544
0000b0 d8 7a 3a 3c 35 4a a6 3e 06 b0 63 be e4 32 3a 3e
       0.011381827 0.3247849 -0.22235116 0.18183476
0000c0 9e 9b 48 3e 13 5f 13 be 88 32 cb 3b 2e 83 da bd
       0.19590613 -0.14391737 0.006201092 -0.10669552
0000d0 09 10 78 bd df 0d 11 be 54 7d 55 be a8 20 71 be
       -0.060562167 -0.14165448 -0.2084859 -0.23547614
0000e0 79 f4 67 be 53 88 1c 3c 38 ba 3f be 0c 38 05 3e
       -0.22651853 0.009553987 -0.1872338 0.13009661
0000f0 e8 ea 68 3e 16 85 4e bb d0 9e 2e 3e af cf c6 3d
       0.2274586 -0.003151243 0.1705277 0.09707581

main.9.running_var f4 [64]
000000 b8 c2 73 3e c9 b6 52 3e ab 5b 12 3e f2 c0 e9 3d
       0.23804748 0.2057754 0.14292781 0.114137545
000010 a8 fd 00 3e 83 5d fd 3d 6b 60 34 3e 80 f2 3c 3e
       0.12596762 0.123713516 0.17614906 0.18451881
000020 63 b1 c7 3d 29 75 d3 3d 88 ba ca 3d 09 fb a0 3e
       0.09750631 0.10325081 0.09898859 0.31441525
000030 f5 5a 5d 3e c9 3a 13 3e 5a 94 67 3e 5e f0 2a 3e
       0.21616729 0.14377894 0.22615185 0.16693255
000040 68 45 31 3e 81 1d 16 3e 59 2d 61 3e 62 90 14 3e
       0.17311633 0.14659692 0.21989955 0.14508203
000050 9c a3 03 3e 7a 9b 99 3e da 07 22 3e ff 0f e7 3d
       0.12855381 0.30001432 0.15823308 0.11282348
000060 f0 8d 64 3e 93 0f 2e 3e f5 85 23 3e bc 9b 71 3e
       0.2231977 0.16998129 0.1596907 0.23594564
000070 ec ef 03 3e 3f 9b 70 3e c1 3c 43 3e c6 ba 8d 3e
       0.12884492 0.23496722 0.19066145 0.2768156
000080 14 c3 1f 3e 41 6f 49 3e 2d ca 1a 3e f2 23 17 3e
       0.1560176 0.19671346 0.15116186 0.14759806
000090 90 09 0b 3e 29 ea 67 3e 20 b3 25 3e 7a 41 f9 3d
       0.13577867 0.22647919 0.16181612 0.12170692
0000a0 b1 d8 51 3e 5c b4 fc 3d 14 a7 08 3e d7 60 06 3e
       0.20492817 0.12339088 0.13344985 0.13122879
0000b0 20 40 c3 3d 15 e8 fa 3d f4 2b 00 3e 05 5e cc 3d
       0.09533715 0.122512974 0.12516767 0.0997887
0000c0 ca 24 81 3e f3 00 29 3e 02 66 1f 3e 37 41 d5 3d
       0.2522338 0.16504268 0.15566257 0.10412829
0000d0 59 d9 24 3e 5b 57 14 3e 9f 7f 1f 3e ff 1d de 3d
       0.16098537 0.14486448 0.15576027 0.10845565
0000e0 b8 ad 0b 3e 21 f9 01 3e 66 0f b7 3d 5a 38 d0 3d
       0.13640487 0.12692691 0.08938484 0.10166998
0000f0 8a 59 05 3e 55 67 2a 3e de bd 21 3e 20 2c 36 3e
       0.13022438 0.1664098 0.15795085 0.1779027

main.11.weight f4 [1, 64, 4, 4]
000000 51 b0 96 bd 32 72 3e 3a f3 1e d4 bc 00 10 fc bc
       -0.073578484 0.0007264941 -0.025893664 -0.030769348
000010 9c 19 dc bd c4 40 14 3c d3 ce e7 bb d6 9b 47 3c
       -0.10747072 0.009048644 -0.007074216 0.01218315
000020 c1 83 2e bd 97 a0 93 3b 8e c5 52 3c 78 54 b8 3c
       -0.04260612 0.004505228 0.0128644835 0.022501215
000030 be 8f af 3b f4 21 1a 3c 53 a5 66 3c bd cc a7 3c
       0.0053577116 0.009407509 0.014077502 0.020483369
000040 a2 6e 2e 3c 80 1a 3c 3c 9e 69 72 3a 48 4e 2b 3d
       0.010646494 0.0114809275 0.00092473056 0.0418227
000050 43 34 83 3b 59 32 66 3c 64 5a b4 3c 31 83 4b bc
       0.004004033 0.01405009 0.022015758 -0.012421415
000060 3a 69 d9 3b 90 0b 15 3c b5 bd 16 bd 99 72 41 3d
       0.0066348584 0.009096995 -0.036802012 0.04722843
000070 c5 c9 0a bc 63 50 0f bd 92 da 9a bb 61 b7 db 3b
       -0.008470957 -0.034988772 -0.0047257626 0.00670521
000080 37 7d 01 bb 53 64 fc bc e2 68 d3 bc 49 02 64 bd
       -0.0019758472 -0.030809557 -0.025806848 -0.05566624
000090 5c 58 cb 3c 92 46 8e bc 5f 14 1f 3a b4 46 e3 3c
       0.024822406 -0.017367635 0.0006068404 0.027743675
0000a0 30 4e b5 39 05 80 53 3c 4a ae be 3c bc cd 0c 3b
       0.00034581264 0.01290894 0.023276467 0.0021484932
0000b0 3e 6c 60 3d 4e a3 77 bb fc a7 bc bc d3 91 5e bd
       0.054790728 -0.0037786546 -0.02302932 -0.054338288
0000c0 69 ee 11 3d 01 2c 7a 3c c9 0a 8f 3c 62 04 b4 3c
       0.035627756 0.01526928 0.017461197 0.021974746
0000d0 65 3e 85 bc 60 10 d2 3b a3 18 4d 3b 21 4f f9 3b
       -0.016265104 0.0064106435 0.0031295202 0.00760831
0000e0 f4 fe f3 3b 53 63 ae 3c a4 69 f0 bb 49 c4 82 3c
       0.0074461643 0.021287596 -0.007336812 0.015962737
0000f0 5e 4e 11 bd f4 bc 81 3b b7 7f 19 bc 3f 3f 99 bd
       -0.035475127 0.0039592925 -0.0093688285 -0.07482766
000100 ff b7 c5 3c d2 88 c0 3c 27 75 85 3b bd 55 eb 3b
       0.024135588 0.023502741 0.0040728035 0.0071818517
000110 51 e9 83 39 61 d2 29 3c 72 3b 3c bd fb c4 f0 bc
       0.000251601 0.0103651 -0.04595513 -0.029390803
000120 92 0a e4 3b d2 28 bd bc f9 a4 00 bd 81 e8 fe bc
       0.006959268 -0.023090754 -0.03140733 -0.031116726
000130 e6 0c b1 bb 67 ca 1b bc 77 a9 4d bc 19 7b b7 3c
       -0.005403149 -0.009508706 -0.012552611 0.022397565
000140 76 27 34 3d 5e 8e de bb 1b 17 95 3c 5f 21 da bd
       0.043982945 -0.006791874 0.018199494 -0.10650896
000150 7a 51 bc ba 21 52 04 3b dd 98 0e 3d 25 55 97 bb
       -0.0014367544 0.0020190554 0.03481375 -0.0046183043
000160 2d ed 30 3d 47 a9 1c 3d c5 82 d3 3c 63 95 c5 bc
       0.04319494 0.038247373 0.025819192 -0.024119085
000170 e5 c8 5c 3d 85 06 89 3a e8 2e 87 3c 8b 7d f1 3a
       0.053902525 0.0010454213 0.016501859 0.0018424256
000180 42 7b 80 3c d3 d9 b5 bc b5 c3 d4 3c a8 ce fd 3c
       0.015683774 -0.022198593 0.025972227 0.03098233
000190 05 a5 ae 3c cd 10 ee 3a 36 7b bc bc 34 0e 96 3c
       0.021318922 0.0018162966 -0.02300797 0.01831732
0001a0 ab c6 a3 bb 62 d8 e0 3c 2d 3c 18 3c fc 20 02 3d
       -0.0049980483 0.02744693 0.009291691 0.031769738
0001b0 c1 9d 03 bd 8f 5a 43 bd 53 b1 91 bc e8 d4 4a bd
       -0.032132868 -0.047693785 -0.01778475 -0.04951945
0001c0 dc 29 63 bb f6 36 95 bc 4f a0 2f bd 31 86 2b bd
       -0.0034662401 -0.018214684 -0.04287749 -0.04187602
0001d0 09 69 63 bc 31 d2 6b 3c 44 1d 7a bc 26 48 97 bd
       -0.013880023 0.014393375 -0.0152657665 -0.07386808
0001e0 31 34 ad 3b c0 29 0d bd 32 d5 d4 bc 3d b1 ed bc
       0.0052857627 -0.034463644 -0.025980566 -0.029015178
0001f0 2e 33 9f 3c a2 7c 1f bb 1b 87 cc bc 76 b6 09 3c
       0.019433584 -0.0024335762 -0.024966767 0.0084053185
000200 e9 0c 1d bd c4 6f dd 3b a0 3f 0d bd 77 a7 d2 3c
       -0.03834239 0.0067577083 -0.034484506 0.02571462
000210 46 d9 d9 ba 26 c3 b7 3a 38 7a ab 3c a3 17 0f bc
       -0.0016620539 0.0014019951 0.020932302 -0.008733663
000220 6e 15 b5 3c a8 0a cb bc 1d 56 d6 bc c5 a9 4e bb
       0.022104945 -0.024785355 -0.026164109 -0.0031534296
000230 38 d5 3d bd 22 88 07 3c 0e e9 7c bc 02 65 8c 3d
       -0.04634592 0.008272203 -0.015436424 0.06855203
000240 ab 60 d8 3c 63 2a c6 39 d1 39 e9 ba 67 2e bc bb
       0.026413282 0.00037797083 -0.001779372 -0.0057428363
000250 94 87 33 3c 62 e0 ec 3b 29 f7 a8 bc 33 93 7c bc
       0.010957617 0.007228897 -0.020625668 -0.015415954
000260 87 c8 3d 3c fd 45 f8 bb 7f 36 ad bb d0 b9 90 bd
       0.011583454 -0.0075767026 -0.0052860375 -0.07066691
000270 e5 56 6c bd fe b6 0c 3c 81 b4 5c bc e0 93 8a 3c
       -0.057700057 0.008588551 -0.01347077 0.016916215
000280 68 96 8c bc 18 64 a5 3d a2 cf 3e 3a 4d 15 b9 bb
       -0.017161563 0.08075732 0.00072788645 -0.005648291
000290 4b 8e 44 bd ef 46 e0 bc 00 70 8c 3c e4 18 31 3b
       -0.047987264 -0.027377574 0.01714325 0.0027022893
0002a0 1a f8 46 bd 7f 83 26 bd e0 4b 9b 3b 14 8c a1 3c
       -0.04857645 -0.04065275 0.0047392696 0.019720115
0002b0 df ba 75 bd 95 11 45 bc 5d 50 9a bb 2d b1 c3 3c
       -0.059992667 -0.012028118 -0.004709287 0.023888195
0002c0 6a d5 b4 3c 46 80 bf 3c af b3 0b 3d 77 41 25 3c
       0.02207442 0.023376595 0.034106907 0.010086409
0002d0 e8 f9 11 3d 3e d8 27 3c d6 a1 0e bd e1 3b c1 bc
       0.03563872 0.010244427 -0.034822308 -0.023588123
0002e0 ef 7c 13 3c 60 ec b8 ba 0a fa 5a bc 68 d0 c3 39
       0.009001954 -0.0014108531 -0.013365278 0.00037348573
0002f0 e9 61 6c 3b 75 4c e9 bc ab 31 38 bb f2 9b 87 bd
       0.0036069101 -0.02847884 -0.0028105776 -0.06621541
000300 44 d6 08 bc 8c 07 97 3b 9e 59 e8 3c eb 4c 49 3c
       -0.008351866 0.004609054 0.028363045 0.012286405
000310 c4 f7 d0 bd e4 89 5b bd 1e b4 65 bc cd a9 6d 3c
       -0.102035075 -0.0535983 -0.014019994 0.014505816
000320 50 ad b3 bd 89 b1 bb bb 4d 16 85 bc 86 e9 ce 3c
       -0.08773291 -0.005727951 -0.016245985 0.025257837
000330 f5 dd 30 3d 44 70 58 3c c9 20 27 3c 1b 18 d1 3c
       0.043180425 0.01321036 0.010200688 0.02552419
000340 a5 b9 7c 3c 58 9c 37 3c ae dd 22 3d d1 00 3a bd
       0.0154251205 0.011206709 0.03976219 -0.045410935
000350 57 37 a1 3b 8b 34 29 3a ef 1b 89 3d 1c 81 2b bc
       0.004919927 0.0006454668 0.06694781 -0.010467794
000360 21 d8 1e ba a2 78 a6 bb a7 cf bd bc 54 57 f7 bc
       -0.00060594274 -0.0050802985 -0.023170305 -0.030193008
000370 0f 8a 9b bc c3 6b ac bc 79 ac 39 bd 29 84 c3 3c
       -0.01898673 -0.021047479 -0.0453305 0.02386673
000380 81 69 68 bb 5a 72 e2 bc 01 2e a7 bc 9a 34 e7 bc
       -0.0035463276 -0.027642418 -0.020407679 -0.028223325
000390 af b0 eb 3b d3 fb e0 3b 5b 4b 01 3c b3 ba 18 bd
       0.007192693 0.0068659573 0.007891501 -0.037287425
0003a0 10 1e 3f bc 42 fc 3e 3c 94 ac f3 bc b2 df 02 bd
       -0.011664882 0.011656823 -0.029745378 -0.031951614
0003b0 0d f6 0f bc af e6 94 3c 3f c2 5c 3d b5 d8 fd bb
       -0.00878669 0.018176405 0.053896185 -0.0077467808
0003c0 f0 40 3f bd 18 24 75 bc f5 82 ef 3c fc 7a c8 3c
       -0.04669279 -0.014962219 0.02923725 0.024472706
0003d0 68 28 20 bd ba 69 aa 3b 5b 07 c7 3c 37 35 9c 3c
       -0.039101034 0.005200592 0.0242955 0.019068344
0003e0 a8 d2 33 bd c1 c2 a8 3b b4 61 6b ba 24 32 57 bc
       -0.04390207 0.0051501696 -0.00089790975 -0.013134513
0003f0 e4 bc 41 bb 23 56 13 bc e0 7b 8f 3c b5 91 dc 3c
       -0.002956205 -0.008992705 0.017515123 0.026924947
