model/rock/netG.pt (torch, 591561 bytes, 21 tensors)

main.0.weight f4 [100, 64, 4, 4]
00000000: 7a05 db3b 8a15 523d 6818 ccbc abe5 62bc
00000010: 46a9 c4bc 2d35 05bc b385 a43b a280 6ebd
00000020: e1a1 8dbc 6ef5 3cbb a359 643c 9781 8d3d
00000030: 9c30 89bc cfc0 abbc eec7 44bc 0fc2 853b
00000040: b34a babb bda8 5d3c 40d1 c93d e98b 153e
00000050: eb00 b3bc 0c90 043c be11 15bd 5479 f03c
00000060: 79dd c3bc c2d2 20bd 7edf 903b cc5a 133a
00000070: 1ff6 2ebc f3bb c9ba 260f 84bc e544 87bd
00000080: 8d2c 633d be6b c73a dc9a 91bc e4b5 24bd
00000090: fa5e 873a 2ec3 2f3b c1b1 be3b 66a3 a63b
000000a0: 2fd0 fabc 3b1e 8a3b a8a1 9f3c 62e2 cf3c
000000b0: d2e6 4dbd b57b 0a3c 4d07 ca3c 23a7 483c
000000c0: 125a 023d ef9f 453e 4fee 593b ce3a 013c
000000d0: 0caf 8abb da55 98bb 8448 2fba 4e2e ca3b
000000e0: 1407 cfbc 5be3 983b 60be 863c 49ca 863c
000000f0: 4462 c4ba 4ac5 34bc b376 0c3b cf06 7c3c
00000100: 5b5d e2bb 8832 71bc f31c 32bd 6cc9 a53b
00000110: 8f1e 863d ec7d ed3b 668b adbb dc67 8f3a
00000120: 3cff 073d 15fc 523d 45c6 d13a ef18 b63d
00000130: dbfc b4ba e455 47bd 99ea 4a3b a17b 163b
00000140: afd4 783d 7582 bbbb b3ff 973d db5a de3b
00000150: 4a0e ef3c 2e5f 403c ce0a 9abc 0686 78bc
00000160: 9937 f7bb d6ca 613a 81d1 93bb c65f bc3d
00000170: 8503 aabd a19c 9dbd ff3a e9bb c607 0fbd
00000180: 4fb7 8fbc 39ec 5a3c a47a 923c 19ed cb3a
00000190: 04a0 fd3b 74f3 0ebc 52cf b4bb 9062 d2bc
000001a0: 47a5 953d f4a5 b039 3be4 483d 02ab c6bc
000001b0: 5b73 423b d410 8fb9 4f2a 33bd 8c40 473c
000001c0: 7cd6 193d a899 06bc fc2b 773b e45c a83d
000001d0: c2e2 77b9 9952 3a3b 9d49 213c 6f63 49bd
000001e0: e99e 8cbd e195 e0bc f71b f4b9 a12f ac3b
000001f0: ebf5 e83c 4f68 91bb edfc 1a3b 325d 8ebd
00000200: e16a 58bb 648e ffbd 6992 f03b 7e34 9a39
00000210: bf5a af3b 1a25 2dbe 45a6 b7bb 2e3c 3b3d
00000220: d658 91bb 3e62 983b b2e0 a3bb 820b 803a
00000230: dc5e ecba 6d44 543c 3ad3 983a fd9f 5e3d
00000240: 04ae a8bc 2b12 973d e5dc 5d3c a0be 97bb
00000250: 0c18 0cbb b49c cfbb e992 31bc a3d2 9fbb
00000260: ff3c cc3d 97cb cd3b a379 53bd 920a 36bd
00000270: 61b0 2a3d 3e91 493c 861a 82bd e3c8 3a3b
00000280: f4d5 923d df70 4bba 9c39 9bbc 3682 283d
00000290: bb21 90ba f76f a9bd 0ec0 dc3b d8fd 133c
000002a0: 3f9f 36bd 926d 533c 5a85 c9ba 0f02 08be
000002b0: a7e4 de3d 4bec 57b8 3d4e 023c 8fc1 b73d
000002c0: bdd2 58bc ff22 acbd 4f3b c8b9 6c56 ccbc
000002d0: a908 533d d3e6 e63d 9e29 a53c 0218 22bc
000002e0: 88f6 b4ba 7c76 6dbb 9fb8 a5bc 61f7 523d
000002f0: 5aeb 9fbc 1e36 fc3a d1e2 a53b 4277 703c
00000300: 0644 b23b b7b0 4fbb 16ca a2bd a425 163c
00000310: 02d2 8bbb acdc c2ba 2a4c dcbc ffe0 573a
00000320: 08df a83c fec6 f83d a47e 003a 47ee e5bb
00000330: ae1a e6bb 438c bdbb 0090 063d 6681 413e
00000340: c921 75bd 4ea5 90bc 41d7 b8bb 88f2 45bd
00000350: c193 eb3b d6ae 70bb 73e9 8fbc ab09 25bb
00000360: e8f8 bb3d d77f af3c 8911 07bc a6d2 b93b
00000370: 2c07 143c cc51 3dbd 0c52 5ebb 56cd be3d
00000380: 5376 d2bb 99d1 893d af2d 0bbc 0c93 29bc
00000390: d5b9 fa3c 74cd 8e3a 5917 53ba 8d29 c8bc
000003a0: dd4f dd3b 105c a43b e3d2 4f3b 345e 983c
000003b0: 83b4 10bc 4d16 5bbc 4c99 81bc 5091 76ba
000003c0: 706c 91bc 6c64 db3b 6108 b83c b099 6a3e
000003d0: 6e48 003c 227d 083e 51bb c5bd 30c8 c93b
000003e0: 6dd8 6f3d 8545 363b a064 a0bc 4c68 653c
000003f0: 780b 85bc 9520 7bbb afd6 11bd 4f39 b2bc
0.0066840025 0.051290073 -0.024913982 -0.013848702 -0.024006497 -0.008130354 0.005020821 -0.058228143
-0.017289104 -0.002883281 0.013937387 0.06909483 -0.016746812 -0.020965962 -0.012010558 0.0040819715
-0.0056851744 0.013529 0.098543644 0.14604153 -0.021851024 0.008090984 -0.036393873 0.029354729
-0.023909317 -0.039263494 0.0044211736 0.0005621135 -0.010678797 -0.0015391096 -0.016120505 -0.066049375
0.05546241 0.0015214605 -0.017774038 -0.040212527 0.0010327988 0.0026819217 0.0058195298 0.0050853966
-0.030616848 0.0042150295 0.019486263 0.025376502 -0.050268956 0.008452346 0.024661684 0.01224688
0.03182418 0.19299291 0.0033253615 0.007887555 -0.004232293 -0.004648906 -0.0006686526 0.0061700707
-0.02527193 0.0046657748 0.0164482 0.016453879 -0.0014982899 -0.0110333655 0.0021433055 0.015382483
-0.0069081015 -0.01472152 -0.04348464 0.0050594117 0.06548797 0.007247677 -0.0052961586 0.0010940987
0.033202395 0.051509935 0.0016004523 0.088914745 -0.0013808267 -0.048665896 0.0030962585 0.0022961872
0.060749706 -0.005722339 0.07421818 0.006785733 0.029181618 0.011741443 -0.01880398 -0.015168672
-0.0075444696 0.0008613294 -0.004511059 0.09197955 -0.083014525 -0.0769589 -0.0071176286 -0.034919523
-0.017543463 0.013361984 0.017880745 0.0015558332 0.0077400226 -0.008725036 -0.0055178786 -0.025681764
0.07306915 0.0003369298 0.049045783 -0.024251465 0.0029670808 -0.00027287623 -0.04374152 0.012161385
0.037558064 -0.008215345 0.0037715426 0.082208425 -0.0002364023 0.002843058 0.009844211 -0.049167093
-0.06866247 -0.027415218 -0.00046560142 0.0052547012 0.028437575 -0.0044374834 0.002364929 -0.06951369
-0.003302269 -0.12478331 0.007341672 0.0002941228 0.005351394 -0.16908684 -0.0056045377 0.04571169
-0.004435639 0.0046503833 -0.005001151 0.0009769055 -0.0018033641 0.012955767 0.001165963 0.054351795
-0.02059079 0.07376512 0.013541435 -0.0046308786 -0.0021376638 -0.006335819 -0.010838249 -0.004877405
0.099725716 0.0062803733 -0.051629674 -0.044443674 0.041672114 0.012302695 -0.06352715 0.0028501085
0.071697146 -0.00077606546 -0.018948369 0.041139804 -0.0010996381 -0.08273309 0.006736762 0.009032689
-0.044585463 0.012904542 -0.0015374825 -0.13282035 0.10883456 -5.148006e-05 0.007953224 0.08972465
-0.013233838 -0.084051125 -0.0003819116 -0.024943553 0.05152193 0.11274495 0.020161446 -0.009893419
-0.0013806382 -0.0036233952 -0.020229636 0.05150545 -0.019521404 0.0019242202 0.005062439 0.014676871
0.005440238 -0.0031691024 -0.07948701 0.009164248 -0.0042669782 -0.0014866791 -0.026891787 0.0008235126
0.020614162 0.1214733 0.00049016834 -0.0070169303 -0.0070222234 -0.0057845428 0.032852173 0.18897018
-0.059846673 -0.017656948 -0.0056408946 -0.048327 0.0071892445 -0.0036725304 -0.017567372 -0.0025182765
0.091783345 0.021423263 -0.008243927 0.005670863 0.009034913 -0.046220586 -0.0033923415 0.093165085
-0.0064227968 0.06729431 -0.008494779 -0.01035 0.03060619 0.001089497 -0.00080524903 -0.024433875
0.006753905 0.0050158575 0.0031711392 0.018599607 -0.0088321 -0.013372016 -0.015820168 -0.00094058085
-0.017751902 0.006695321 0.022464933 0.2291019 0.007829769 0.13328984 -0.096548684 0.0061578974
0.05855601 0.0027812433 -0.019579232 0.014001917 -0.01624082 -0.003831898 -0.03560513 -0.021755842

main.1.weight f4 [64]
00000000: dfa0 843f 25f0 833f 5be7 7b3f ea54 753f
00000010: 0220 843f 68e9 843f 1150 823f 7a7b 863f
00000020: 92e1 833f 2dc0 823f 3fe4 813f 70e9 803f
00000030: d3c0 6d3f 8ef3 803f 24ef 813f 417c 823f
00000040: 5632 7c3f 9dad 7f3f 88ca 813f b57e 763f
00000050: 7dc4 7e3f 08d1 823f cd7f 7b3f 0c49 693f
00000060: e853 823f df7c 833f a9b2 853f 2e13 813f
00000070: a1db 773f 5518 853f 8136 853f dfc3 783f
00000080: 9af1 6b3f e3f3 863f 9b11 833f a10c 823f
00000090: 9490 803f 5d44 823f e654 793f db6e 813f
000000a0: fa2d 863f 6b39 833f 68d0 7d3f 8232 823f
000000b0: b3a1 813f 3102 703f 64d0 823f 909d 7d3f
000000c0: 9a57 7b3f 5007 873f 8d74 7b3f be28 773f
000000d0: c1e7 813f f370 7c3f 031d 823f a019 803f
000000e0: 65d0 833f 31a5 773f 5b82 823f e013 823f
000000f0: 90bc 833f 1446 793f 6453 723f 74cc 7c3f
1.0361594 1.0307661 0.98399895 0.95832694 1.0322268 1.038373 1.0180684 1.0506432
1.0303214 1.0214897 1.014778 1.007124 0.9287235 1.0074327 1.0151105 1.0194169
0.98514307 0.9987429 1.0139933 0.9628709 0.9951857 1.0220041 0.98241884 0.91127086
1.0181856 1.0272483 1.0445148 1.0083978 0.968195 1.039805 1.0407258 0.97173876
0.9216553 1.0543178 1.0239748 1.0160104 1.0044122 1.0177113 0.9739517 1.0111955
1.0482781 1.0251898 0.9914613 1.0171664 1.0127472 0.93753344 1.0219846 0.99068546
0.98180544 1.0549107 0.9822472 0.9654654 1.0148851 0.98609847 1.0165104 1.000782
1.0297972 0.9673644 1.0196031 1.0162315 1.029192 0.97372556 0.94658494 0.9874947

main.1.bias f4 [64]
00000000: c8f3 27bd b93b adbd 33df 4fbd f487 febc
00000010: e6d0 a5bd 17d4 8cbc 0b92 21bd b02e 80bd
00000020: 1a00 94bc 4cc6 0cbd 4702 52bd e154 98bc
00000030: 66c8 71bd 70d6 89bd e929 90bd a35a 5dbc
00000040: 103f ae3c 61d0 58bd 8fc2 da3b e049 57bd
00000050: 255f 81bd f2c6 97bd 2964 8ebc fe68 36bc
00000060: 37b6 0fbd f300 13bd 1eed dbbc 0a95 08bd
00000070: ccde 15bd a3c8 b6bd 43d6 84bd 715e 0ebd
00000080: 7765 8d3e 2e28 efbc bd1b a6bd 27ba 88bd
00000090: d98f 43bd d277 a03a 46f1 50bd 1292 7abd
000000a0: ea29 93bd b0a2 77bd 0268 80bd db1f 95bd
000000b0: 8ebe 89bd 7784 08bd aa27 50bd 5c23 d8bc
000000c0: 5f5d 93bd 7121 73bd 782a 36bd 8f0a a9bd
000000d0: 40e6 5ebd 47ab 3fbd 369a 57bd 0967 55bd
000000e0: 818a c2bd c6e9 31bd 7854 cabd fc83 81bd
000000f0: d0d1 5cbc e540 91bc afc2 e2bc cd07 a8bd
-0.041003972 -0.08458657 -0.05074997 -0.031070687 -0.08096485 -0.017190976 -0.039445918 -0.06258905
-0.018066455 -0.034368798 -0.051271703 -0.01859516 -0.059029005 -0.06730354 -0.07039244 -0.013510379
0.021270305 -0.0529331 0.006676025 -0.052560687 -0.063169755 -0.07410993 -0.017381744 -0.0111334305
-0.035085883 -0.035889577 -0.026846465 -0.03334526 -0.03658943 -0.08924987 -0.0648618 -0.034758035
0.27616474 -0.029193964 -0.081107594 -0.06676131 -0.047744606 0.001224274 -0.051011346 -0.06117446
-0.07185729 -0.060457885 -0.06269838 -0.072814666 -0.067257985 -0.033329453 -0.050819077 -0.026384048
-0.071955435 -0.059358064 -0.044474095 -0.08253967 -0.054418802 -0.046794202 -0.0526373 -0.052100215
-0.09499074 -0.043435834 -0.098793924 -0.06324002 -0.013477758 -0.01773114 -0.027680723 -0.08204613

main.1.running_mean f4 [64]
00000000: 6a23 29bc 6d4c 9839 48be ecb9 897d 6d3c
00000010: 1028 083c cd2d 343c 7e40 42bc 8c53 49bb
00000020: e2ef 153c 0462 0dbc 8a3f b43b 2ef1 afb9
00000030: 7ea0 b8bb 7d32 66bb 87be 9dbb 0f6d ae3b
00000040: 15a5 c2b8 9bc5 a438 ad56 3abb 3e59 e5bb
00000050: e3a4 ffba 7037 1bbc 74d1 e8bb be3e 27bb
00000060: ceb3 2dbb 8a07 1dbc b7d3 56bc 281a 7c3c
00000070: 01b4 773b fff0 6c3c 7f5b 35ba 5d4c d63b
00000080: efbd ef3a 5b30 763b 2395 1f3c f163 0e3b
00000090: cc83 e23b fafc 21bc df67 0a3c 8bda a5bb
000000a0: 15ef 3f3b 84fc e8bb ff98 043c b73c 03bb
000000b0: 9990 7d3a 8f57 063c de65 3ebc 9e38 c73a
000000c0: f111 09bb e6cc ab3a 125c fdbb a612 a7bc
000000d0: 3f4b 383c 4563 993b a19e 913b c05e 9cbb
000000e0: d83a 4abb f6ee d23b 0bd3 81bb 832d 46bb
000000f0: 40fd afb7 9735 a73b a014 0dbb 0d24 3f39
-0.010323385 0.0002904864 -0.00045155198 0.014495262 0.008310333 0.010997248 -0.011856196 -0.0030719964
0.009151431 -0.008629326 0.0055007385 -0.00033558294 -0.0056343665 -0.0035125308 -0.0048139724 0.0053230594
-9.28139e-05 7.856936e-05 -0.002843301 -0.006999164 -0.0019504096 -0.009473667 -0.007105047 -0.0025519575
-0.0026504877 -0.009584317 -0.013112 0.0153870955 0.00377965 0.014461755 -0.0006918236 0.006539865
0.0018290858 0.0037565443 0.009740147 0.002172705 0.006912684 -0.0098869745 0.008447616 -0.0050614527
0.002928679 -0.0071101803 0.008093118 -0.0020025203 0.0009672731 0.0081995865 -0.011620967 0.0015199368
-0.0020915235 0.0013107329 -0.007731923 -0.020394634 0.011248409 0.0046810233 0.004443959 -0.0047720373
-0.0030857828 0.006437178 -0.003961926 -0.003023953 -2.0979554e-05 0.005102824 -0.0021527186 0.0001822861

main.1.running_var f4 [64]
00000000: dbcc 0e3e 4c61 253e 1da4 0f3e 0b97 1f3e
00000010: 0971 073e 7dfc 083e 8d76 163e 492c 1d3e
00000020: acd5 153e 1814 143e 27bd 0a3e aa06 0f3e
00000030: 8d78 db3d 1baa 133e 26a2 1b3e 4dde 293e
00000040: 263c 073e 6852 123e f592 123e 8ea4 063e
00000050: b26e 0b3e 987f 0e3e e29c 0e3e f4ed 123e
00000060: ce1b 313e aa22 183e 86bf 1b3e d6f6 253e
00000070: df6a 0f3e 20f3 f93d 5822 263e 8707 1c3e
00000080: 9d1b f23d d0ef 103e 8a23 133e 4971 053e
00000090: ce4b 293e f52e 203e c623 063e 0b72 e43d
000000a0: d196 0a3e 3f1c 0a3e f836 0b3e 2c4b 143e
000000b0: 4741 0c3e c84c 0d3e 37f4 1f3e a77b 1d3e
000000c0: ed8d f33d 4333 1f3e 3422 213e 6ca7 f53d
000000d0: 4e9e 0b3e ee6d 163e fbc0 103e d954 023e
000000e0: 61fd 163e 669d 0c3e 1e99 e03d 1d92 073e
000000f0: 456c 0b3e 0b1e 083e caec 063e 8b0c 063e
0.13945334 0.16150397 0.14027448 0.15584962 0.13226713 0.13377567 0.14693661 0.15348925
0.1463229 0.1446079 0.13548718 0.13967386 0.107163526 0.14420359 0.15198573 0.16588707
0.13206539 0.14289248 0.14313872 0.1314871 0.13616446 0.1391586 0.13927034 0.14348584
0.17295763 0.14856973 0.15209779 0.16207442 0.14005612 0.122045755 0.16224039 0.15237246
0.11821673 0.14153981 0.14369026 0.13031496 0.16532823 0.15642913 0.13099584 0.111545645
0.13534094 0.13487338 0.13595188 0.14481801 0.13696776 0.13798821 0.15620504 0.15379201
0.118923046 0.15546899 0.15735704 0.11994824 0.13634607 0.14690372 0.14136116 0.1272768
0.14745094 0.13731918 0.10966705 0.13239332 0.1361552 0.1329271 0.13176265 0.13090722

main.3.weight f4 [64, 32, 4, 4]
00000000: 1f7a 21bd 30b9 da3c 5220 e4bc 97b1 803b
00000010: 3d72 103c 1bec a4bc 8445 503d b61e 3d3d
00000020: 3b87 283d 9208 f4bc b4b3 5fbc 4656 f5bc
00000030: e6e4 86bd 3230 59bd 8d50 b2bd 8b14 503b
00000040: 0e8c 9e3c e09d 24bd 7e15 39bd 9e4c 1bbd
00000050: 5f44 87bc 77c7 613c f3ee 5f3c 94b7 b23d
00000060: 4794 72bb e15d ef3c 7793 aa3c 54f8 a9bd
00000070: aff2 d8bc bd16 44bd 6ad8 10bd 001d 12bc
00000080: 9bf2 8c3a ba05 c83c 7a95 053c 8f4c f0bc
00000090: bbb8 c6bd 1a69 a7b9 504f 90bd af44 ed3a
000000a0: 696a 6a3d d4d0 443d 9474 88bc 68eb 61bd
000000b0: caa9 b2bd 485a 46bb d0bb 623c 9f06 07bd
000000c0: e617 143d efa6 9abd 05b2 00bd aa8b 78bc
000000d0: 8ad2 54bd ca78 88bc 0845 ba3b 120d 1ebc
000000e0: 5be4 963c 6997 223d c702 5e3d 7bbe 5d3c
000000f0: 5c09 98bc 9b49 f5bb b94f a63d 6c44 40b9
00000100: eb57 123c 41bd 22bd 56c1 ff3a f1b3 07bd
00000110: 653f a1bd de0f 863c ee6e 103d 9eb4 dcbd
00000120: 38f1 95bc 5a91 59bd cafc 02bd 27d7 fd3c
00000130: 77c4 25bd 0410 953c 6364 20bd e430 4cbd
00000140: 7844 ba3c beb6 64bb 9bcf 223d 01f5 f73c
00000150: 2b60 d4bc 895f 86bd 4bb6 b5bc cd4c 96bd
00000160: 6a9a c5bc 4bcd b4bc 9a3e acbc 949a 9fbc
00000170: defc b7bb 241c 8dbd 2fbc 703c 5dcf a1bd
00000180: c7a9 c5bc 9454 49bc 02c7 edb7 95e5 7abd
00000190: b1c8 823d 021d 0c3c dd86 6fbd fed7 8e3c
000001a0: 7a00 0aba 408d fc3c 3aca 70bd b687 5e3d
000001b0: 3292 00bd b067 603d a584 a2bd 648d 77bd
000001c0: 3b95 703d 0bb8 08bd 2a7a 1ebd 0f85 a63c
000001d0: d502 003c d067 743d 68c5 cabc 482f 023d
000001e0: 14d8 633d ee65 3a3c d957 68bd 0672 73bd
000001f0: fd3b ac3c 0f8e aabd ff66 68b9 1acf c63c
00000200: 7a0c 7dbc 4d67 21bc 2b58 80bb cc97 0d3d
00000210: 0576 853d 105f 2e3d 4703 7a3d a6fa 55bb
00000220: c52c 74bc 0a51 0dbd 1ca1 80bd 2c25 09bc
00000230: 79b4 98bd cc65 01bd 85b8 83bd 793e 4ebd
00000240: 51b4 3bbd 6681 fb3b 8c4c b1bd 9b33 653b
00000250: b83e 983c 8aeb 273d 1eb0 52bd 264d 6cbc
00000260: a5d2 3b3d 5ce9 3cbd d6e5 3cbd 2e3b 2bbc
00000270: 0bad 82bb 694d bebd 4ea5 f3bb ad27 cbbc
00000280: 8d4c eebc 5de7 48bc 71dc 763c d0f1 14bc
00000290: 98f7 bdbc b180 1dbc b2b0 853c a47d 98bc
000002a0: 4a72 883d 98b2 763d a751 70ba a37e 82bd
000002b0: 4dec 63bc 779c 363c 429a 3bbc 1088 653d
000002c0: d38b 35bd 7d52 693d 7b7f 303d 13b3 5dbc
000002d0: b761 78bc cb18 e3ba 0af3 abbc 19e8 a4bc
000002e0: 00d8 57bc 2044 3dbc ef4e 82bd e9b9 803c
000002f0: 3f63 bbbc 7b77 4b3b 832e 39bc 271d 94bc
00000300: c461 8dbc a662 45bd 9eb0 82bd d8e3 86ba
00000310: 766c baba 2091 76bb 5e99 7bbd ad16 51bd
00000320: b115 dc3c 5df7 90bd feb4 84bc 81c6 4ebd
00000330: ab36 db3c 4790 8e3c e689 9d3c cdfa ab3c
00000340: 588c 2e3c 434a 863b 69c6 8cba 1ea8 03bd
00000350: 5bd4 47bc 73fe ecbc aa9a 983c 166a 0b3d
00000360: 3207 85bc 7e4b 82bd 9497 a2bc 1f7a acba
00000370: d665 57bd 556e 12bd a1fe 8c3c 2a37 ad3d
00000380: 0fe0 47bd 0a67 c1bb 0165 3abe 1b67 a0bc
00000390: 2891 16bc bc98 a3bb e08e 993c 1b98 9d3c
000003a0: 9fe9 54bc 7062 a93c fee5 57bd 0ca5 5cbb
000003b0: 98c8 6a3d 7d13 c2bc 5eab d4bd 448d f73a
000003c0: 6910 4b3c 4239 be3c ac58 223d bc99 023d
000003d0: 5154 90bc c96f 523c 0ed3 a3bd d244 083b
000003e0: ac3a 5ebd ef3b 27bd 730c 77bc 91e9 b3bc
000003f0: a9cf 4ebd 0b00 d83c 092d debc 639d 2abd
-0.039423104 0.026699632 -0.027847443 0.0039274204 0.008816299 -0.020132115 0.050847545 0.046171866
0.04114459 -0.029789243 -0.013653684 -0.029948365 -0.06586628 -0.05302448 -0.0870677 0.0031750526
0.019353893 -0.040189624 -0.045186512 -0.037914865 -0.016512094 0.013780466 0.01366781 0.08726421
-0.003701465 0.02921957 0.02082227 -0.08299318 -0.026482908 -0.047873247 -0.03536264 -0.008918047
0.0010753454 0.024416793 0.008153314 -0.029333381 -0.09703203 -0.0003193103 -0.07046378 0.0018102134
0.057230387 0.048050717 -0.016657151 -0.05515614 -0.08723791 -0.0030266214 0.013838723 -0.0329653
0.036155604 -0.07551371 -0.031419773 -0.015170017 -0.0519586 -0.01665916 0.0056844987 -0.009646671
0.018419435 0.039695177 0.054201867 0.013534184 -0.01855915 -0.007485581 0.08120675 -0.00018336036
0.008932094 -0.039731268 0.0019512575 -0.03313059 -0.0787342 0.016364988 0.03526204 -0.107766375
-0.018303499 -0.053117134 -0.03197936 0.030986382 -0.040470567 0.018196113 -0.039158236 -0.049851313
0.022737727 -0.0034898962 0.03974877 0.030268194 -0.025924763 -0.06561191 -0.02218165 -0.07338867
-0.024121482 -0.022070548 -0.021025945 -0.019482888 -0.005614861 -0.06890133 0.014693304 -0.079008795
-0.024128808 -0.012288231 -2.8345272e-05 -0.061254103 0.06385935 0.008551838 -0.058478225 0.017436977
-0.0005264353 0.030829072 -0.05878661 0.054328643 -0.031389423 0.054786384 -0.07935456 -0.060437575
0.058736067 -0.033378642 -0.038690723 0.02032712 0.007813175 0.059669316 -0.024752334 0.031783372
0.05562599 0.011376841 -0.056724403 -0.059434913 0.021024698 -0.08327877 -0.00022163613 0.024268676
-0.015444869 -0.009851289 -0.0039167604 0.034568593 0.06516651 0.042571127 0.06103828 -0.0032650619
-0.014903252 -0.034501113 -0.06280729 -0.008370679 -0.074562974 -0.03159122 -0.06431679 -0.050352547
-0.04582626 0.0076753376 -0.08657178 0.0034973386 0.018584594 0.040996112 -0.05143749 -0.0144226905
0.045855183 -0.046120986 -0.046117626 -0.010451121 -0.0039879135 -0.092921086 -0.0074354773 -0.024799192
-0.029089237 -0.012262193 0.015067206 -0.009090856 -0.023189351 -0.009613202 0.016319606 -0.018614598
0.06662424 0.060228914 -0.00091674406 -0.0637181 -0.013911319 0.011145703 -0.011450352 0.056037962
-0.0443228 0.056963433 0.043090325 -0.013531464 -0.015160016 -0.0017326114 -0.020989913 -0.020130204
-0.013174057 -0.011551887 -0.06362712 0.015713649 -0.022874473 0.0031046558 -0.011302593 -0.018080307
-0.017258532 -0.04818978 -0.06381343 -0.0010291291 -0.0014222998 -0.0037623122 -0.06142556 -0.051047016
0.026865812 -0.07078431 -0.016199585 -0.050482277 0.026759466 0.017402781 0.019230794 0.020993615
0.010653578 0.004098208 -0.0010740283 -0.03214275 -0.012196626 -0.028929925 0.018628437 0.03403672
-0.016238783 -0.06362055 -0.019847669 -0.0013158954 -0.052587353 -0.035749752 0.01721126 0.08457787
-0.048797663 -0.005902176 -0.18202592 -0.019580415 -0.009189881 -0.0049925726 0.018744886 0.019237569
-0.012995153 0.020676821 -0.052709572 -0.0033667712 0.057320207 -0.023690933 -0.10384248 0.0018886705
0.012394049 0.023220662 0.039635345 0.031884894 -0.01761833 0.0128440345 -0.0799924 0.0020792973
-0.054255173 -0.04082864 -0.015078652 -0.02196196 -0.05049101 0.026367208 -0.027121084 -0.041654002

main.4.weight f4 [32]
00000000: 6083 813f 366f 8b3f 8aa8 4c3f 5fcc 8d3f
00000010: 08a8 933f a620 5b3f 826f 613f 75b9 5a3f
00000020: 4d6e 893f bb14 833f 8148 623f 6c59 5d3f
00000030: a370 863f 2799 5e3f 5e01 743f a207 523f
00000040: ca78 463f 0281 5b3f 955f 853f b170 863f
00000050: d3f5 963f 29a2 813f 6067 4e3f 4c6b 863f
00000060: c09f 6f3f cfa8 4a3f f4b7 823f 1196 843f
00000070: 46bd 633f daef 813f c384 643f 9daf 463f
1.0118217 1.0893314 0.7994467 1.1077994 1.1535654 0.8559669 0.8806077 0.85439235
1.0736786 1.0240701 0.8839188 0.8646457 1.0503124 0.8695244 0.95314586 0.82042897
0.7752806 0.85743725 1.0419794 1.0503141 1.179377 1.0127612 0.8062649 1.0501494
0.93603134 0.7916383 1.0212388 1.0358297 0.88960683 1.0151322 0.8926508 0.77611715

main.4.bias f4 [32]
00000000: bd7b d2be c058 e0be e654 4bbe 8ba9 c7be
00000010: 4349 d4be cebc 18be 15b1 a0be e630 44be
00000020: d811 bebe 04b7 dbbe a8cb 95be f8dd 9dbe
00000030: dc8e a1be 4f48 51be f358 aebe 7aea 3bbe
00000040: cb06 1bbe 4c7c 83be b28f bfbe cfa7 86be
00000050: d9cb d3be f55d adbe ff2b 9dbd 3eed a9be
00000060: 2c30 a4be 10f3 80be 0862 c1be ae7c d7be
00000070: 7923 5fbe ecaf 6ebe 12eb 7dbe 758f 2dbe
-0.4111003 -0.4381771 -0.19856605 -0.3899654 -0.41462144 -0.14915773 -0.31385103 -0.19159278
-0.3712299 -0.42913067 -0.2925694 -0.3083341 -0.31554306 -0.2043774 -0.34052238 -0.18351164
-0.1513931 -0.25680768 -0.37414318 -0.26299903 -0.4136646 -0.33860746 -0.07674407 -0.33188814
-0.32068002 -0.25185442 -0.37770104 -0.4208731 -0.21790875 -0.23309296 -0.24796703 -0.16949256

main.4.running_mean f4 [32]
00000000: 15d2 0fbf 96dc 00bf 8a29 5cbf 7285 41bf
00000010: 28e1 71bf 6b63 25bf 2cc0 26bf d86d 20be
00000020: 8f4b 42bf 2807 6dbf 9196 6bbe 24c7 bebe
00000030: e321 67bf 83b9 36bf cd16 38bf d5dc 4abf
00000040: d1c0 3bbf 0d6d ffbe 105b 4ebf f1ca 1ebf
00000050: 427a 5cbf aa07 09bf 7d38 a4be 2525 53bf
00000060: 4fcd 9cbe c46f 4fbf 66ae 62bf cb57 2abf
00000070: f678 a6be 5162 fabe 3a52 05bf bb07 43bf
-0.56179935 -0.5033659 -0.86000884 -0.75594246 -0.94484186 -0.64604825 -0.6513698 -0.15666902
-0.75896543 -0.92589045 -0.23006655 -0.37261307 -0.9028608 -0.7137682 -0.7190979 -0.7924321
-0.7334109 -0.49887887 -0.806077 -0.62028414 -0.8612405 -0.5352732 -0.32074347 -0.82478553
-0.30625388 -0.81029916 -0.8854736 -0.6654021 -0.3251416 -0.48903134 -0.5207859 -0.7618367

main.4.running_var f4 [32]
00000000: ff1b 003f be86 f13e 500b 2c40 bae4 263f
00000010: 7ec3 093f b7b6 0d40 e1f0 f93e 5c7f f23e
00000020: 42f0 1b3f 0a8b e43e de22 d83e b118 d23e
00000030: eda1 073f 07d3 243f 6c34 a33f e391 b93f
00000040: c9d8 bc3f 3e3a cc3e e438 0b3f 1a49 3f3f
00000050: cc71 423f 3ac6 ec3e 3cae 9e3f a9e1 323f
00000060: 3513 253f 4cba 023f c172 1d3f 116f 193f
00000070: 4b57 b93e 7a82 d53e 7c45 363f 7c8a f23f
0.5004272 0.47173113 2.6881905 0.6519276 0.5381392 2.214277 0.4881659 0.47362792
0.6091348 0.44637328 0.42214102 0.41034463 0.52981454 0.643845 1.2750373 1.4497646
1.4753658 0.39888185 0.54383683 0.7472092 0.7595489 0.46244985 1.2396922 0.6987558
0.6448243 0.51065516 0.61503226 0.599351 0.36199412 0.41701108 0.71199775 1.8948512

main.6.weight f4 [32, 16, 4, 4]
00000000: b3d1 20bd 4564 f0bc c1f5 073e 5a66 87bc
00000010: ce51 18bc a55c 8b3a b18f 4fbc ed07 09bd
00000020: ff47 2e3d 5aa0 26be 8fc7 d5bd b6df 4ebd
00000030: 826a 31bd 1c98 103d e9ba 2dbd 8b26 bab9
00000040: 8b8d 26bd 51ca f1bd beab 923d eefb 46bd
00000050: 5962 f73b 2197 1b3d aba8 b23d 9c36 7b3d
00000060: 983d 84bd 2905 3339 0165 5e3d c17c 843d
00000070: 22cd 5fbc 06d8 9fbd 14b0 0bbd e4e9 c9bc
00000080: f8d8 90bd 85f8 c33b a1ea 13bd 5945 9dbd
00000090: 7127 51bd 2c44 4abd 85a8 a43d 37f6 cabc
000000a0: 621d 8abd 0828 91bc e2fa 20be 32a1 c5bc
000000b0: 1498 163c 8c62 db3c 562b 723d 553b 08bd
000000c0: ea7b 60bd 93ae 11bd 7d48 cabd 9871 0dbd
000000d0: bf27 183d 0fa3 56bb 6b48 1b3d 886b b73b
000000e0: 3127 ab3b 83f4 2b3d 3d9f f33c 81e2 05bd
000000f0: 6b36 20bd d6ab ccbc ed5f bc3d 75a7 85bd
00000100: 1d73 d43d f5a2 e7bd 483d 163d 41ab c93c
00000110: bb40 f4bc 7440 053d 606a 0d3d 3750 0f3b
00000120: bbec 453b 1cfb e13c d03b cebb 9260 553d
00000130: 0db2 8ebc f023 5dbb b7ee ac3c 5ac0 94bd
00000140: b02f d73d ef71 cdbc 58c9 90bc 4448 013b
00000150: 8223 633d 0c90 b2bd e9f8 d0bd 980f 88bc
00000160: b6c8 b1bc 6a6b be3d 0265 af3c b4f6 033d
00000170: d70b 9d3c c162 86bb d1dd 0cbd d357 fa3c
00000180: 48ac ecbb dcbd 843d a019 5fbd 7382 333d
00000190: 7e56 10bd 1d58 f0bc c3e2 cd3c 9ce4 c93d
000001a0: 53f9 ce3a ed3e 6b3d e16e 5dbc ac38 2a3c
000001b0: 272d 793d b930 3e3d 87ae ccbb 98ee 39be
000001c0: 776d 2fbe 21fe e03c d9b7 23be 5e90 063d
000001d0: 0c9e c93c 3cd3 c1bd 12bf cf3c 7fcf 813d
000001e0: a5e0 df3d b85a fc3c e461 c03c a878 9c3c
000001f0: d74f 83bc e7cf 6bbd 5811 e4bc ca3f 3ebd
00000200: 734b bf3c 7a7c 313d d4a2 57bc 7337 b23d
00000210: 75ef 253c 9e86 b3bd 710b a2ba 0b24 e03c
00000220: 21cd 3ebd 87f7 7dbd 2528 5bbc 69d0 873c
00000230: 74aa eabc 514a 49bd a2fb 66bd df51 20bd
00000240: 7a76 fb3d 0355 d9bd a44b e5bc 8c05 8fbd
00000250: d638 fbbc 6700 56bd 5937 95bb 60c4 eb3a
00000260: 4276 1c3a 408c f93d 3053 6ebd de49 cdbc
00000270: 1898 fa3c bd40 ce3c 7615 3bbd 1364 71bc
00000280: 7c0a b7bc b7f4 5c3d 56d5 6dbd 8490 7cbd
00000290: dc26 8c3c d6c8 bf3b f0b1 1c3d 6648 0dbc
000002a0: 0686 08be 4286 8cbd 9a00 3dbd f487 09be
000002b0: 89e3 493d 876b 74bd 4ea9 17bd 3d46 b93c
000002c0: 1cce 9e3c fd23 99bd 0539 aebd dea7 3f3d
000002d0: ec8e 96bd f7d5 ea3d 48a1 b83d fb29 62bd
000002e0: 2c4e a3bd 9ed8 a33d b766 87bd 387d a7bb
000002f0: b72d 6ebd 72fe 61bd 6d1b cbbd 8f63 303d
00000300: d226 113e 717c 8dbc be94 e1bd 9e55 c9bc
00000310: c839 31bd 38ea e13d 22da 9b3c cf42 aa3d
00000320: 2c37 1b3d c96c 87bd abba 2dbd 3e90 a53d
00000330: 47df 67bc a1b8 c4bc c7de b4bc cada 6dbd
00000340: acb5 d2bc 9872 49bd bc37 633d 3ee3 78bc
00000350: 25ee 7abb ed4d dabd b724 82bd 3373 9dbd
00000360: aef7 8fbd c970 fabc f584 383c 2930 443d
00000370: 156b 3bbd d19f dbbc 8368 163d d57b 57bd
00000380: 8c88 a43c f3ad 023e e28a 2ebc aa18 8abd
00000390: 02aa 9dbd 321d c2bd ed21 61bd 97d3 17be
000003a0: 2dd7 cfbd b2ea 2d3d e27d 2ebb 54a3 9fbd
000003b0: b837 f8bb 91f3 c0bd 418b c6bd cb2d 20bd
000003c0: 4951 fa3c 9add 87bd 1db3 a6bd 0fdc c7ba
000003d0: 1e65 2fbd 7a01 383d 8aaa 893d fda6 f1bc
000003e0: 953a 9d3c e1b5 b5bc 003f 0fbd f30b b0bc
000003f0: 4dd5 9f3d b005 6c3d 3308 1e3c b371 4ebd
-0.039262485 -0.029344687 0.13277341 -0.016528297 -0.0092968475 0.0010632469 -0.012668536 -0.033454824
0.04254913 -0.16272107 -0.104384534 -0.050506316 -0.043314464 0.035301313 -0.04241458 -0.000355054
-0.04066233 -0.11806167 0.071616635 -0.048580103 0.0075495658 0.037985925 0.08723577 0.061331376
-0.064570606 0.00017072693 0.054295544 0.064691074 -0.013659747 -0.07804875 -0.034103468 -0.02464766
-0.070726335 0.0059805536 -0.03611243 -0.07679243 -0.051063005 -0.04938142 0.08039955 -0.024775608
-0.067438856 -0.017719284 -0.15720704 -0.024124715 0.009191532 0.02678039 0.05912336 -0.03325971
-0.054805674 -0.035566878 -0.09877107 -0.03453216 0.03714728 -0.0032751 0.03791086 0.0055975355
0.005223178 0.04198123 0.029739017 -0.032686714 -0.039114397 -0.024984282 0.09197984 -0.065260805
0.103735186 -0.113103785 0.036679536 0.024617793 -0.029816022 0.03253217 0.034525275 0.002186788
0.0030200917 0.027585559 -0.0062937513 0.05209405 -0.017418886 -0.0033743344 0.021109922 -0.07263251
0.105071425 -0.025078742 -0.017674133 0.0019726912 0.055453785 -0.08718881 -0.10203726 -0.016608998
-0.021702152 0.09297831 0.021410469 0.032217696 0.019170685 -0.004101128 -0.034391228 0.030559456
-0.007222686 0.06481525 -0.054467797 0.043825578 -0.035238735 -0.02933889 0.025132542 0.09858057
0.0015790857 0.057433058 -0.013515205 0.010389488 0.060834076 0.046433184 -0.006246391 -0.18157423
-0.17131601 0.027464928 -0.15988101 0.032852523 0.024611495 -0.09464118 0.025359664 0.06338405
0.109315194 0.030804977 0.023484178 0.019100502 -0.016029282 -0.057571318 -0.027840301 -0.046447553
0.023351407 0.0433316 -0.01316138 0.08701982 0.010127892 -0.087659106 -0.0012363029 0.027360937
-0.046582345 -0.06200364 -0.01337627 0.01657887 -0.028645732 -0.04914314 -0.05639232 -0.03914058
0.12278457 -0.10611918 -0.02799017 -0.0698348 -0.03066675 -0.052246477 -0.004553717 0.0017987601
0.00059685495 0.12184954 -0.058184803 -0.025059637 0.030590102 0.025177354 -0.045674764 -0.014733332
-0.022343867 0.053944316 -0.05806478 -0.06166126 0.017108373 0.005852799 0.038255632 -0.008623218
-0.13332376 -0.06861545 -0.04614315 -0.13430768 0.04928926 -0.05967286 -0.037026696 0.0226165
0.01938539 -0.07477567 -0.08506969 0.04679095 -0.07351479 0.11466592 0.09015137 -0.055215817
-0.079738945 0.08000301 -0.06611388 -0.005111363 -0.058149066 -0.0551743 -0.099173404 0.043063696
0.14174965 -0.017271252 -0.110146984 -0.024576958 -0.043267995 0.11031002 0.019024912 0.08313524
0.037894413 -0.06612546 -0.04241435 0.08084153 -0.014152355 -0.02401382 -0.022078885 -0.05806998
-0.025721394 -0.04918155 0.055473074 -0.0151908975 -0.0038288918 -0.106593944 -0.06354659 -0.07687988
-0.07029663 -0.030571358 0.011262168 0.04789749 -0.04575642 -0.026809605 0.036720764 -0.05260833
0.020084642 0.12761669 -0.010653229 -0.067429855 -0.07698442 -0.09478225 -0.054963995 -0.14826809
-0.101484634 0.04246015 -0.0026625325 -0.07794824 -0.0075750016 -0.094214566 -0.09694529 -0.03910617
0.030556338 -0.06634064 -0.08139632 -0.0015248078 -0.042821042 0.044923283 0.06721981 -0.029498572
0.019192973 -0.022181453 -0.03497219 -0.021490073 0.07804356 0.05762261 0.0096455095 -0.0504014

main.7.weight f4 [16]
00000000: d956 7c3f 474e 883f 4934 803f b186 803f
00000010: 3ed6 823f ba2c 823f 0869 813f 5720 863f
00000020: 26b1 873f 8f67 663f 41d0 7c3f 8101 803f
00000030: 6d48 763f a821 813f 3ca1 7d3f aeb6 733f
0.9857002 1.0648888 1.0015956 1.0041105 1.0221632 1.01699 1.0110178 1.0478619
1.0600936 0.9000177 0.9875527 1.0000459 0.9620426 1.0088396 0.9907415 0.9520062

main.7.bias f4 [16]
00000000: 0d89 96bd f173 aabd 23aa 93bd ebb8 8838
00000010: 7219 57bd 3902 d83c c7a4 483a 0b77 b9bd
00000020: dbdd acbd 050b 99be e44f 58bd ee76 36bd
00000030: e3df cfbd c56d dfbd 2a03 06bd a2b3 bbbd
-0.07350359 -0.08322895 -0.072101854 6.519429e-05 -0.0525145 0.026368247 0.0007653948 -0.09055909
-0.08440753 -0.2989122 -0.052810565 -0.044547014 -0.10150125 -0.10909609 -0.03271786 -0.091651216

main.7.running_mean f4 [16]
00000000: c111 33be a653 67be d675 06be ba56 33be
00000010: af24 fbbd b9d0 0bbe c647 ebbd 1759 9ebe
00000020: d79c 1bbe 1ea6 0ebe e161 7dbe c31a 67be
00000030: b989 04be 4f9a 61be 057e 45be 4ca4 07be
-0.17487241 -0.22590503 -0.13130888 -0.17513552 -0.12262856 -0.1365384 -0.11488299 -0.30927345
-0.15196548 -0.13930556 -0.24744369 -0.22568803 -0.12943162 -0.2203152 -0.19286354 -0.13246268

main.7.running_var f4 [16]
00000000: 7eeb 373e 18b5 873e d08d 893e 1d06 8c3e
00000010: 9ecf 733e c9c4 533e 871b 853e 0538 9d3e
00000020: 9c99 573e cff6 4f3e 5c4a 843e 23e8 963e
00000030: af01 883e 23fd 833e f30c 6a3e 2aa1 3b3e
0.17960927 0.2650535 0.26866007 0.27348414 0.23809668 0.20680536 0.25997564 0.30706802
0.21054691 0.20308994 0.25837982 0.2947398 0.26563784 0.25779065 0.22856502 0.18323198

main.9.weight f4 [16, 8, 4, 4]
00000000: 65b8 afbc 4a9e 73bc a3b7 e43b d478 be3c
00000010: 8fa8 c03c 26f6 2fbc 75d3 993d 8640 be3c
00000020: be95 07bd 9c2e 4fbd ee26 083d 1165 f43b
00000030: 9c98 bebb 0ba7 443d 3df3 593d 8cfd ab3d
00000040: 8090 ac3c 9807 28bd 82a6 923d 81fb 4a3c
00000050: eba0 763d 3ab0 68bc 9db4 113d 56da 2c3d
00000060: 0f40 82bd 2ba5 b23d d636 413c 2b21 963c
00000070: cd53 a43b 6c5c 5cbd b794 4e3b 2cd3 dd3c
00000080: adca 69bd 8df0 7dbd 0709 0ebd e701 77bd
00000090: 82da 7d3c de86 d23c 856a c0bd c173 973c
000000a0: 0e84 763c efec d33b 0016 4fbd 0566 07bd
000000b0: 0018 013e 24b1 0c3d 826a a53c 0f5f a53d
000000c0: d28f 85bc d91f 8fbd 62e6 f23d de0c 573d
000000d0: e918 f83d 3987 403c aca3 513d fc23 303d
000000e0: d138 c8bc ae3c 8ebb b00e 3dbd 5b04 36bd
000000f0: 6737 fbbc 87a0 1dbd 3269 b4bd d07e 0b3d
00000100: b2ca 863d 0875 bd3d 8e21 b2bb 1803 72bd
00000110: 93e8 6c3b 6d3f efbb 1864 bd3d 3f55 473b
00000120: 8d19 e4bd 27a0 e93d 1120 98bc 0340 7cbb
00000130: b2ee 5a3c 4116 473b 58ff 52bc 56cb 5e3d
00000140: a84d bcbc 5070 96bd 7116 0dbc a980 143c
00000150: a082 cd3d a707 a03d 91cf 32bc 4e73 a93d
00000160: 4685 42bd 0ec5 1d3d 65ce e4bc e103 73bb
00000170: 5a52 87bd 4206 abbd dc86 68bd 3a2a 9e3c
00000180: 1f7d 223d c1ce 963d f440 223e b8d4 8e3d
00000190: a2ce c4bc 4e62 733c 6b9c 433e 4385 9e3c
000001a0: 1905 56bd 854c 2e3d 0fe3 ea3b a266 74bd
000001b0: 296f 6b3c 8b71 aabd 9f87 57bd bb99 013d
000001c0: 5e3f b7bd 374b 9dbd 00d9 17be f7df 46bd
000001d0: be5f 8ebc f6ca 24bd f592 1fbd 34af 253d
000001e0: 0224 b8bb c450 ea3c 5c19 1b3d daa2 453d
000001f0: 6d58 9a3d 38fa 6cbb e31b 29bd a845 d2bb
00000200: 2803 fa3d 5ce1 6d3d 1f1d 5a3d e11d 13be
00000210: 6434 323d c113 1fbd 3e43 33bd 481f bbbc
00000220: d5ae 013a 33e5 1fbd 9c60 72bc 781f 7fbc
00000230: 6849 78bd 6165 f53c d8b5 fb3d ef2f ea3c
00000240: c2ac 4dbd 7b0d 6abd 1b14 9b3d 3cdf 8fbc
00000250: 8cf7 193d ca4e 8ebd 7563 0abe 6847 733d
00000260: 9c22 4ebd a727 aabd c242 5abd 23db 48bc
00000270: 075f c0bd 235f 09bd f7f1 3d3d 4821 0f3d
00000280: 9a4b a3bc df31 0e3d 9ff0 273c a9fd a23c
00000290: 206d a3bc 45e9 313e 205b 3c3e ea9d 123d
000002a0: 824a 14bb d9f0 423c d819 10bd 63d0 753d
000002b0: f3df 0dbc 8a17 45bb a0bf 8ebd 5055 6e3d
000002c0: 9fce 56bd 93ae d9bd 5e39 013d 57e1 f6bc
000002d0: 3225 973a cd60 9abc f4e9 5ebd 194a e3bc
000002e0: a72c 043d 529e 703c 301b 02be 5601 ed3c
000002f0: d8b8 8fbc 5c5e 693c 43e6 dcbc 48d2 8336
00000300: e94c 90bd ae62 68bd bcec 2fbd dd08 1b3d
00000310: c9c8 e93d a538 da3c 0bd6 f4bc 6e4d 493c
00000320: 9c3a 973d 360f 063d 8c74 d83d 7ba4 5cbc
00000330: bf23 293d 2417 95bc 6ed0 4b3c 411c 9b3c
00000340: b9a7 68bd ce41 d23c 3408 8b3d 2715 123d
00000350: 6777 453d 0973 9b3d ad54 2b3d 0782 ef3c
00000360: 5d8b 103e 6f43 4abd 3fc0 96bd 91f0 50bd
00000370: 0323 d8bc 48b7 7c3d c1a3 7abd 8694 f93c
00000380: a72f 5d3d c6a4 e7bd ea45 003d 9e9b 6b3c
00000390: fa18 17bd 683f b4bd 78b8 00be b21e c1bd
000003a0: b4c7 c0bd fc85 bfbc e94b 19be f228 afbd
000003b0: 0ac8 303d 45f0 00bd 3dfa 933d 35a5 0abd
000003c0: 527b b13d e4b9 533d 6464 653d 1ea8 0b3d
000003d0: 9524 04bd ecd2 55bd 3170 1f3e 6240 d93c
000003e0: 355b 9e3d 68c3 1abc 12a1 113d 23c6 6e3c
000003f0: 2d3f 94bd 1ec7 893d 3aae 663c 73cb e6ba
-0.02145023 -0.014869282 0.006979899 0.023250975 0.023517875 -0.010739839 0.07511035 0.023224127
-0.03310179 -0.05058156 0.03324025 0.007458337 -0.0058165323 0.048010867 0.053210486 0.083979696
0.021064997 -0.041022867 0.07160665 0.012389065 0.060212057 -0.014202172 0.035572637 0.04220041
-0.063598745 0.087229095 0.011792859 0.018326363 0.0050148726 -0.053799078 0.0031521746 0.027078234
-0.057078052 -0.061996985 -0.034676578 -0.06030455 0.015493991 0.025699075 -0.09395317 0.018487813
0.015046133 0.0064674537 -0.05055809 -0.033056278 0.12606812 0.034348622 0.020192388 0.080747716
-0.01630393 -0.06988496 0.11860348 0.052502505 0.12114126 0.01175099 0.05118148 0.043003067
-0.024441155 -0.0043407297 -0.046156585 -0.044437747 -0.030666066 -0.03848317 -0.08809127 0.034056485
0.0658163 0.092508376 -0.005436129 -0.05908498 0.0036149367 -0.007301262 0.09247607 0.00304158
-0.11137686 0.114075 -0.018569978 -0.0038490302 0.013362573 0.0030378255 -0.0128782615 0.054393135
-0.022986248 -0.07345641 -0.0086113075 0.009063878 0.1003468 0.078139596 -0.0109137455 0.08273946
-0.04749038 0.038518004 -0.027930448 -0.003708117 -0.06607504 -0.08350803 -0.056769237 0.019307245
0.039670106 0.07363654 0.1584509 0.06974167 -0.024024311 0.014854981 0.19102637 0.019350654
-0.052250955 0.042553443 0.007168181 -0.05966819 0.014369764 -0.08322438 -0.052619573 0.03164075
-0.08947633 -0.07680362 -0.14828873 -0.048553433 -0.017379638 -0.04023262 -0.03895851 0.04045029
-0.005619527 0.028602965 0.03786598 0.04825101 0.07536397 -0.0036159884 -0.04128636 -0.006416995
0.12207633 0.058076248 0.05325043 -0.14366867 0.043506995 -0.0388372 -0.0437653 -0.022842064
0.00049470115 -0.03903694 -0.014793541 -0.015571468 -0.06061688 0.029955568 0.12290543 0.02858731
-0.050213583 -0.057141762 0.07572194 -0.017562501 0.037589595 -0.069486216 -0.13514502 0.05939427
-0.050325975 -0.08308344 -0.05328632 -0.0122592775 -0.09393125 -0.033537995 0.046373334 0.03494385
-0.01993351 0.03471553 0.01025024 0.019896345 -0.019949496 0.17374142 0.18394136 0.03579513
-0.0022627418 0.011898243 -0.035180897 0.060013186 -0.008659351 -0.0030073845 -0.06970143 0.05818683
-0.052443143 -0.106290005 0.03154885 -0.030136747 0.0011531471 -0.018844986 -0.054422334 -0.027745293
0.032269146 0.014686184 -0.12705684 0.028931301 -0.017544195 0.014243688 -0.026965266 3.928584e-06
-0.070459194 -0.056734733 -0.042950377 0.03785025 0.1141525 0.026638338 -0.02988722 0.012286527
0.07384226 0.03272935 0.105691046 -0.01346695 0.041293856 -0.01819951 0.01243983 0.018934371
-0.056800578 0.025666144 0.06788674 0.035664704 0.048209574 0.075903006 0.0418288 0.029236807
0.14115663 -0.049380716 -0.07360887 -0.051010672 -0.026383882 0.061698228 -0.061191324 0.03046633
0.054000523 -0.11310725 0.031316675 0.014380364 -0.036889054 -0.08801156 -0.12570369 -0.09429683
-0.0941309 -0.023379318 -0.14970364 -0.085527316 0.043159522 -0.03147914 0.072254635 -0.03384896
0.086660996 0.05169095 0.056003943 0.034095876 -0.03226145 -0.052203104 0.15570141 0.026519958
0.0773224 -0.009446003 0.035554 0.014573607 -0.07238612 0.06727432 0.014079625 -0.001760824

main.10.weight f4 [8]
00000000: e751 0e40 bee0 0340 7ac4 0140 f6c0 0d40
00000010: 2efc 0740 55bf 0840 5af2 0340 2c4a 0a40
2.223749 2.0605922 2.027617 2.2149024 2.1247668 2.136678 2.061667 2.160777

main.10.bias f4 [8]
00000000: 6016 823f a658 713f 8f6e 6d3f 9ae4 813f
00000010: 1bd8 5d3f 001b 5a3f 1278 6d3f 18e0 793f
1.0163078 0.9427589 0.92746824 1.0147889 0.86657876 0.8519745 0.9276134 0.97607565

main.10.running_mean f4 [8]
00000000: a1db d53d 2e5e 7fbd 16d9 3a3c 1634 6b3d
00000010: 7881 723c 134b 1dbc 6888 2bbc 5774 0abd
0.104422815 -0.062345676 0.011404296 0.05742272 0.014801376 -0.009600419 -0.0104695335 -0.033802357

main.10.running_var f4 [8]
00000000: 6b2c c73d 3ab7 a13d 2060 a73d 2d32 ab3d
00000010: c99a 953d 81b6 a73d f6f6 9f3d d684 a13d
0.09725269 0.07896276 0.08172631 0.0835918 0.073049136 0.08189107 0.07810776 0.078866646

main.12.weight f4 [8, 3, 4, 4]
00000000: 4b5a acbe 010f 1fbf a604 f53e 90f5 ffbe
00000010: 697f 11be 23fd 5cbe eec2 1bbf a55a 443f
00000020: a0e5 46be 3516 8c3e b566 d8be 6207 393f
00000030: 5807 713d 4834 9abe 41a5 f93d 811c 203f
00000040: 7b3f 16be d2d8 3ebe 8351 5bbe 1784 09be
00000050: f31c 4fbe 3ca7 8bbe ae52 47be 0ed0 14be
00000060: b2c7 3cbe f8d1 97be d0b2 8ebe 8487 83be
00000070: b1be 42be a1fd 83be 0dcb cdbd 1e83 1bbe
00000080: 1f64 ae3e 801d 1f3f ae11 fdbe 7c86 013f
00000090: ee40 123e 0ab2 6c3e ae7d 1b3f 1628 49bf
000000a0: 9199 673e 8583 85be 8529 ed3e 1fe1 36bf
000000b0: 1a99 6dbd 229f 9f3e 30b8 e2bd 9c3d 24bf
000000c0: bfcf 2fbe 6736 a8bd 31f1 5fbe 3098 dcbe
000000d0: 7fca 15bf 4d82 493e 51c4 03be 76d6 50bf
000000e0: 7ce6 17be 8999 89be a576 8fbe 7caf e13e
000000f0: 779a 09bf 5c34 aebe 0304 21bf 8112 01bd
00000100: 1bf7 debd 5b36 1cbe 5cf1 42be f788 12be
00000110: a904 6dbe 247d 36be 378e 5dbe c94f 19be
00000120: 1b80 45be 35b9 3cbe 930f 20be 938c 18be
00000130: f4a4 18be 0a76 47be 8802 62be 9071 fbbd
00000140: acb1 363e 2da3 b93d 2739 6b3e 562e da3e
00000150: be6c 183f faa1 3abe 858b 083e 6f89 543f
00000160: b863 1e3e 9655 8d3e ab6f 993e 5f74 debe
00000170: 5b69 093f 4515 b03e a1b8 193f 6cff 0e3d
00000180: 5fb1 0f3f 257f 093f d047 0b3f 0b4d 923e
00000190: 01d9 9abd 0932 e53d 9ed9 903e bcb0 073f
000001a0: 42fb 193f d0cf 053f cbb0 143f b83b 0dbc
000001b0: a75b 713e 20af 5fbe 0bce 4a3f e6dc 583e
000001c0: 1d65 51be a5db 62be f517 69be 93e4 52be
000001d0: d497 47be 1b62 55be 3b25 45be b082 49be
000001e0: f00f 80be 2aea a4be 7877 85be fc92 78be
000001f0: 1b99 58be 6701 87be 9b32 5dbe c2b4 12be
00000200: 2e6b 19bf 89a3 08bf 3106 19bf b7f8 97be
00000210: b3cc b13d 2c11 cebd 9cf9 89be 302b 0abf
00000220: 3560 1dbf 056e 04bf a54e 22bf c238 ae3c
00000230: b0dc 74be 92c3 6f3e fdfd 48bf 0bbd 5dbe
00000240: 2b31 bc3d c67b 0dbf 77dd b6be 4451 17bf
00000250: 1d81 11bf 1b8a 2dbf 35a0 90be 454d cabe
00000260: bea1 75be b0c9 28bf 8c72 c4be 056e b2be
00000270: 3aa4 c43e c325 29bf 3eb0 c4be 16f7 00bf
00000280: c772 1dbe 0c4c 57be a41c 0ebe eb5b 1abe
00000290: 26a0 2dbe 8b3c 59be 7c27 7abe 5444 8ebe
000002a0: 4029 4ebe d335 70be 31a4 89be 2604 25be
000002b0: f351 d6bd a23c 3ebe 42d9 10be 650c 27be
000002c0: b685 59bd 68d1 0c3f 774c b93e d583 143f
000002d0: 4c95 123f dcc4 2c3f 78c0 973e 47a0 d33e
000002e0: 0dbb 803e c733 293f c4fa c53e d023 b13e
000002f0: c147 c6be ff4f 2e3f af08 cc3e 23bb 033f
00000300: 25b3 a4be 44b7 0fbe d1bf 00bf 5cc7 b5be
00000310: 64b5 b2be a64e ef3e cdfe 173f 8716 633e
00000320: 2e8a 1cbe 22c5 14bf b96f c0be f7ad 983e
00000330: 6359 8cbe 110c ecbe f646 a1be 532c 1fbf
00000340: 4114 c3bd e7b0 e7bd 2631 40be 3826 35be
00000350: ec83 10be 4f9c dabd 381e 2abe 65ee f3bd
00000360: 975c 33be af35 3cbe ad84 76be bdb7 3dbe
00000370: 30b7 1fbe 3b29 1ebe a479 06be 5447 eabd
00000380: c793 ac3e ed8a 113e 30c2 0b3f 9efe b63e
00000390: 7eac a63e a65e f2be 8b13 10bf da7b 5dbe
000003a0: 6e8e 2b3e 1688 153f 29e2 c93e 7a1a 97be
000003b0: fa40 8a3e 25b3 ea3e 51e6 a53e 2999 203f
000003c0: e762 35be 416a dcbe 07f7 83be 77f2 7dbe
000003d0: 2e0e 3cbe 7ae3 b2be e7fe b0be af4f 12bf
000003e0: 1c01 4fbe e3a4 a7be 31d1 543f fc9b 503f
000003f0: 5819 a4be 14db c4be 723c b53e bb79 5ebe
-0.33662638 -0.6213227 0.4785511 -0.49992037 -0.1420876 -0.21580939 -0.60844314 0.7670081
-0.19423532 0.27360693 -0.4226586 0.7227689 0.058844894 -0.30118012 0.12189723 0.62543494
-0.14672653 -0.18637398 -0.21417813 -0.13429295 -0.20225887 -0.27276027 -0.19465134 -0.14532492
-0.18435553 -0.2965238 -0.27870798 -0.25689328 -0.19018055 -0.2577944 -0.100484945 -0.15186736
0.3406076 0.6215439 -0.4942755 0.5059583 0.14282581 0.23114792 0.60738647 -0.7857679
0.22617175 -0.26076904 0.4632074 -0.7143726 -0.058007337 0.31176096 -0.11070287 -0.6415651
-0.17169093 -0.082135014 -0.21869351 -0.4308486 -0.5851211 0.19678612 -0.12867858 -0.8157724
-0.14834017 -0.2687495 -0.28020206 0.44079196 -0.5375132 -0.34024322 -0.62896746 -0.031511787
-0.108869754 -0.1525511 -0.19037384 -0.1431006 -0.23146309 -0.17821175 -0.21636282 -0.14971842
-0.1928715 -0.18430026 -0.15630941 -0.14897375 -0.14906675 -0.19478622 -0.22071278 -0.1227752
0.17841214 0.090643264 0.2297102 0.42613477 0.5954093 -0.18225852 0.13334472 0.8302221
0.15467727 0.2760436 0.29968008 -0.4344816 0.53676385 0.34391227 0.60047346 0.034911558
0.5613002 0.5370963 0.5440645 0.28574404 -0.075609215 0.11191184 0.2829103 0.5300405
0.60149014 0.5227022 0.58082265 -0.008620195 0.23570119 -0.21844149 0.79220647 0.21178016
-0.20448728 -0.221541 -0.22763045 -0.20595007 -0.19491512 -0.20838206 -0.19252484 -0.1967876
-0.2501216 -0.32209903 -0.2606771 -0.2427482 -0.21152155 -0.26368257 -0.21601336 -0.14326766
-0.5992917 -0.53374535 -0.5977507 -0.29681942 0.086816214 -0.10061869 -0.2694825 -0.5397215
-0.61474925 -0.51730376 -0.6340125 0.021267299 -0.2391231 0.23414448 -0.78512555 -0.21654145
0.091890655 -0.5526699 -0.3571584 -0.59108377 -0.56837636 -0.6778886 -0.28247228 -0.39512077
-0.23987481 -0.6593275 -0.38368642 -0.34849563 0.38406545 -0.66073245 -0.38415712 -0.50377023
-0.15375815 -0.21025103 -0.13878113 -0.15074126 -0.16955623 -0.21214502 -0.24429125 -0.27786505
-0.20132923 -0.23458032 -0.2688308 -0.16114864 -0.10464849 -0.18577817 -0.14145377 -0.16313322
-0.053106032 0.5500703 0.3619115 0.5801366 0.5725906 0.67487884 0.2963903 0.4133322
0.25142708 0.6609463 0.3866788 0.34597635 -0.3872662 0.68090814 0.39850375 0.5145742
-0.32167926 -0.14034754 -0.5029269 -0.35503662 -0.34904015 0.46739691 0.5937317 0.22176562
-0.15287086 -0.581133 -0.37585238 0.29820225 -0.27411947 -0.46102956 -0.3149945 -0.6217701
-0.095253475 -0.11313038 -0.18768749 -0.1769036 -0.14112824 -0.10674345 -0.1661309 -0.119107045
-0.17515789 -0.18379854 -0.2407405 -0.18527122 -0.15597224 -0.15445416 -0.1313234 -0.11439386
0.33706495 0.14213152 0.5459318 0.35741132 0.32553476 -0.47337836 -0.5627982 -0.21629277
0.16753551 0.58410776 0.3943036 -0.29512388 0.27002698 0.458398 0.3240228 0.62733704
-0.1771351 -0.43049815 -0.25774404 -0.24799524 -0.18364784 -0.34939176 -0.34569475 -0.5715284
-0.20215267 -0.32742986 0.831317 0.81488013 -0.32050586 -0.38448393 0.3539768 -0.21726124
